…
I0318 12:33:00.194813  2586 net.cpp:338] The NetState phase (0) differed from the phase (1) specified by a rule in layer data
I0318 12:33:00.194828  2586 net.cpp:338] The NetState phase (0) differed from the phase (1) specified by a rule in layer accuracy
I0318 12:33:00.194973  2586 net.cpp:74] Initializing net from parameters: 
name: "MNIST_NET"
state {
  phase: TRAIN
  level: 0
  stage: ""
}
layer {
  name: "data"
  type: "ImageData"
  top: "data"
  top: "label"
  include {
    phase: TRAIN
  }
  image_data_param {
    source: "train.txt"
    batch_size: 300
    crop_size: 27
    shuffle: true
    is_color: false
  }
}
layer {
  name: "data_scaling"
  type: "Power"
  bottom: "data"
  top: "data"
  power_param {
    power: 1
    scale: 0.0078125
    shift: -1
  }
}
layer {
  name: "data_drop"
  type: "Dropout"
  bottom: "data"
  top: "data"
  include {
    phase: TRAIN
  }
  dropout_param {
    dropout_ratio: 0.01
  }
}
layer {
  name: "data_vision"
  type: "VisionTransformation"
  bottom: "data"
  top: "data"
  include {
    phase: TRAIN
  }
  vision_transformation_param {
    noise_mean: 0
    noise_std: 0
    noise_std_small: 0
    rotate_min_angle: -20
    rotate_max_angle: 20
    rotate_fill_value: 0
    per_pixel_multiplier_mean: 1
    per_pixel_multiplier_std: 0
    rescale_probability: 0.25
    constant_multiplier_mean: 1
    constant_multiplier_std: 0
    scale_mean: 1
    scale_std: 0.1
    constant_multiplier_color_mean: 0
    constant_multiplier_color_std: 0
    value_cap_min: 0
    value_cap_max: 0
    passthrough_probability: 0.5
  }
}
layer {
  name: "conv1"
  type: "Convolution"
  bottom: "data"
  top: "conv1"
  param {
    lr_mult: 1
    decay_mult: 1
  }
  param {
    lr_mult: 2
    decay_mult: 0
  }
  convolution_param {
    num_output: 36
    kernel_size: 3
    stride: 2
    weight_filler {
      type: "xavier"
    }
  }
}
layer {
  name: "bn1"
  type: "BatchNorm"
  bottom: "conv1"
  top: "bn1"
}
layer {
  name: "conv1_inv"
  type: "Power"
  bottom: "bn1"
  top: "conv1_inv"
  power_param {
    power: 1
    scale: -1
    shift: 0
  }
}
layer {
  name: "conv1_inv_relu"
  type: "ReLU"
  bottom: "conv1_inv"
  top: "conv1_inv"
}
layer {
  name: "relu1"
  type: "ReLU"
  bottom: "bn1"
  top: "conv1_pos"
}
layer {
  name: "conv2"
  type: "Convolution"
  bottom: "conv1_pos"
  top: "conv2"
  param {
    name: "conv2_w"
    lr_mult: 1
    decay_mult: 1
  }
  param {
    name: "conv2_b"
    lr_mult: 2
    decay_mult: 0
  }
  convolution_param {
    num_output: 128
    kernel_size: 3
    stride: 2
    weight_filler {
      type: "xavier"
    }
  }
}
layer {
  name: "conv2_inv"
  type: "Convolution"
  bottom: "conv1_inv"
  top: "conv2_inv"
  param {
    name: "conv2_inv_w"
    lr_mult: 1
    decay_mult: 1
  }
  param {
    name: "conv2_inv_b"
    lr_mult: 2
    decay_mult: 0
  }
  convolution_param {
    num_output: 128
    kernel_size: 3
    stride: 2
    weight_filler {
      type: "xavier"
    }
  }
}
layer {
  name: "block_output"
  type: "Concat"
  bottom: "conv2"
  bottom: "conv2_inv"
  top: "block_output"
}
layer {
  name: "block_output_relu"
  type: "ReLU"
  bottom: "block_output"
  top: "block_output"
}
layer {
  name: "fc_10"
  type: "InnerProduct"
  bottom: "block_output"
  top: "fc_10"
  param {
    lr_mult: 5
    decay_mult: 1
  }
  param {
    lr_mult: 10
    decay_mult: 0
  }
  inner_product_param {
    num_output: 10
    weight_filler {
      type: "gaussian"
      std: 0.01
    }
    bias_filler {
      type: "constant"
      value: 0
    }
  }
}
layer {
  name: "loss"
  type: "SoftmaxWithLoss"
  bottom: "fc_10"
  bottom: "label"
  top: "loss"
  include {
    phase: TRAIN
  }
}
I0318 12:33:00.195073  2586 layer_factory.hpp:77] Creating layer data
I0318 12:33:00.195103  2586 net.cpp:116] Creating Layer data
I0318 12:33:00.195108  2586 net.cpp:424] data -> data
I0318 12:33:00.195125  2586 net.cpp:424] data -> label
I0318 12:33:00.195135  2586 image_data_layer.cpp:38] Opening file train.txt
I0318 12:33:00.207402  2586 image_data_layer.cpp:53] Shuffling data
I0318 12:33:00.211524  2586 image_data_layer.cpp:58] A total of 60000 images.
I0318 12:33:00.221529  2586 image_data_layer.cpp:85] output data size: 300,1,28,28
I0318 12:33:00.223968  2586 net.cpp:166] Setting up data
I0318 12:33:00.223985  2586 net.cpp:173] Top shape: 300 1 28 28 (235200)
I0318 12:33:00.223989  2586 net.cpp:173] Top shape: 300 (300)
I0318 12:33:00.223991  2586 net.cpp:181] Memory required for data: 942000
I0318 12:33:00.223997  2586 layer_factory.hpp:77] Creating layer data_scaling
I0318 12:33:00.224009  2586 net.cpp:116] Creating Layer data_scaling
I0318 12:33:00.224012  2586 net.cpp:450] data_scaling <- data
I0318 12:33:00.224022  2586 net.cpp:411] data_scaling -> data (in-place)
I0318 12:33:00.224032  2586 net.cpp:166] Setting up data_scaling
I0318 12:33:00.224035  2586 net.cpp:173] Top shape: 300 1 28 28 (235200)
I0318 12:33:00.224037  2586 net.cpp:181] Memory required for data: 1882800
I0318 12:33:00.224040  2586 layer_factory.hpp:77] Creating layer data_drop
I0318 12:33:00.224048  2586 net.cpp:116] Creating Layer data_drop
I0318 12:33:00.224050  2586 net.cpp:450] data_drop <- data
I0318 12:33:00.224054  2586 net.cpp:411] data_drop -> data (in-place)
I0318 12:33:00.224133  2586 net.cpp:166] Setting up data_drop
I0318 12:33:00.224140  2586 net.cpp:173] Top shape: 300 1 28 28 (235200)
I0318 12:33:00.224143  2586 net.cpp:181] Memory required for data: 2823600
I0318 12:33:00.224144  2586 layer_factory.hpp:77] Creating layer data_vision
I0318 12:33:00.224151  2586 net.cpp:116] Creating Layer data_vision
I0318 12:33:00.224154  2586 net.cpp:450] data_vision <- data
I0318 12:33:00.224159  2586 net.cpp:411] data_vision -> data (in-place)
I0318 12:33:00.224166  2586 net.cpp:166] Setting up data_vision
I0318 12:33:00.224170  2586 net.cpp:173] Top shape: 300 1 28 28 (235200)
I0318 12:33:00.224172  2586 net.cpp:181] Memory required for data: 3764400
I0318 12:33:00.224174  2586 layer_factory.hpp:77] Creating layer conv1
I0318 12:33:00.224189  2586 net.cpp:116] Creating Layer conv1
I0318 12:33:00.224191  2586 net.cpp:450] conv1 <- data
I0318 12:33:00.224195  2586 net.cpp:424] conv1 -> conv1
I0318 12:33:00.396394  2586 net.cpp:166] Setting up conv1
I0318 12:33:00.396421  2586 net.cpp:173] Top shape: 300 36 13 13 (1825200)
I0318 12:33:00.396425  2586 net.cpp:181] Memory required for data: 11065200
I0318 12:33:00.396440  2586 layer_factory.hpp:77] Creating layer bn1
I0318 12:33:00.396450  2586 net.cpp:116] Creating Layer bn1
I0318 12:33:00.396453  2586 net.cpp:450] bn1 <- conv1
I0318 12:33:00.396458  2586 net.cpp:424] bn1 -> bn1
I0318 12:33:00.396625  2586 net.cpp:166] Setting up bn1
I0318 12:33:00.396632  2586 net.cpp:173] Top shape: 300 36 13 13 (1825200)
I0318 12:33:00.396636  2586 net.cpp:181] Memory required for data: 18366000
I0318 12:33:00.396644  2586 layer_factory.hpp:77] Creating layer bn1_bn1_0_split
I0318 12:33:00.396651  2586 net.cpp:116] Creating Layer bn1_bn1_0_split
I0318 12:33:00.396653  2586 net.cpp:450] bn1_bn1_0_split <- bn1
I0318 12:33:00.396657  2586 net.cpp:424] bn1_bn1_0_split -> bn1_bn1_0_split_0
I0318 12:33:00.396662  2586 net.cpp:424] bn1_bn1_0_split -> bn1_bn1_0_split_1
I0318 12:33:00.396692  2586 net.cpp:166] Setting up bn1_bn1_0_split
I0318 12:33:00.396698  2586 net.cpp:173] Top shape: 300 36 13 13 (1825200)
I0318 12:33:00.396716  2586 net.cpp:173] Top shape: 300 36 13 13 (1825200)
I0318 12:33:00.396720  2586 net.cpp:181] Memory required for data: 32967600
I0318 12:33:00.396723  2586 layer_factory.hpp:77] Creating layer conv1_inv
I0318 12:33:00.396728  2586 net.cpp:116] Creating Layer conv1_inv
I0318 12:33:00.396731  2586 net.cpp:450] conv1_inv <- bn1_bn1_0_split_0
I0318 12:33:00.396735  2586 net.cpp:424] conv1_inv -> conv1_inv
I0318 12:33:00.396755  2586 net.cpp:166] Setting up conv1_inv
I0318 12:33:00.396762  2586 net.cpp:173] Top shape: 300 36 13 13 (1825200)
I0318 12:33:00.396764  2586 net.cpp:181] Memory required for data: 40268400
I0318 12:33:00.396766  2586 layer_factory.hpp:77] Creating layer conv1_inv_relu
I0318 12:33:00.396772  2586 net.cpp:116] Creating Layer conv1_inv_relu
I0318 12:33:00.396775  2586 net.cpp:450] conv1_inv_relu <- conv1_inv
I0318 12:33:00.396778  2586 net.cpp:411] conv1_inv_relu -> conv1_inv (in-place)
I0318 12:33:00.397055  2586 net.cpp:166] Setting up conv1_inv_relu
I0318 12:33:00.397066  2586 net.cpp:173] Top shape: 300 36 13 13 (1825200)
I0318 12:33:00.397068  2586 net.cpp:181] Memory required for data: 47569200
I0318 12:33:00.397071  2586 layer_factory.hpp:77] Creating layer relu1
I0318 12:33:00.397076  2586 net.cpp:116] Creating Layer relu1
I0318 12:33:00.397079  2586 net.cpp:450] relu1 <- bn1_bn1_0_split_1
I0318 12:33:00.397083  2586 net.cpp:424] relu1 -> conv1_pos
I0318 12:33:00.397225  2586 net.cpp:166] Setting up relu1
I0318 12:33:00.397234  2586 net.cpp:173] Top shape: 300 36 13 13 (1825200)
I0318 12:33:00.397238  2586 net.cpp:181] Memory required for data: 54870000
I0318 12:33:00.397239  2586 layer_factory.hpp:77] Creating layer conv2
I0318 12:33:00.397249  2586 net.cpp:116] Creating Layer conv2
I0318 12:33:00.397253  2586 net.cpp:450] conv2 <- conv1_pos
I0318 12:33:00.397256  2586 net.cpp:424] conv2 -> conv2
I0318 12:33:00.398762  2586 net.cpp:166] Setting up conv2
I0318 12:33:00.398775  2586 net.cpp:173] Top shape: 300 128 6 6 (1382400)
I0318 12:33:00.398778  2586 net.cpp:181] Memory required for data: 60399600
I0318 12:33:00.398784  2586 layer_factory.hpp:77] Creating layer conv2_inv
I0318 12:33:00.398792  2586 net.cpp:116] Creating Layer conv2_inv
I0318 12:33:00.398795  2586 net.cpp:450] conv2_inv <- conv1_inv
I0318 12:33:00.398799  2586 net.cpp:424] conv2_inv -> conv2_inv
I0318 12:33:00.399832  2586 net.cpp:166] Setting up conv2_inv
I0318 12:33:00.399844  2586 net.cpp:173] Top shape: 300 128 6 6 (1382400)
I0318 12:33:00.399847  2586 net.cpp:181] Memory required for data: 65929200
I0318 12:33:00.399854  2586 layer_factory.hpp:77] Creating layer block_output
I0318 12:33:00.399860  2586 net.cpp:116] Creating Layer block_output
I0318 12:33:00.399863  2586 net.cpp:450] block_output <- conv2
I0318 12:33:00.399866  2586 net.cpp:450] block_output <- conv2_inv
I0318 12:33:00.399870  2586 net.cpp:424] block_output -> block_output
I0318 12:33:00.399893  2586 net.cpp:166] Setting up block_output
I0318 12:33:00.399899  2586 net.cpp:173] Top shape: 300 256 6 6 (2764800)
I0318 12:33:00.399900  2586 net.cpp:181] Memory required for data: 76988400
I0318 12:33:00.399902  2586 layer_factory.hpp:77] Creating layer block_output_relu
I0318 12:33:00.399906  2586 net.cpp:116] Creating Layer block_output_relu
I0318 12:33:00.399909  2586 net.cpp:450] block_output_relu <- block_output
I0318 12:33:00.399912  2586 net.cpp:411] block_output_relu -> block_output (in-place)
I0318 12:33:00.400177  2586 net.cpp:166] Setting up block_output_relu
I0318 12:33:00.400189  2586 net.cpp:173] Top shape: 300 256 6 6 (2764800)
I0318 12:33:00.400192  2586 net.cpp:181] Memory required for data: 88047600
I0318 12:33:00.400194  2586 layer_factory.hpp:77] Creating layer fc_10
I0318 12:33:00.400202  2586 net.cpp:116] Creating Layer fc_10
I0318 12:33:00.400204  2586 net.cpp:450] fc_10 <- block_output
I0318 12:33:00.400209  2586 net.cpp:424] fc_10 -> fc_10
I0318 12:33:00.402710  2586 net.cpp:166] Setting up fc_10
I0318 12:33:00.402721  2586 net.cpp:173] Top shape: 300 10 (3000)
I0318 12:33:00.402724  2586 net.cpp:181] Memory required for data: 88059600
I0318 12:33:00.402740  2586 layer_factory.hpp:77] Creating layer loss
I0318 12:33:00.402746  2586 net.cpp:116] Creating Layer loss
I0318 12:33:00.402750  2586 net.cpp:450] loss <- fc_10
I0318 12:33:00.402752  2586 net.cpp:450] loss <- label
I0318 12:33:00.402757  2586 net.cpp:424] loss -> loss
I0318 12:33:00.402765  2586 layer_factory.hpp:77] Creating layer loss
…
I0318 12:33:00.403821  2586 net.cpp:338] The NetState phase (1) differed from the phase (0) specified by a rule in layer data_vision
I0318 12:33:00.403828  2586 net.cpp:338] The NetState phase (1) differed from the phase (0) specified by a rule in layer loss
I0318 12:33:00.403937  2586 net.cpp:74] Initializing net from parameters: 
name: "MNIST_NET"
state {
  phase: TEST
}
layer {
  name: "data"
  type: "ImageData"
  top: "data"
  top: "label"
  include {
    phase: TEST
  }
  image_data_param {
    source: "test.txt"
    batch_size: 100
    crop_size: 27
    shuffle: true
    is_color: false
  }
}
layer {
  name: "data_scaling"
  type: "Power"
  bottom: "data"
  top: "data"
  power_param {
    power: 1
    scale: 0.0078125
    shift: -1
  }
}
layer {
  name: "conv1"
  type: "Convolution"
  bottom: "data"
  top: "conv1"
  param {
    lr_mult: 1
    decay_mult: 1
  }
  param {
    lr_mult: 2
    decay_mult: 0
  }
  convolution_param {
    num_output: 36
    kernel_size: 3
    stride: 2
    weight_filler {
      type: "xavier"
    }
  }
}
layer {
  name: "bn1"
  type: "BatchNorm"
  bottom: "conv1"
  top: "bn1"
}
layer {
  name: "conv1_inv"
  type: "Power"
  bottom: "bn1"
  top: "conv1_inv"
  power_param {
    power: 1
    scale: -1
    shift: 0
  }
}
layer {
  name: "conv1_inv_relu"
  type: "ReLU"
  bottom: "conv1_inv"
  top: "conv1_inv"
}
layer {
  name: "relu1"
  type: "ReLU"
  bottom: "bn1"
  top: "conv1_pos"
}
layer {
  name: "conv2"
  type: "Convolution"
  bottom: "conv1_pos"
  top: "conv2"
  param {
    name: "conv2_w"
    lr_mult: 1
    decay_mult: 1
  }
  param {
    name: "conv2_b"
    lr_mult: 2
    decay_mult: 0
  }
  convolution_param {
    num_output: 128
    kernel_size: 3
    stride: 2
    weight_filler {
      type: "xavier"
    }
  }
}
layer {
  name: "conv2_inv"
  type: "Convolution"
  bottom: "conv1_inv"
  top: "conv2_inv"
  param {
    name: "conv2_inv_w"
    lr_mult: 1
    decay_mult: 1
  }
  param {
    name: "conv2_inv_b"
    lr_mult: 2
    decay_mult: 0
  }
  convolution_param {
    num_output: 128
    kernel_size: 3
    stride: 2
    weight_filler {
      type: "xavier"
    }
  }
}
layer {
  name: "block_output"
  type: "Concat"
  bottom: "conv2"
  bottom: "conv2_inv"
  top: "block_output"
}
layer {
  name: "block_output_relu"
  type: "ReLU"
  bottom: "block_output"
  top: "block_output"
}
layer {
  name: "fc_10"
  type: "InnerProduct"
  bottom: "block_output"
  top: "fc_10"
  param {
    lr_mult: 5
    decay_mult: 1
  }
  param {
    lr_mult: 10
    decay_mult: 0
  }
  inner_product_param {
    num_output: 10
    weight_filler {
      type: "gaussian"
      std: 0.01
    }
    bias_filler {
      type: "constant"
      value: 0
    }
  }
}
layer {
  name: "accuracy"
  type: "Accuracy"
  bottom: "fc_10"
  bottom: "label"
  top: "accuracy"
  include {
    phase: TEST
  }
}
I0318 12:33:00.404001  2586 layer_factory.hpp:77] Creating layer data
I0318 12:33:00.404013  2586 net.cpp:116] Creating Layer data
I0318 12:33:00.404017  2586 net.cpp:424] data -> data
I0318 12:33:00.404023  2586 net.cpp:424] data -> label
I0318 12:33:00.404031  2586 image_data_layer.cpp:38] Opening file test.txt
I0318 12:33:00.406108  2586 image_data_layer.cpp:53] Shuffling data
I0318 12:33:00.406682  2586 image_data_layer.cpp:58] A total of 10000 images.
I0318 12:33:00.406810  2586 image_data_layer.cpp:85] output data size: 100,1,28,28
I0318 12:33:00.407668  2586 net.cpp:166] Setting up data
I0318 12:33:00.407680  2586 net.cpp:173] Top shape: 100 1 28 28 (78400)
I0318 12:33:00.407683  2586 net.cpp:173] Top shape: 100 (100)
I0318 12:33:00.407685  2586 net.cpp:181] Memory required for data: 314000
I0318 12:33:00.407688  2586 layer_factory.hpp:77] Creating layer data_scaling
I0318 12:33:00.407694  2586 net.cpp:116] Creating Layer data_scaling
I0318 12:33:00.407697  2586 net.cpp:450] data_scaling <- data
I0318 12:33:00.407701  2586 net.cpp:411] data_scaling -> data (in-place)
I0318 12:33:00.407707  2586 net.cpp:166] Setting up data_scaling
I0318 12:33:00.407711  2586 net.cpp:173] Top shape: 100 1 28 28 (78400)
I0318 12:33:00.407712  2586 net.cpp:181] Memory required for data: 627600
I0318 12:33:00.407714  2586 layer_factory.hpp:77] Creating layer conv1
I0318 12:33:00.407721  2586 net.cpp:116] Creating Layer conv1
I0318 12:33:00.407723  2586 net.cpp:450] conv1 <- data
I0318 12:33:00.407727  2586 net.cpp:424] conv1 -> conv1
I0318 12:33:00.408983  2586 net.cpp:166] Setting up conv1
I0318 12:33:00.408995  2586 net.cpp:173] Top shape: 100 36 13 13 (608400)
I0318 12:33:00.408998  2586 net.cpp:181] Memory required for data: 3061200
I0318 12:33:00.409006  2586 layer_factory.hpp:77] Creating layer bn1
I0318 12:33:00.409013  2586 net.cpp:116] Creating Layer bn1
I0318 12:33:00.409016  2586 net.cpp:450] bn1 <- conv1
I0318 12:33:00.409021  2586 net.cpp:424] bn1 -> bn1
I0318 12:33:00.409190  2586 net.cpp:166] Setting up bn1
I0318 12:33:00.409198  2586 net.cpp:173] Top shape: 100 36 13 13 (608400)
I0318 12:33:00.409200  2586 net.cpp:181] Memory required for data: 5494800
I0318 12:33:00.409209  2586 layer_factory.hpp:77] Creating layer bn1_bn1_0_split
I0318 12:33:00.409214  2586 net.cpp:116] Creating Layer bn1_bn1_0_split
I0318 12:33:00.409217  2586 net.cpp:450] bn1_bn1_0_split <- bn1
I0318 12:33:00.409221  2586 net.cpp:424] bn1_bn1_0_split -> bn1_bn1_0_split_0
I0318 12:33:00.409226  2586 net.cpp:424] bn1_bn1_0_split -> bn1_bn1_0_split_1
I0318 12:33:00.409257  2586 net.cpp:166] Setting up bn1_bn1_0_split
I0318 12:33:00.409274  2586 net.cpp:173] Top shape: 100 36 13 13 (608400)
I0318 12:33:00.409278  2586 net.cpp:173] Top shape: 100 36 13 13 (608400)
I0318 12:33:00.409281  2586 net.cpp:181] Memory required for data: 10362000
I0318 12:33:00.409283  2586 layer_factory.hpp:77] Creating layer conv1_inv
I0318 12:33:00.409288  2586 net.cpp:116] Creating Layer conv1_inv
I0318 12:33:00.409291  2586 net.cpp:450] conv1_inv <- bn1_bn1_0_split_0
I0318 12:33:00.409294  2586 net.cpp:424] conv1_inv -> conv1_inv
I0318 12:33:00.409318  2586 net.cpp:166] Setting up conv1_inv
I0318 12:33:00.409325  2586 net.cpp:173] Top shape: 100 36 13 13 (608400)
I0318 12:33:00.409327  2586 net.cpp:181] Memory required for data: 12795600
I0318 12:33:00.409329  2586 layer_factory.hpp:77] Creating layer conv1_inv_relu
I0318 12:33:00.409332  2586 net.cpp:116] Creating Layer conv1_inv_relu
I0318 12:33:00.409335  2586 net.cpp:450] conv1_inv_relu <- conv1_inv
I0318 12:33:00.409343  2586 net.cpp:411] conv1_inv_relu -> conv1_inv (in-place)
I0318 12:33:00.409564  2586 net.cpp:166] Setting up conv1_inv_relu
I0318 12:33:00.409572  2586 net.cpp:173] Top shape: 100 36 13 13 (608400)
I0318 12:33:00.409574  2586 net.cpp:181] Memory required for data: 15229200
I0318 12:33:00.409577  2586 layer_factory.hpp:77] Creating layer relu1
I0318 12:33:00.409582  2586 net.cpp:116] Creating Layer relu1
I0318 12:33:00.409585  2586 net.cpp:450] relu1 <- bn1_bn1_0_split_1
I0318 12:33:00.409590  2586 net.cpp:424] relu1 -> conv1_pos
I0318 12:33:00.409972  2586 net.cpp:166] Setting up relu1
I0318 12:33:00.409983  2586 net.cpp:173] Top shape: 100 36 13 13 (608400)
I0318 12:33:00.409986  2586 net.cpp:181] Memory required for data: 17662800
I0318 12:33:00.409988  2586 layer_factory.hpp:77] Creating layer conv2
I0318 12:33:00.410015  2586 net.cpp:116] Creating Layer conv2
I0318 12:33:00.410019  2586 net.cpp:450] conv2 <- conv1_pos
I0318 12:33:00.410024  2586 net.cpp:424] conv2 -> conv2
I0318 12:33:00.411224  2586 net.cpp:166] Setting up conv2
I0318 12:33:00.411237  2586 net.cpp:173] Top shape: 100 128 6 6 (460800)
I0318 12:33:00.411239  2586 net.cpp:181] Memory required for data: 19506000
I0318 12:33:00.411247  2586 layer_factory.hpp:77] Creating layer conv2_inv
I0318 12:33:00.411254  2586 net.cpp:116] Creating Layer conv2_inv
I0318 12:33:00.411264  2586 net.cpp:450] conv2_inv <- conv1_inv
I0318 12:33:00.411270  2586 net.cpp:424] conv2_inv -> conv2_inv
I0318 12:33:00.412394  2586 net.cpp:166] Setting up conv2_inv
I0318 12:33:00.412405  2586 net.cpp:173] Top shape: 100 128 6 6 (460800)
I0318 12:33:00.412408  2586 net.cpp:181] Memory required for data: 21349200
I0318 12:33:00.412415  2586 layer_factory.hpp:77] Creating layer block_output
I0318 12:33:00.412420  2586 net.cpp:116] Creating Layer block_output
I0318 12:33:00.412423  2586 net.cpp:450] block_output <- conv2
I0318 12:33:00.412426  2586 net.cpp:450] block_output <- conv2_inv
I0318 12:33:00.412432  2586 net.cpp:424] block_output -> block_output
I0318 12:33:00.412458  2586 net.cpp:166] Setting up block_output
I0318 12:33:00.412464  2586 net.cpp:173] Top shape: 100 256 6 6 (921600)
I0318 12:33:00.412467  2586 net.cpp:181] Memory required for data: 25035600
I0318 12:33:00.412469  2586 layer_factory.hpp:77] Creating layer block_output_relu
I0318 12:33:00.412472  2586 net.cpp:116] Creating Layer block_output_relu
I0318 12:33:00.412475  2586 net.cpp:450] block_output_relu <- block_output
I0318 12:33:00.412478  2586 net.cpp:411] block_output_relu -> block_output (in-place)
I0318 12:33:00.412638  2586 net.cpp:166] Setting up block_output_relu
I0318 12:33:00.412648  2586 net.cpp:173] Top shape: 100 256 6 6 (921600)
I0318 12:33:00.412650  2586 net.cpp:181] Memory required for data: 28722000
I0318 12:33:00.412653  2586 layer_factory.hpp:77] Creating layer fc_10
I0318 12:33:00.412658  2586 net.cpp:116] Creating Layer fc_10
I0318 12:33:00.412662  2586 net.cpp:450] fc_10 <- block_output
I0318 12:33:00.412667  2586 net.cpp:424] fc_10 -> fc_10
I0318 12:33:00.414836  2586 net.cpp:166] Setting up fc_10
I0318 12:33:00.414844  2586 net.cpp:173] Top shape: 100 10 (1000)
I0318 12:33:00.414857  2586 net.cpp:181] Memory required for data: 28726000
I0318 12:33:00.414862  2586 layer_factory.hpp:77] Creating layer accuracy
I0318 12:33:00.414867  2586 net.cpp:116] Creating Layer accuracy
I0318 12:33:00.414870  2586 net.cpp:450] accuracy <- fc_10
I0318 12:33:00.414875  2586 net.cpp:450] accuracy <- label
I0318 12:33:00.414885  2586 net.cpp:424] accuracy -> accuracy
…
