…
I0318 10:15:12.486786  1893 net.cpp:338] The NetState phase (0) differed from the phase (1) specified by a rule in layer data
I0318 10:15:12.486805  1893 net.cpp:338] The NetState phase (0) differed from the phase (1) specified by a rule in layer accuracy
I0318 10:15:12.486944  1893 net.cpp:74] Initializing net from parameters: 
name: "MNIST_NET"
state {
  phase: TRAIN
  level: 0
  stage: ""
}
layer {
  name: "data"
  type: "ImageData"
  top: "data"
  top: "label"
  include {
    phase: TRAIN
  }
  image_data_param {
    source: "train.txt"
    batch_size: 300
    crop_size: 27
    shuffle: true
    is_color: false
  }
}
layer {
  name: "data_scaling"
  type: "Power"
  bottom: "data"
  top: "data"
  power_param {
    power: 1
    scale: 0.0078125
    shift: -1
  }
}
layer {
  name: "data_drop"
  type: "Dropout"
  bottom: "data"
  top: "data"
  include {
    phase: TRAIN
  }
  dropout_param {
    dropout_ratio: 0.01
  }
}
layer {
  name: "data_vision"
  type: "VisionTransformation"
  bottom: "data"
  top: "data"
  include {
    phase: TRAIN
  }
  vision_transformation_param {
    noise_mean: 0
    noise_std: 0
    noise_std_small: 0
    rotate_min_angle: -20
    rotate_max_angle: 20
    rotate_fill_value: 0
    per_pixel_multiplier_mean: 1
    per_pixel_multiplier_std: 0
    rescale_probability: 0.25
    constant_multiplier_mean: 1
    constant_multiplier_std: 0
    scale_mean: 1
    scale_std: 0.1
    constant_multiplier_color_mean: 0
    constant_multiplier_color_std: 0
    value_cap_min: 0
    value_cap_max: 0
    passthrough_probability: 0.5
  }
}
layer {
  name: "conv1"
  type: "Convolution"
  bottom: "data"
  top: "conv1"
  param {
    lr_mult: 1
    decay_mult: 1
  }
  param {
    lr_mult: 2
    decay_mult: 0
  }
  convolution_param {
    num_output: 36
    kernel_size: 3
    stride: 2
    weight_filler {
      type: "xavier"
    }
  }
}
layer {
  name: "conv1_inv"
  type: "Power"
  bottom: "conv1"
  top: "conv1_inv"
  power_param {
    power: 1
    scale: -1
    shift: 0
  }
}
layer {
  name: "conv1_inv_relu"
  type: "ReLU"
  bottom: "conv1_inv"
  top: "conv1_inv"
}
layer {
  name: "relu1"
  type: "ReLU"
  bottom: "conv1"
  top: "conv1_pos"
}
layer {
  name: "conv2"
  type: "Convolution"
  bottom: "conv1_pos"
  top: "conv2"
  param {
    name: "conv2_w"
    lr_mult: 1
    decay_mult: 1
  }
  param {
    name: "conv2_b"
    lr_mult: 2
    decay_mult: 0
  }
  convolution_param {
    num_output: 128
    kernel_size: 3
    stride: 2
    weight_filler {
      type: "xavier"
    }
  }
}
layer {
  name: "conv2_inv"
  type: "Convolution"
  bottom: "conv1_inv"
  top: "conv2_inv"
  param {
    name: "conv2_w"
    lr_mult: 1
    decay_mult: 1
  }
  param {
    name: "conv2_b"
    lr_mult: 2
    decay_mult: 0
  }
  convolution_param {
    num_output: 128
    kernel_size: 3
    stride: 2
    weight_filler {
      type: "xavier"
    }
  }
}
layer {
  name: "block_output"
  type: "Concat"
  bottom: "conv2"
  bottom: "conv2_inv"
  top: "block_output"
}
layer {
  name: "block_output_prelu"
  type: "PReLU"
  bottom: "block_output"
  top: "block_output"
  prelu_param {
    filler {
      type: "constant"
      value: 0.01
    }
  }
}
layer {
  name: "fc_10"
  type: "InnerProduct"
  bottom: "block_output"
  top: "fc_10"
  param {
    lr_mult: 5
    decay_mult: 1
  }
  param {
    lr_mult: 10
    decay_mult: 0
  }
  inner_product_param {
    num_output: 10
    weight_filler {
      type: "gaussian"
      std: 0.01
    }
    bias_filler {
      type: "constant"
      value: 0
    }
  }
}
layer {
  name: "loss"
  type: "SoftmaxWithLoss"
  bottom: "fc_10"
  bottom: "label"
  top: "loss"
  include {
    phase: TRAIN
  }
}
I0318 10:15:12.487051  1893 layer_factory.hpp:77] Creating layer data
I0318 10:15:12.487082  1893 net.cpp:116] Creating Layer data
I0318 10:15:12.487088  1893 net.cpp:424] data -> data
I0318 10:15:12.487103  1893 net.cpp:424] data -> label
I0318 10:15:12.487114  1893 image_data_layer.cpp:38] Opening file train.txt
I0318 10:15:12.499419  1893 image_data_layer.cpp:53] Shuffling data
I0318 10:15:12.503546  1893 image_data_layer.cpp:58] A total of 60000 images.
I0318 10:15:12.513633  1893 image_data_layer.cpp:85] output data size: 300,1,28,28
I0318 10:15:12.516068  1893 net.cpp:166] Setting up data
I0318 10:15:12.516086  1893 net.cpp:173] Top shape: 300 1 28 28 (235200)
I0318 10:15:12.516090  1893 net.cpp:173] Top shape: 300 (300)
I0318 10:15:12.516093  1893 net.cpp:181] Memory required for data: 942000
I0318 10:15:12.516099  1893 layer_factory.hpp:77] Creating layer data_scaling
I0318 10:15:12.516111  1893 net.cpp:116] Creating Layer data_scaling
I0318 10:15:12.516115  1893 net.cpp:450] data_scaling <- data
I0318 10:15:12.516124  1893 net.cpp:411] data_scaling -> data (in-place)
I0318 10:15:12.516134  1893 net.cpp:166] Setting up data_scaling
I0318 10:15:12.516136  1893 net.cpp:173] Top shape: 300 1 28 28 (235200)
I0318 10:15:12.516139  1893 net.cpp:181] Memory required for data: 1882800
I0318 10:15:12.516141  1893 layer_factory.hpp:77] Creating layer data_drop
I0318 10:15:12.516149  1893 net.cpp:116] Creating Layer data_drop
I0318 10:15:12.516151  1893 net.cpp:450] data_drop <- data
I0318 10:15:12.516155  1893 net.cpp:411] data_drop -> data (in-place)
I0318 10:15:12.516186  1893 net.cpp:166] Setting up data_drop
I0318 10:15:12.516191  1893 net.cpp:173] Top shape: 300 1 28 28 (235200)
I0318 10:15:12.516192  1893 net.cpp:181] Memory required for data: 2823600
I0318 10:15:12.516194  1893 layer_factory.hpp:77] Creating layer data_vision
I0318 10:15:12.516201  1893 net.cpp:116] Creating Layer data_vision
I0318 10:15:12.516202  1893 net.cpp:450] data_vision <- data
I0318 10:15:12.516207  1893 net.cpp:411] data_vision -> data (in-place)
I0318 10:15:12.516214  1893 net.cpp:166] Setting up data_vision
I0318 10:15:12.516217  1893 net.cpp:173] Top shape: 300 1 28 28 (235200)
I0318 10:15:12.516219  1893 net.cpp:181] Memory required for data: 3764400
I0318 10:15:12.516222  1893 layer_factory.hpp:77] Creating layer conv1
I0318 10:15:12.516234  1893 net.cpp:116] Creating Layer conv1
I0318 10:15:12.516237  1893 net.cpp:450] conv1 <- data
I0318 10:15:12.516242  1893 net.cpp:424] conv1 -> conv1
I0318 10:15:12.688242  1893 net.cpp:166] Setting up conv1
I0318 10:15:12.688271  1893 net.cpp:173] Top shape: 300 36 13 13 (1825200)
I0318 10:15:12.688273  1893 net.cpp:181] Memory required for data: 11065200
I0318 10:15:12.688287  1893 layer_factory.hpp:77] Creating layer conv1_conv1_0_split
I0318 10:15:12.688297  1893 net.cpp:116] Creating Layer conv1_conv1_0_split
I0318 10:15:12.688302  1893 net.cpp:450] conv1_conv1_0_split <- conv1
I0318 10:15:12.688307  1893 net.cpp:424] conv1_conv1_0_split -> conv1_conv1_0_split_0
I0318 10:15:12.688314  1893 net.cpp:424] conv1_conv1_0_split -> conv1_conv1_0_split_1
I0318 10:15:12.688346  1893 net.cpp:166] Setting up conv1_conv1_0_split
I0318 10:15:12.688351  1893 net.cpp:173] Top shape: 300 36 13 13 (1825200)
I0318 10:15:12.688354  1893 net.cpp:173] Top shape: 300 36 13 13 (1825200)
I0318 10:15:12.688356  1893 net.cpp:181] Memory required for data: 25666800
I0318 10:15:12.688359  1893 layer_factory.hpp:77] Creating layer conv1_inv
I0318 10:15:12.688365  1893 net.cpp:116] Creating Layer conv1_inv
I0318 10:15:12.688367  1893 net.cpp:450] conv1_inv <- conv1_conv1_0_split_0
I0318 10:15:12.688370  1893 net.cpp:424] conv1_inv -> conv1_inv
I0318 10:15:12.688386  1893 net.cpp:166] Setting up conv1_inv
I0318 10:15:12.688390  1893 net.cpp:173] Top shape: 300 36 13 13 (1825200)
I0318 10:15:12.688392  1893 net.cpp:181] Memory required for data: 32967600
I0318 10:15:12.688411  1893 layer_factory.hpp:77] Creating layer conv1_inv_relu
I0318 10:15:12.688416  1893 net.cpp:116] Creating Layer conv1_inv_relu
I0318 10:15:12.688418  1893 net.cpp:450] conv1_inv_relu <- conv1_inv
I0318 10:15:12.688422  1893 net.cpp:411] conv1_inv_relu -> conv1_inv (in-place)
I0318 10:15:12.688694  1893 net.cpp:166] Setting up conv1_inv_relu
I0318 10:15:12.688705  1893 net.cpp:173] Top shape: 300 36 13 13 (1825200)
I0318 10:15:12.688709  1893 net.cpp:181] Memory required for data: 40268400
I0318 10:15:12.688710  1893 layer_factory.hpp:77] Creating layer relu1
I0318 10:15:12.688717  1893 net.cpp:116] Creating Layer relu1
I0318 10:15:12.688720  1893 net.cpp:450] relu1 <- conv1_conv1_0_split_1
I0318 10:15:12.688724  1893 net.cpp:424] relu1 -> conv1_pos
I0318 10:15:12.688863  1893 net.cpp:166] Setting up relu1
I0318 10:15:12.688874  1893 net.cpp:173] Top shape: 300 36 13 13 (1825200)
I0318 10:15:12.688875  1893 net.cpp:181] Memory required for data: 47569200
I0318 10:15:12.688879  1893 layer_factory.hpp:77] Creating layer conv2
I0318 10:15:12.688889  1893 net.cpp:116] Creating Layer conv2
I0318 10:15:12.688891  1893 net.cpp:450] conv2 <- conv1_pos
I0318 10:15:12.688895  1893 net.cpp:424] conv2 -> conv2
I0318 10:15:12.690390  1893 net.cpp:166] Setting up conv2
I0318 10:15:12.690403  1893 net.cpp:173] Top shape: 300 128 6 6 (1382400)
I0318 10:15:12.690407  1893 net.cpp:181] Memory required for data: 53098800
I0318 10:15:12.690413  1893 layer_factory.hpp:77] Creating layer conv2_inv
I0318 10:15:12.690421  1893 net.cpp:116] Creating Layer conv2_inv
I0318 10:15:12.690424  1893 net.cpp:450] conv2_inv <- conv1_inv
I0318 10:15:12.690428  1893 net.cpp:424] conv2_inv -> conv2_inv
I0318 10:15:12.691437  1893 net.cpp:166] Setting up conv2_inv
I0318 10:15:12.691450  1893 net.cpp:173] Top shape: 300 128 6 6 (1382400)
I0318 10:15:12.691452  1893 net.cpp:181] Memory required for data: 58628400
I0318 10:15:12.691457  1893 net.cpp:509] Sharing parameters 'conv2_w' owned by layer 'conv2', param index 0
I0318 10:15:12.691462  1893 net.cpp:509] Sharing parameters 'conv2_b' owned by layer 'conv2', param index 1
I0318 10:15:12.691463  1893 layer_factory.hpp:77] Creating layer block_output
I0318 10:15:12.691468  1893 net.cpp:116] Creating Layer block_output
I0318 10:15:12.691471  1893 net.cpp:450] block_output <- conv2
I0318 10:15:12.691475  1893 net.cpp:450] block_output <- conv2_inv
I0318 10:15:12.691478  1893 net.cpp:424] block_output -> block_output
I0318 10:15:12.691500  1893 net.cpp:166] Setting up block_output
I0318 10:15:12.691505  1893 net.cpp:173] Top shape: 300 256 6 6 (2764800)
I0318 10:15:12.691507  1893 net.cpp:181] Memory required for data: 69687600
I0318 10:15:12.691509  1893 layer_factory.hpp:77] Creating layer block_output_prelu
I0318 10:15:12.691515  1893 net.cpp:116] Creating Layer block_output_prelu
I0318 10:15:12.691519  1893 net.cpp:450] block_output_prelu <- block_output
I0318 10:15:12.691521  1893 net.cpp:411] block_output_prelu -> block_output (in-place)
I0318 10:15:12.691957  1893 net.cpp:166] Setting up block_output_prelu
I0318 10:15:12.691968  1893 net.cpp:173] Top shape: 300 256 6 6 (2764800)
I0318 10:15:12.691972  1893 net.cpp:181] Memory required for data: 80746800
I0318 10:15:12.691977  1893 layer_factory.hpp:77] Creating layer fc_10
I0318 10:15:12.691983  1893 net.cpp:116] Creating Layer fc_10
I0318 10:15:12.691987  1893 net.cpp:450] fc_10 <- block_output
I0318 10:15:12.691992  1893 net.cpp:424] fc_10 -> fc_10
I0318 10:15:12.694489  1893 net.cpp:166] Setting up fc_10
I0318 10:15:12.694500  1893 net.cpp:173] Top shape: 300 10 (3000)
I0318 10:15:12.694504  1893 net.cpp:181] Memory required for data: 80758800
I0318 10:15:12.694509  1893 layer_factory.hpp:77] Creating layer loss
I0318 10:15:12.694516  1893 net.cpp:116] Creating Layer loss
I0318 10:15:12.694519  1893 net.cpp:450] loss <- fc_10
I0318 10:15:12.694522  1893 net.cpp:450] loss <- label
I0318 10:15:12.694526  1893 net.cpp:424] loss -> loss
I0318 10:15:12.694535  1893 layer_factory.hpp:77] Creating layer loss
…
I0318 10:15:12.695755  1893 net.cpp:338] The NetState phase (1) differed from the phase (0) specified by a rule in layer data_vision
I0318 10:15:12.695760  1893 net.cpp:338] The NetState phase (1) differed from the phase (0) specified by a rule in layer loss
I0318 10:15:12.695869  1893 net.cpp:74] Initializing net from parameters: 
name: "MNIST_NET"
state {
  phase: TEST
}
layer {
  name: "data"
  type: "ImageData"
  top: "data"
  top: "label"
  include {
    phase: TEST
  }
  image_data_param {
    source: "test.txt"
    batch_size: 100
    crop_size: 27
    shuffle: true
    is_color: false
  }
}
layer {
  name: "data_scaling"
  type: "Power"
  bottom: "data"
  top: "data"
  power_param {
    power: 1
    scale: 0.0078125
    shift: -1
  }
}
layer {
  name: "conv1"
  type: "Convolution"
  bottom: "data"
  top: "conv1"
  param {
    lr_mult: 1
    decay_mult: 1
  }
  param {
    lr_mult: 2
    decay_mult: 0
  }
  convolution_param {
    num_output: 36
    kernel_size: 3
    stride: 2
    weight_filler {
      type: "xavier"
    }
  }
}
layer {
  name: "conv1_inv"
  type: "Power"
  bottom: "conv1"
  top: "conv1_inv"
  power_param {
    power: 1
    scale: -1
    shift: 0
  }
}
layer {
  name: "conv1_inv_relu"
  type: "ReLU"
  bottom: "conv1_inv"
  top: "conv1_inv"
}
layer {
  name: "relu1"
  type: "ReLU"
  bottom: "conv1"
  top: "conv1_pos"
}
layer {
  name: "conv2"
  type: "Convolution"
  bottom: "conv1_pos"
  top: "conv2"
  param {
    name: "conv2_w"
    lr_mult: 1
    decay_mult: 1
  }
  param {
    name: "conv2_b"
    lr_mult: 2
    decay_mult: 0
  }
  convolution_param {
    num_output: 128
    kernel_size: 3
    stride: 2
    weight_filler {
      type: "xavier"
    }
  }
}
layer {
  name: "conv2_inv"
  type: "Convolution"
  bottom: "conv1_inv"
  top: "conv2_inv"
  param {
    name: "conv2_w"
    lr_mult: 1
    decay_mult: 1
  }
  param {
    name: "conv2_b"
    lr_mult: 2
    decay_mult: 0
  }
  convolution_param {
    num_output: 128
    kernel_size: 3
    stride: 2
    weight_filler {
      type: "xavier"
    }
  }
}
layer {
  name: "block_output"
  type: "Concat"
  bottom: "conv2"
  bottom: "conv2_inv"
  top: "block_output"
}
layer {
  name: "block_output_prelu"
  type: "PReLU"
  bottom: "block_output"
  top: "block_output"
  prelu_param {
    filler {
      type: "constant"
      value: 0.01
    }
  }
}
layer {
  name: "fc_10"
  type: "InnerProduct"
  bottom: "block_output"
  top: "fc_10"
  param {
    lr_mult: 5
    decay_mult: 1
  }
  param {
    lr_mult: 10
    decay_mult: 0
  }
  inner_product_param {
    num_output: 10
    weight_filler {
      type: "gaussian"
      std: 0.01
    }
    bias_filler {
      type: "constant"
      value: 0
    }
  }
}
layer {
  name: "accuracy"
  type: "Accuracy"
  bottom: "fc_10"
  bottom: "label"
  top: "accuracy"
  include {
    phase: TEST
  }
}
I0318 10:15:12.695931  1893 layer_factory.hpp:77] Creating layer data
I0318 10:15:12.695943  1893 net.cpp:116] Creating Layer data
I0318 10:15:12.695946  1893 net.cpp:424] data -> data
I0318 10:15:12.695952  1893 net.cpp:424] data -> label
I0318 10:15:12.695958  1893 image_data_layer.cpp:38] Opening file test.txt
I0318 10:15:12.697942  1893 image_data_layer.cpp:53] Shuffling data
I0318 10:15:12.698511  1893 image_data_layer.cpp:58] A total of 10000 images.
I0318 10:15:12.698643  1893 image_data_layer.cpp:85] output data size: 100,1,28,28
I0318 10:15:12.699496  1893 net.cpp:166] Setting up data
I0318 10:15:12.699507  1893 net.cpp:173] Top shape: 100 1 28 28 (78400)
I0318 10:15:12.699512  1893 net.cpp:173] Top shape: 100 (100)
I0318 10:15:12.699513  1893 net.cpp:181] Memory required for data: 314000
I0318 10:15:12.699517  1893 layer_factory.hpp:77] Creating layer data_scaling
I0318 10:15:12.699522  1893 net.cpp:116] Creating Layer data_scaling
I0318 10:15:12.699525  1893 net.cpp:450] data_scaling <- data
I0318 10:15:12.699530  1893 net.cpp:411] data_scaling -> data (in-place)
I0318 10:15:12.699537  1893 net.cpp:166] Setting up data_scaling
I0318 10:15:12.699539  1893 net.cpp:173] Top shape: 100 1 28 28 (78400)
I0318 10:15:12.699542  1893 net.cpp:181] Memory required for data: 627600
I0318 10:15:12.699543  1893 layer_factory.hpp:77] Creating layer conv1
I0318 10:15:12.699549  1893 net.cpp:116] Creating Layer conv1
I0318 10:15:12.699551  1893 net.cpp:450] conv1 <- data
I0318 10:15:12.699555  1893 net.cpp:424] conv1 -> conv1
I0318 10:15:12.700667  1893 net.cpp:166] Setting up conv1
I0318 10:15:12.700680  1893 net.cpp:173] Top shape: 100 36 13 13 (608400)
I0318 10:15:12.700682  1893 net.cpp:181] Memory required for data: 3061200
I0318 10:15:12.700690  1893 layer_factory.hpp:77] Creating layer conv1_conv1_0_split
I0318 10:15:12.700696  1893 net.cpp:116] Creating Layer conv1_conv1_0_split
I0318 10:15:12.700698  1893 net.cpp:450] conv1_conv1_0_split <- conv1
I0318 10:15:12.700702  1893 net.cpp:424] conv1_conv1_0_split -> conv1_conv1_0_split_0
I0318 10:15:12.700707  1893 net.cpp:424] conv1_conv1_0_split -> conv1_conv1_0_split_1
I0318 10:15:12.700742  1893 net.cpp:166] Setting up conv1_conv1_0_split
I0318 10:15:12.700747  1893 net.cpp:173] Top shape: 100 36 13 13 (608400)
I0318 10:15:12.700749  1893 net.cpp:173] Top shape: 100 36 13 13 (608400)
I0318 10:15:12.700752  1893 net.cpp:181] Memory required for data: 7928400
I0318 10:15:12.700753  1893 layer_factory.hpp:77] Creating layer conv1_inv
I0318 10:15:12.700758  1893 net.cpp:116] Creating Layer conv1_inv
I0318 10:15:12.700760  1893 net.cpp:450] conv1_inv <- conv1_conv1_0_split_0
I0318 10:15:12.700764  1893 net.cpp:424] conv1_inv -> conv1_inv
I0318 10:15:12.700783  1893 net.cpp:166] Setting up conv1_inv
I0318 10:15:12.700786  1893 net.cpp:173] Top shape: 100 36 13 13 (608400)
I0318 10:15:12.700788  1893 net.cpp:181] Memory required for data: 10362000
I0318 10:15:12.700790  1893 layer_factory.hpp:77] Creating layer conv1_inv_relu
I0318 10:15:12.700794  1893 net.cpp:116] Creating Layer conv1_inv_relu
I0318 10:15:12.700796  1893 net.cpp:450] conv1_inv_relu <- conv1_inv
I0318 10:15:12.700799  1893 net.cpp:411] conv1_inv_relu -> conv1_inv (in-place)
I0318 10:15:12.701083  1893 net.cpp:166] Setting up conv1_inv_relu
I0318 10:15:12.701094  1893 net.cpp:173] Top shape: 100 36 13 13 (608400)
I0318 10:15:12.701107  1893 net.cpp:181] Memory required for data: 12795600
I0318 10:15:12.701109  1893 layer_factory.hpp:77] Creating layer relu1
I0318 10:15:12.701115  1893 net.cpp:116] Creating Layer relu1
I0318 10:15:12.701117  1893 net.cpp:450] relu1 <- conv1_conv1_0_split_1
I0318 10:15:12.701122  1893 net.cpp:424] relu1 -> conv1_pos
I0318 10:15:12.701284  1893 net.cpp:166] Setting up relu1
I0318 10:15:12.701294  1893 net.cpp:173] Top shape: 100 36 13 13 (608400)
I0318 10:15:12.701297  1893 net.cpp:181] Memory required for data: 15229200
I0318 10:15:12.701299  1893 layer_factory.hpp:77] Creating layer conv2
I0318 10:15:12.701308  1893 net.cpp:116] Creating Layer conv2
I0318 10:15:12.701310  1893 net.cpp:450] conv2 <- conv1_pos
I0318 10:15:12.701316  1893 net.cpp:424] conv2 -> conv2
I0318 10:15:12.702544  1893 net.cpp:166] Setting up conv2
I0318 10:15:12.702556  1893 net.cpp:173] Top shape: 100 128 6 6 (460800)
I0318 10:15:12.702558  1893 net.cpp:181] Memory required for data: 17072400
I0318 10:15:12.702565  1893 layer_factory.hpp:77] Creating layer conv2_inv
I0318 10:15:12.702575  1893 net.cpp:116] Creating Layer conv2_inv
I0318 10:15:12.702579  1893 net.cpp:450] conv2_inv <- conv1_inv
I0318 10:15:12.702584  1893 net.cpp:424] conv2_inv -> conv2_inv
I0318 10:15:12.703709  1893 net.cpp:166] Setting up conv2_inv
I0318 10:15:12.703723  1893 net.cpp:173] Top shape: 100 128 6 6 (460800)
I0318 10:15:12.703725  1893 net.cpp:181] Memory required for data: 18915600
I0318 10:15:12.703730  1893 net.cpp:509] Sharing parameters 'conv2_w' owned by layer 'conv2', param index 0
I0318 10:15:12.703733  1893 net.cpp:509] Sharing parameters 'conv2_b' owned by layer 'conv2', param index 1
I0318 10:15:12.703737  1893 layer_factory.hpp:77] Creating layer block_output
I0318 10:15:12.703742  1893 net.cpp:116] Creating Layer block_output
I0318 10:15:12.703745  1893 net.cpp:450] block_output <- conv2
I0318 10:15:12.703748  1893 net.cpp:450] block_output <- conv2_inv
I0318 10:15:12.703752  1893 net.cpp:424] block_output -> block_output
I0318 10:15:12.703778  1893 net.cpp:166] Setting up block_output
I0318 10:15:12.703781  1893 net.cpp:173] Top shape: 100 256 6 6 (921600)
I0318 10:15:12.703784  1893 net.cpp:181] Memory required for data: 22602000
I0318 10:15:12.703786  1893 layer_factory.hpp:77] Creating layer block_output_prelu
I0318 10:15:12.703791  1893 net.cpp:116] Creating Layer block_output_prelu
I0318 10:15:12.703801  1893 net.cpp:450] block_output_prelu <- block_output
I0318 10:15:12.703805  1893 net.cpp:411] block_output_prelu -> block_output (in-place)
I0318 10:15:12.703881  1893 net.cpp:166] Setting up block_output_prelu
I0318 10:15:12.703888  1893 net.cpp:173] Top shape: 100 256 6 6 (921600)
I0318 10:15:12.703891  1893 net.cpp:181] Memory required for data: 26288400
I0318 10:15:12.703896  1893 layer_factory.hpp:77] Creating layer fc_10
I0318 10:15:12.703902  1893 net.cpp:116] Creating Layer fc_10
I0318 10:15:12.703904  1893 net.cpp:450] fc_10 <- block_output
I0318 10:15:12.703908  1893 net.cpp:424] fc_10 -> fc_10
I0318 10:15:12.706069  1893 net.cpp:166] Setting up fc_10
I0318 10:15:12.706076  1893 net.cpp:173] Top shape: 100 10 (1000)
I0318 10:15:12.706079  1893 net.cpp:181] Memory required for data: 26292400
I0318 10:15:12.706085  1893 layer_factory.hpp:77] Creating layer accuracy
I0318 10:15:12.706090  1893 net.cpp:116] Creating Layer accuracy
I0318 10:15:12.706092  1893 net.cpp:450] accuracy <- fc_10
I0318 10:15:12.706095  1893 net.cpp:450] accuracy <- label
I0318 10:15:12.706100  1893 net.cpp:424] accuracy -> accuracy
…
