…
I0318 12:48:20.421726  2653 net.cpp:338] The NetState phase (0) differed from the phase (1) specified by a rule in layer data
I0318 12:48:20.421741  2653 net.cpp:338] The NetState phase (0) differed from the phase (1) specified by a rule in layer accuracy
I0318 12:48:20.421876  2653 net.cpp:74] Initializing net from parameters: 
name: "MNIST_NET"
state {
  phase: TRAIN
  level: 0
  stage: ""
}
layer {
  name: "data"
  type: "ImageData"
  top: "data"
  top: "label"
  include {
    phase: TRAIN
  }
  image_data_param {
    source: "train.txt"
    batch_size: 300
    crop_size: 27
    shuffle: true
    is_color: false
  }
}
layer {
  name: "data_scaling"
  type: "Power"
  bottom: "data"
  top: "data"
  power_param {
    power: 1
    scale: 0.0078125
    shift: -1
  }
}
layer {
  name: "data_drop"
  type: "Dropout"
  bottom: "data"
  top: "data"
  include {
    phase: TRAIN
  }
  dropout_param {
    dropout_ratio: 0.01
  }
}
layer {
  name: "data_vision"
  type: "VisionTransformation"
  bottom: "data"
  top: "data"
  include {
    phase: TRAIN
  }
  vision_transformation_param {
    noise_mean: 0
    noise_std: 0
    noise_std_small: 0
    rotate_min_angle: -20
    rotate_max_angle: 20
    rotate_fill_value: 0
    per_pixel_multiplier_mean: 1
    per_pixel_multiplier_std: 0
    rescale_probability: 0.25
    constant_multiplier_mean: 1
    constant_multiplier_std: 0
    scale_mean: 1
    scale_std: 0.1
    constant_multiplier_color_mean: 0
    constant_multiplier_color_std: 0
    value_cap_min: 0
    value_cap_max: 0
    passthrough_probability: 0.5
  }
}
layer {
  name: "conv1"
  type: "Convolution"
  bottom: "data"
  top: "conv1"
  param {
    lr_mult: 1
    decay_mult: 1
  }
  param {
    lr_mult: 2
    decay_mult: 0
  }
  convolution_param {
    num_output: 36
    kernel_size: 3
    stride: 2
    weight_filler {
      type: "xavier"
    }
  }
}
layer {
  name: "bn1"
  type: "BatchNorm"
  bottom: "conv1"
  top: "bn1"
}
layer {
  name: "conv1_inv"
  type: "Power"
  bottom: "bn1"
  top: "conv1_inv"
  power_param {
    power: 1
    scale: -1
    shift: 0
  }
}
layer {
  name: "conv1_inv_relu"
  type: "ReLU"
  bottom: "conv1_inv"
  top: "conv1_inv"
}
layer {
  name: "relu1"
  type: "ReLU"
  bottom: "bn1"
  top: "conv1_pos"
}
layer {
  name: "conv2"
  type: "Convolution"
  bottom: "conv1_pos"
  top: "conv2"
  param {
    name: "conv2_w"
    lr_mult: 1
    decay_mult: 1
  }
  param {
    name: "conv2_b"
    lr_mult: 2
    decay_mult: 0
  }
  convolution_param {
    num_output: 128
    kernel_size: 3
    stride: 2
    weight_filler {
      type: "xavier"
    }
  }
}
layer {
  name: "conv2_inv"
  type: "Convolution"
  bottom: "conv1_inv"
  top: "conv2_inv"
  param {
    name: "conv2_inv_w"
    lr_mult: 1
    decay_mult: 1
  }
  param {
    name: "conv2_inv_b"
    lr_mult: 2
    decay_mult: 0
  }
  convolution_param {
    num_output: 128
    kernel_size: 3
    stride: 2
    weight_filler {
      type: "xavier"
    }
  }
}
layer {
  name: "block_output"
  type: "Concat"
  bottom: "conv2"
  bottom: "conv2_inv"
  top: "block_output"
}
layer {
  name: "block_output_relu"
  type: "ReLU"
  bottom: "block_output"
  top: "block_output"
}
layer {
  name: "fc_10"
  type: "InnerProduct"
  bottom: "block_output"
  top: "fc_10"
  param {
    lr_mult: 5
    decay_mult: 1
  }
  param {
    lr_mult: 10
    decay_mult: 0
  }
  inner_product_param {
    num_output: 10
    weight_filler {
      type: "gaussian"
      std: 0.01
    }
    bias_filler {
      type: "constant"
      value: 0
    }
  }
}
layer {
  name: "loss"
  type: "SoftmaxWithLoss"
  bottom: "fc_10"
  bottom: "label"
  top: "loss"
  include {
    phase: TRAIN
  }
}
I0318 12:48:20.421974  2653 layer_factory.hpp:77] Creating layer data
I0318 12:48:20.422004  2653 net.cpp:116] Creating Layer data
I0318 12:48:20.422009  2653 net.cpp:424] data -> data
I0318 12:48:20.422025  2653 net.cpp:424] data -> label
I0318 12:48:20.422036  2653 image_data_layer.cpp:38] Opening file train.txt
I0318 12:48:20.434360  2653 image_data_layer.cpp:53] Shuffling data
I0318 12:48:20.438496  2653 image_data_layer.cpp:58] A total of 60000 images.
I0318 12:48:20.448554  2653 image_data_layer.cpp:85] output data size: 300,1,28,28
I0318 12:48:20.450999  2653 net.cpp:166] Setting up data
I0318 12:48:20.451015  2653 net.cpp:173] Top shape: 300 1 28 28 (235200)
I0318 12:48:20.451020  2653 net.cpp:173] Top shape: 300 (300)
I0318 12:48:20.451021  2653 net.cpp:181] Memory required for data: 942000
I0318 12:48:20.451028  2653 layer_factory.hpp:77] Creating layer data_scaling
I0318 12:48:20.451059  2653 net.cpp:116] Creating Layer data_scaling
I0318 12:48:20.451064  2653 net.cpp:450] data_scaling <- data
I0318 12:48:20.451073  2653 net.cpp:411] data_scaling -> data (in-place)
I0318 12:48:20.451082  2653 net.cpp:166] Setting up data_scaling
I0318 12:48:20.451086  2653 net.cpp:173] Top shape: 300 1 28 28 (235200)
I0318 12:48:20.451087  2653 net.cpp:181] Memory required for data: 1882800
I0318 12:48:20.451089  2653 layer_factory.hpp:77] Creating layer data_drop
I0318 12:48:20.451097  2653 net.cpp:116] Creating Layer data_drop
I0318 12:48:20.451099  2653 net.cpp:450] data_drop <- data
I0318 12:48:20.451103  2653 net.cpp:411] data_drop -> data (in-place)
I0318 12:48:20.451136  2653 net.cpp:166] Setting up data_drop
I0318 12:48:20.451141  2653 net.cpp:173] Top shape: 300 1 28 28 (235200)
I0318 12:48:20.451143  2653 net.cpp:181] Memory required for data: 2823600
I0318 12:48:20.451145  2653 layer_factory.hpp:77] Creating layer data_vision
I0318 12:48:20.451151  2653 net.cpp:116] Creating Layer data_vision
I0318 12:48:20.451153  2653 net.cpp:450] data_vision <- data
I0318 12:48:20.451159  2653 net.cpp:411] data_vision -> data (in-place)
I0318 12:48:20.451165  2653 net.cpp:166] Setting up data_vision
I0318 12:48:20.451169  2653 net.cpp:173] Top shape: 300 1 28 28 (235200)
I0318 12:48:20.451170  2653 net.cpp:181] Memory required for data: 3764400
I0318 12:48:20.451172  2653 layer_factory.hpp:77] Creating layer conv1
I0318 12:48:20.451187  2653 net.cpp:116] Creating Layer conv1
I0318 12:48:20.451189  2653 net.cpp:450] conv1 <- data
I0318 12:48:20.451194  2653 net.cpp:424] conv1 -> conv1
I0318 12:48:20.621912  2653 net.cpp:166] Setting up conv1
I0318 12:48:20.621937  2653 net.cpp:173] Top shape: 300 36 13 13 (1825200)
I0318 12:48:20.621940  2653 net.cpp:181] Memory required for data: 11065200
I0318 12:48:20.621954  2653 layer_factory.hpp:77] Creating layer bn1
I0318 12:48:20.621964  2653 net.cpp:116] Creating Layer bn1
I0318 12:48:20.621968  2653 net.cpp:450] bn1 <- conv1
I0318 12:48:20.621973  2653 net.cpp:424] bn1 -> bn1
I0318 12:48:20.622139  2653 net.cpp:166] Setting up bn1
I0318 12:48:20.622148  2653 net.cpp:173] Top shape: 300 36 13 13 (1825200)
I0318 12:48:20.622150  2653 net.cpp:181] Memory required for data: 18366000
I0318 12:48:20.622159  2653 layer_factory.hpp:77] Creating layer bn1_bn1_0_split
I0318 12:48:20.622164  2653 net.cpp:116] Creating Layer bn1_bn1_0_split
I0318 12:48:20.622166  2653 net.cpp:450] bn1_bn1_0_split <- bn1
I0318 12:48:20.622170  2653 net.cpp:424] bn1_bn1_0_split -> bn1_bn1_0_split_0
I0318 12:48:20.622175  2653 net.cpp:424] bn1_bn1_0_split -> bn1_bn1_0_split_1
I0318 12:48:20.622203  2653 net.cpp:166] Setting up bn1_bn1_0_split
I0318 12:48:20.622215  2653 net.cpp:173] Top shape: 300 36 13 13 (1825200)
I0318 12:48:20.622232  2653 net.cpp:173] Top shape: 300 36 13 13 (1825200)
I0318 12:48:20.622236  2653 net.cpp:181] Memory required for data: 32967600
I0318 12:48:20.622237  2653 layer_factory.hpp:77] Creating layer conv1_inv
I0318 12:48:20.622243  2653 net.cpp:116] Creating Layer conv1_inv
I0318 12:48:20.622246  2653 net.cpp:450] conv1_inv <- bn1_bn1_0_split_0
I0318 12:48:20.622249  2653 net.cpp:424] conv1_inv -> conv1_inv
I0318 12:48:20.622269  2653 net.cpp:166] Setting up conv1_inv
I0318 12:48:20.622272  2653 net.cpp:173] Top shape: 300 36 13 13 (1825200)
I0318 12:48:20.622275  2653 net.cpp:181] Memory required for data: 40268400
I0318 12:48:20.622277  2653 layer_factory.hpp:77] Creating layer conv1_inv_relu
I0318 12:48:20.622283  2653 net.cpp:116] Creating Layer conv1_inv_relu
I0318 12:48:20.622287  2653 net.cpp:450] conv1_inv_relu <- conv1_inv
I0318 12:48:20.622289  2653 net.cpp:411] conv1_inv_relu -> conv1_inv (in-place)
I0318 12:48:20.622565  2653 net.cpp:166] Setting up conv1_inv_relu
I0318 12:48:20.622576  2653 net.cpp:173] Top shape: 300 36 13 13 (1825200)
I0318 12:48:20.622578  2653 net.cpp:181] Memory required for data: 47569200
I0318 12:48:20.622581  2653 layer_factory.hpp:77] Creating layer relu1
I0318 12:48:20.622586  2653 net.cpp:116] Creating Layer relu1
I0318 12:48:20.622588  2653 net.cpp:450] relu1 <- bn1_bn1_0_split_1
I0318 12:48:20.622592  2653 net.cpp:424] relu1 -> conv1_pos
I0318 12:48:20.622736  2653 net.cpp:166] Setting up relu1
I0318 12:48:20.622745  2653 net.cpp:173] Top shape: 300 36 13 13 (1825200)
I0318 12:48:20.622747  2653 net.cpp:181] Memory required for data: 54870000
I0318 12:48:20.622750  2653 layer_factory.hpp:77] Creating layer conv2
I0318 12:48:20.622759  2653 net.cpp:116] Creating Layer conv2
I0318 12:48:20.622762  2653 net.cpp:450] conv2 <- conv1_pos
I0318 12:48:20.622766  2653 net.cpp:424] conv2 -> conv2
I0318 12:48:20.624294  2653 net.cpp:166] Setting up conv2
I0318 12:48:20.624307  2653 net.cpp:173] Top shape: 300 128 6 6 (1382400)
I0318 12:48:20.624310  2653 net.cpp:181] Memory required for data: 60399600
I0318 12:48:20.624316  2653 layer_factory.hpp:77] Creating layer conv2_inv
I0318 12:48:20.624323  2653 net.cpp:116] Creating Layer conv2_inv
I0318 12:48:20.624326  2653 net.cpp:450] conv2_inv <- conv1_inv
I0318 12:48:20.624331  2653 net.cpp:424] conv2_inv -> conv2_inv
I0318 12:48:20.625356  2653 net.cpp:166] Setting up conv2_inv
I0318 12:48:20.625370  2653 net.cpp:173] Top shape: 300 128 6 6 (1382400)
I0318 12:48:20.625371  2653 net.cpp:181] Memory required for data: 65929200
I0318 12:48:20.625380  2653 layer_factory.hpp:77] Creating layer block_output
I0318 12:48:20.625385  2653 net.cpp:116] Creating Layer block_output
I0318 12:48:20.625387  2653 net.cpp:450] block_output <- conv2
I0318 12:48:20.625391  2653 net.cpp:450] block_output <- conv2_inv
I0318 12:48:20.625393  2653 net.cpp:424] block_output -> block_output
I0318 12:48:20.625417  2653 net.cpp:166] Setting up block_output
I0318 12:48:20.625422  2653 net.cpp:173] Top shape: 300 256 6 6 (2764800)
I0318 12:48:20.625424  2653 net.cpp:181] Memory required for data: 76988400
I0318 12:48:20.625427  2653 layer_factory.hpp:77] Creating layer block_output_relu
I0318 12:48:20.625430  2653 net.cpp:116] Creating Layer block_output_relu
I0318 12:48:20.625432  2653 net.cpp:450] block_output_relu <- block_output
I0318 12:48:20.625437  2653 net.cpp:411] block_output_relu -> block_output (in-place)
I0318 12:48:20.625700  2653 net.cpp:166] Setting up block_output_relu
I0318 12:48:20.625711  2653 net.cpp:173] Top shape: 300 256 6 6 (2764800)
I0318 12:48:20.625715  2653 net.cpp:181] Memory required for data: 88047600
I0318 12:48:20.625717  2653 layer_factory.hpp:77] Creating layer fc_10
I0318 12:48:20.625725  2653 net.cpp:116] Creating Layer fc_10
I0318 12:48:20.625726  2653 net.cpp:450] fc_10 <- block_output
I0318 12:48:20.625731  2653 net.cpp:424] fc_10 -> fc_10
I0318 12:48:20.628245  2653 net.cpp:166] Setting up fc_10
I0318 12:48:20.628257  2653 net.cpp:173] Top shape: 300 10 (3000)
I0318 12:48:20.628260  2653 net.cpp:181] Memory required for data: 88059600
I0318 12:48:20.628275  2653 layer_factory.hpp:77] Creating layer loss
I0318 12:48:20.628283  2653 net.cpp:116] Creating Layer loss
I0318 12:48:20.628284  2653 net.cpp:450] loss <- fc_10
I0318 12:48:20.628288  2653 net.cpp:450] loss <- label
I0318 12:48:20.628293  2653 net.cpp:424] loss -> loss
I0318 12:48:20.628300  2653 layer_factory.hpp:77] Creating layer loss
…
I0318 12:48:20.629348  2653 net.cpp:338] The NetState phase (1) differed from the phase (0) specified by a rule in layer data_vision
I0318 12:48:20.629355  2653 net.cpp:338] The NetState phase (1) differed from the phase (0) specified by a rule in layer loss
I0318 12:48:20.629463  2653 net.cpp:74] Initializing net from parameters: 
name: "MNIST_NET"
state {
  phase: TEST
}
layer {
  name: "data"
  type: "ImageData"
  top: "data"
  top: "label"
  include {
    phase: TEST
  }
  image_data_param {
    source: "test.txt"
    batch_size: 100
    crop_size: 27
    shuffle: true
    is_color: false
  }
}
layer {
  name: "data_scaling"
  type: "Power"
  bottom: "data"
  top: "data"
  power_param {
    power: 1
    scale: 0.0078125
    shift: -1
  }
}
layer {
  name: "conv1"
  type: "Convolution"
  bottom: "data"
  top: "conv1"
  param {
    lr_mult: 1
    decay_mult: 1
  }
  param {
    lr_mult: 2
    decay_mult: 0
  }
  convolution_param {
    num_output: 36
    kernel_size: 3
    stride: 2
    weight_filler {
      type: "xavier"
    }
  }
}
layer {
  name: "bn1"
  type: "BatchNorm"
  bottom: "conv1"
  top: "bn1"
}
layer {
  name: "conv1_inv"
  type: "Power"
  bottom: "bn1"
  top: "conv1_inv"
  power_param {
    power: 1
    scale: -1
    shift: 0
  }
}
layer {
  name: "conv1_inv_relu"
  type: "ReLU"
  bottom: "conv1_inv"
  top: "conv1_inv"
}
layer {
  name: "relu1"
  type: "ReLU"
  bottom: "bn1"
  top: "conv1_pos"
}
layer {
  name: "conv2"
  type: "Convolution"
  bottom: "conv1_pos"
  top: "conv2"
  param {
    name: "conv2_w"
    lr_mult: 1
    decay_mult: 1
  }
  param {
    name: "conv2_b"
    lr_mult: 2
    decay_mult: 0
  }
  convolution_param {
    num_output: 128
    kernel_size: 3
    stride: 2
    weight_filler {
      type: "xavier"
    }
  }
}
layer {
  name: "conv2_inv"
  type: "Convolution"
  bottom: "conv1_inv"
  top: "conv2_inv"
  param {
    name: "conv2_inv_w"
    lr_mult: 1
    decay_mult: 1
  }
  param {
    name: "conv2_inv_b"
    lr_mult: 2
    decay_mult: 0
  }
  convolution_param {
    num_output: 128
    kernel_size: 3
    stride: 2
    weight_filler {
      type: "xavier"
    }
  }
}
layer {
  name: "block_output"
  type: "Concat"
  bottom: "conv2"
  bottom: "conv2_inv"
  top: "block_output"
}
layer {
  name: "block_output_relu"
  type: "ReLU"
  bottom: "block_output"
  top: "block_output"
}
layer {
  name: "fc_10"
  type: "InnerProduct"
  bottom: "block_output"
  top: "fc_10"
  param {
    lr_mult: 5
    decay_mult: 1
  }
  param {
    lr_mult: 10
    decay_mult: 0
  }
  inner_product_param {
    num_output: 10
    weight_filler {
      type: "gaussian"
      std: 0.01
    }
    bias_filler {
      type: "constant"
      value: 0
    }
  }
}
layer {
  name: "accuracy"
  type: "Accuracy"
  bottom: "fc_10"
  bottom: "label"
  top: "accuracy"
  include {
    phase: TEST
  }
}
I0318 12:48:20.629530  2653 layer_factory.hpp:77] Creating layer data
I0318 12:48:20.629541  2653 net.cpp:116] Creating Layer data
I0318 12:48:20.629544  2653 net.cpp:424] data -> data
I0318 12:48:20.629550  2653 net.cpp:424] data -> label
I0318 12:48:20.629556  2653 image_data_layer.cpp:38] Opening file test.txt
I0318 12:48:20.631618  2653 image_data_layer.cpp:53] Shuffling data
I0318 12:48:20.632194  2653 image_data_layer.cpp:58] A total of 10000 images.
I0318 12:48:20.632325  2653 image_data_layer.cpp:85] output data size: 100,1,28,28
I0318 12:48:20.633173  2653 net.cpp:166] Setting up data
I0318 12:48:20.633184  2653 net.cpp:173] Top shape: 100 1 28 28 (78400)
I0318 12:48:20.633188  2653 net.cpp:173] Top shape: 100 (100)
I0318 12:48:20.633190  2653 net.cpp:181] Memory required for data: 314000
I0318 12:48:20.633193  2653 layer_factory.hpp:77] Creating layer data_scaling
I0318 12:48:20.633199  2653 net.cpp:116] Creating Layer data_scaling
I0318 12:48:20.633203  2653 net.cpp:450] data_scaling <- data
I0318 12:48:20.633208  2653 net.cpp:411] data_scaling -> data (in-place)
I0318 12:48:20.633213  2653 net.cpp:166] Setting up data_scaling
I0318 12:48:20.633216  2653 net.cpp:173] Top shape: 100 1 28 28 (78400)
I0318 12:48:20.633219  2653 net.cpp:181] Memory required for data: 627600
I0318 12:48:20.633220  2653 layer_factory.hpp:77] Creating layer conv1
I0318 12:48:20.633226  2653 net.cpp:116] Creating Layer conv1
I0318 12:48:20.633229  2653 net.cpp:450] conv1 <- data
I0318 12:48:20.633232  2653 net.cpp:424] conv1 -> conv1
I0318 12:48:20.634445  2653 net.cpp:166] Setting up conv1
I0318 12:48:20.634459  2653 net.cpp:173] Top shape: 100 36 13 13 (608400)
I0318 12:48:20.634462  2653 net.cpp:181] Memory required for data: 3061200
I0318 12:48:20.634470  2653 layer_factory.hpp:77] Creating layer bn1
I0318 12:48:20.634475  2653 net.cpp:116] Creating Layer bn1
I0318 12:48:20.634477  2653 net.cpp:450] bn1 <- conv1
I0318 12:48:20.634483  2653 net.cpp:424] bn1 -> bn1
I0318 12:48:20.634649  2653 net.cpp:166] Setting up bn1
I0318 12:48:20.634670  2653 net.cpp:173] Top shape: 100 36 13 13 (608400)
I0318 12:48:20.634676  2653 net.cpp:181] Memory required for data: 5494800
I0318 12:48:20.634685  2653 layer_factory.hpp:77] Creating layer bn1_bn1_0_split
I0318 12:48:20.634691  2653 net.cpp:116] Creating Layer bn1_bn1_0_split
I0318 12:48:20.634693  2653 net.cpp:450] bn1_bn1_0_split <- bn1
I0318 12:48:20.634696  2653 net.cpp:424] bn1_bn1_0_split -> bn1_bn1_0_split_0
I0318 12:48:20.634701  2653 net.cpp:424] bn1_bn1_0_split -> bn1_bn1_0_split_1
I0318 12:48:20.634754  2653 net.cpp:166] Setting up bn1_bn1_0_split
I0318 12:48:20.634771  2653 net.cpp:173] Top shape: 100 36 13 13 (608400)
I0318 12:48:20.634774  2653 net.cpp:173] Top shape: 100 36 13 13 (608400)
I0318 12:48:20.634776  2653 net.cpp:181] Memory required for data: 10362000
I0318 12:48:20.634779  2653 layer_factory.hpp:77] Creating layer conv1_inv
I0318 12:48:20.634784  2653 net.cpp:116] Creating Layer conv1_inv
I0318 12:48:20.634786  2653 net.cpp:450] conv1_inv <- bn1_bn1_0_split_0
I0318 12:48:20.634790  2653 net.cpp:424] conv1_inv -> conv1_inv
I0318 12:48:20.634814  2653 net.cpp:166] Setting up conv1_inv
I0318 12:48:20.634817  2653 net.cpp:173] Top shape: 100 36 13 13 (608400)
I0318 12:48:20.634820  2653 net.cpp:181] Memory required for data: 12795600
I0318 12:48:20.634824  2653 layer_factory.hpp:77] Creating layer conv1_inv_relu
I0318 12:48:20.634826  2653 net.cpp:116] Creating Layer conv1_inv_relu
I0318 12:48:20.634829  2653 net.cpp:450] conv1_inv_relu <- conv1_inv
I0318 12:48:20.634832  2653 net.cpp:411] conv1_inv_relu -> conv1_inv (in-place)
I0318 12:48:20.635071  2653 net.cpp:166] Setting up conv1_inv_relu
I0318 12:48:20.635082  2653 net.cpp:173] Top shape: 100 36 13 13 (608400)
I0318 12:48:20.635084  2653 net.cpp:181] Memory required for data: 15229200
I0318 12:48:20.635087  2653 layer_factory.hpp:77] Creating layer relu1
I0318 12:48:20.635092  2653 net.cpp:116] Creating Layer relu1
I0318 12:48:20.635093  2653 net.cpp:450] relu1 <- bn1_bn1_0_split_1
I0318 12:48:20.635097  2653 net.cpp:424] relu1 -> conv1_pos
I0318 12:48:20.635413  2653 net.cpp:166] Setting up relu1
I0318 12:48:20.635426  2653 net.cpp:173] Top shape: 100 36 13 13 (608400)
I0318 12:48:20.635427  2653 net.cpp:181] Memory required for data: 17662800
I0318 12:48:20.635431  2653 layer_factory.hpp:77] Creating layer conv2
I0318 12:48:20.635440  2653 net.cpp:116] Creating Layer conv2
I0318 12:48:20.635443  2653 net.cpp:450] conv2 <- conv1_pos
I0318 12:48:20.635447  2653 net.cpp:424] conv2 -> conv2
I0318 12:48:20.636565  2653 net.cpp:166] Setting up conv2
I0318 12:48:20.636579  2653 net.cpp:173] Top shape: 100 128 6 6 (460800)
I0318 12:48:20.636580  2653 net.cpp:181] Memory required for data: 19506000
I0318 12:48:20.636585  2653 layer_factory.hpp:77] Creating layer conv2_inv
I0318 12:48:20.636595  2653 net.cpp:116] Creating Layer conv2_inv
I0318 12:48:20.636598  2653 net.cpp:450] conv2_inv <- conv1_inv
I0318 12:48:20.636603  2653 net.cpp:424] conv2_inv -> conv2_inv
I0318 12:48:20.637783  2653 net.cpp:166] Setting up conv2_inv
I0318 12:48:20.637794  2653 net.cpp:173] Top shape: 100 128 6 6 (460800)
I0318 12:48:20.637797  2653 net.cpp:181] Memory required for data: 21349200
I0318 12:48:20.637804  2653 layer_factory.hpp:77] Creating layer block_output
I0318 12:48:20.637810  2653 net.cpp:116] Creating Layer block_output
I0318 12:48:20.637812  2653 net.cpp:450] block_output <- conv2
I0318 12:48:20.637816  2653 net.cpp:450] block_output <- conv2_inv
I0318 12:48:20.637820  2653 net.cpp:424] block_output -> block_output
I0318 12:48:20.637847  2653 net.cpp:166] Setting up block_output
I0318 12:48:20.637851  2653 net.cpp:173] Top shape: 100 256 6 6 (921600)
I0318 12:48:20.637853  2653 net.cpp:181] Memory required for data: 25035600
I0318 12:48:20.637856  2653 layer_factory.hpp:77] Creating layer block_output_relu
I0318 12:48:20.637859  2653 net.cpp:116] Creating Layer block_output_relu
I0318 12:48:20.637861  2653 net.cpp:450] block_output_relu <- block_output
I0318 12:48:20.637866  2653 net.cpp:411] block_output_relu -> block_output (in-place)
I0318 12:48:20.638037  2653 net.cpp:166] Setting up block_output_relu
I0318 12:48:20.638046  2653 net.cpp:173] Top shape: 100 256 6 6 (921600)
I0318 12:48:20.638049  2653 net.cpp:181] Memory required for data: 28722000
I0318 12:48:20.638051  2653 layer_factory.hpp:77] Creating layer fc_10
I0318 12:48:20.638059  2653 net.cpp:116] Creating Layer fc_10
I0318 12:48:20.638062  2653 net.cpp:450] fc_10 <- block_output
I0318 12:48:20.638067  2653 net.cpp:424] fc_10 -> fc_10
I0318 12:48:20.640256  2653 net.cpp:166] Setting up fc_10
I0318 12:48:20.640265  2653 net.cpp:173] Top shape: 100 10 (1000)
I0318 12:48:20.640276  2653 net.cpp:181] Memory required for data: 28726000
I0318 12:48:20.640282  2653 layer_factory.hpp:77] Creating layer accuracy
I0318 12:48:20.640287  2653 net.cpp:116] Creating Layer accuracy
I0318 12:48:20.640290  2653 net.cpp:450] accuracy <- fc_10
I0318 12:48:20.640293  2653 net.cpp:450] accuracy <- label
I0318 12:48:20.640298  2653 net.cpp:424] accuracy -> accuracy
…
