…
I0318 12:14:47.351460  2523 net.cpp:338] The NetState phase (0) differed from the phase (1) specified by a rule in layer data
I0318 12:14:47.351476  2523 net.cpp:338] The NetState phase (0) differed from the phase (1) specified by a rule in layer accuracy
I0318 12:14:47.351622  2523 net.cpp:74] Initializing net from parameters: 
name: "MNIST_NET"
state {
  phase: TRAIN
  level: 0
  stage: ""
}
layer {
  name: "data"
  type: "ImageData"
  top: "data"
  top: "label"
  include {
    phase: TRAIN
  }
  image_data_param {
    source: "train.txt"
    batch_size: 300
    crop_size: 27
    shuffle: true
    is_color: false
  }
}
layer {
  name: "data_scaling"
  type: "Power"
  bottom: "data"
  top: "data"
  power_param {
    power: 1
    scale: 0.0078125
    shift: -1
  }
}
layer {
  name: "data_drop"
  type: "Dropout"
  bottom: "data"
  top: "data"
  include {
    phase: TRAIN
  }
  dropout_param {
    dropout_ratio: 0.01
  }
}
layer {
  name: "data_vision"
  type: "VisionTransformation"
  bottom: "data"
  top: "data"
  include {
    phase: TRAIN
  }
  vision_transformation_param {
    noise_mean: 0
    noise_std: 0
    noise_std_small: 0
    rotate_min_angle: -20
    rotate_max_angle: 20
    rotate_fill_value: 0
    per_pixel_multiplier_mean: 1
    per_pixel_multiplier_std: 0
    rescale_probability: 0.25
    constant_multiplier_mean: 1
    constant_multiplier_std: 0
    scale_mean: 1
    scale_std: 0.1
    constant_multiplier_color_mean: 0
    constant_multiplier_color_std: 0
    value_cap_min: 0
    value_cap_max: 0
    passthrough_probability: 0.5
  }
}
layer {
  name: "conv1"
  type: "Convolution"
  bottom: "data"
  top: "conv1"
  param {
    lr_mult: 1
    decay_mult: 1
  }
  param {
    lr_mult: 2
    decay_mult: 0
  }
  convolution_param {
    num_output: 36
    kernel_size: 3
    stride: 2
    weight_filler {
      type: "xavier"
    }
  }
}
layer {
  name: "bn1"
  type: "BatchNorm"
  bottom: "conv1"
  top: "bn1"
}
layer {
  name: "conv1_inv"
  type: "Power"
  bottom: "bn1"
  top: "conv1_inv"
  power_param {
    power: 1
    scale: -1
    shift: 0
  }
}
layer {
  name: "conv1_inv_prelu"
  type: "PReLU"
  bottom: "conv1_inv"
  top: "conv1_inv"
  prelu_param {
    filler {
      type: "constant"
      value: 0.01
    }
  }
}
layer {
  name: "prelu1"
  type: "ReLU"
  bottom: "bn1"
  top: "conv1_pos"
  prelu_param {
    filler {
      type: "constant"
      value: 0.01
    }
  }
}
layer {
  name: "conv2"
  type: "Convolution"
  bottom: "conv1_pos"
  top: "conv2"
  param {
    name: "conv2_w"
    lr_mult: 1
    decay_mult: 1
  }
  param {
    name: "conv2_b"
    lr_mult: 2
    decay_mult: 0
  }
  convolution_param {
    num_output: 128
    kernel_size: 3
    stride: 2
    weight_filler {
      type: "xavier"
    }
  }
}
layer {
  name: "conv2_inv"
  type: "Convolution"
  bottom: "conv1_inv"
  top: "conv2_inv"
  param {
    name: "conv2_inv_w"
    lr_mult: 1
    decay_mult: 1
  }
  param {
    name: "conv2_inv_b"
    lr_mult: 2
    decay_mult: 0
  }
  convolution_param {
    num_output: 128
    kernel_size: 3
    stride: 2
    weight_filler {
      type: "xavier"
    }
  }
}
layer {
  name: "block_output"
  type: "Concat"
  bottom: "conv2"
  bottom: "conv2_inv"
  top: "block_output"
}
layer {
  name: "block_output_prelu"
  type: "PReLU"
  bottom: "block_output"
  top: "block_output"
  prelu_param {
    filler {
      type: "constant"
      value: 0.01
    }
  }
}
layer {
  name: "fc_10"
  type: "InnerProduct"
  bottom: "block_output"
  top: "fc_10"
  param {
    lr_mult: 5
    decay_mult: 1
  }
  param {
    lr_mult: 10
    decay_mult: 0
  }
  inner_product_param {
    num_output: 10
    weight_filler {
      type: "gaussian"
      std: 0.01
    }
    bias_filler {
      type: "constant"
      value: 0
    }
  }
}
layer {
  name: "loss"
  type: "SoftmaxWithLoss"
  bottom: "fc_10"
  bottom: "label"
  top: "loss"
  include {
    phase: TRAIN
  }
}
I0318 12:14:47.351724  2523 layer_factory.hpp:77] Creating layer data
I0318 12:14:47.351752  2523 net.cpp:116] Creating Layer data
I0318 12:14:47.351758  2523 net.cpp:424] data -> data
I0318 12:14:47.351774  2523 net.cpp:424] data -> label
I0318 12:14:47.351785  2523 image_data_layer.cpp:38] Opening file train.txt
I0318 12:14:47.364065  2523 image_data_layer.cpp:53] Shuffling data
I0318 12:14:47.368190  2523 image_data_layer.cpp:58] A total of 60000 images.
I0318 12:14:47.378279  2523 image_data_layer.cpp:85] output data size: 300,1,28,28
I0318 12:14:47.380901  2523 net.cpp:166] Setting up data
I0318 12:14:47.380920  2523 net.cpp:173] Top shape: 300 1 28 28 (235200)
I0318 12:14:47.380924  2523 net.cpp:173] Top shape: 300 (300)
I0318 12:14:47.380928  2523 net.cpp:181] Memory required for data: 942000
I0318 12:14:47.380934  2523 layer_factory.hpp:77] Creating layer data_scaling
I0318 12:14:47.380947  2523 net.cpp:116] Creating Layer data_scaling
I0318 12:14:47.380951  2523 net.cpp:450] data_scaling <- data
I0318 12:14:47.380960  2523 net.cpp:411] data_scaling -> data (in-place)
I0318 12:14:47.380975  2523 net.cpp:166] Setting up data_scaling
I0318 12:14:47.380978  2523 net.cpp:173] Top shape: 300 1 28 28 (235200)
I0318 12:14:47.380980  2523 net.cpp:181] Memory required for data: 1882800
I0318 12:14:47.380983  2523 layer_factory.hpp:77] Creating layer data_drop
I0318 12:14:47.380990  2523 net.cpp:116] Creating Layer data_drop
I0318 12:14:47.380992  2523 net.cpp:450] data_drop <- data
I0318 12:14:47.380996  2523 net.cpp:411] data_drop -> data (in-place)
I0318 12:14:47.381086  2523 net.cpp:166] Setting up data_drop
I0318 12:14:47.381104  2523 net.cpp:173] Top shape: 300 1 28 28 (235200)
I0318 12:14:47.381108  2523 net.cpp:181] Memory required for data: 2823600
I0318 12:14:47.381114  2523 layer_factory.hpp:77] Creating layer data_vision
I0318 12:14:47.381125  2523 net.cpp:116] Creating Layer data_vision
I0318 12:14:47.381129  2523 net.cpp:450] data_vision <- data
I0318 12:14:47.381139  2523 net.cpp:411] data_vision -> data (in-place)
I0318 12:14:47.381152  2523 net.cpp:166] Setting up data_vision
I0318 12:14:47.381158  2523 net.cpp:173] Top shape: 300 1 28 28 (235200)
I0318 12:14:47.381162  2523 net.cpp:181] Memory required for data: 3764400
I0318 12:14:47.381166  2523 layer_factory.hpp:77] Creating layer conv1
I0318 12:14:47.381184  2523 net.cpp:116] Creating Layer conv1
I0318 12:14:47.381189  2523 net.cpp:450] conv1 <- data
I0318 12:14:47.381196  2523 net.cpp:424] conv1 -> conv1
I0318 12:14:47.577733  2523 net.cpp:166] Setting up conv1
I0318 12:14:47.577761  2523 net.cpp:173] Top shape: 300 36 13 13 (1825200)
I0318 12:14:47.577765  2523 net.cpp:181] Memory required for data: 11065200
I0318 12:14:47.577780  2523 layer_factory.hpp:77] Creating layer bn1
I0318 12:14:47.577790  2523 net.cpp:116] Creating Layer bn1
I0318 12:14:47.577795  2523 net.cpp:450] bn1 <- conv1
I0318 12:14:47.577800  2523 net.cpp:424] bn1 -> bn1
I0318 12:14:47.577962  2523 net.cpp:166] Setting up bn1
I0318 12:14:47.577972  2523 net.cpp:173] Top shape: 300 36 13 13 (1825200)
I0318 12:14:47.577975  2523 net.cpp:181] Memory required for data: 18366000
I0318 12:14:47.577985  2523 layer_factory.hpp:77] Creating layer bn1_bn1_0_split
I0318 12:14:47.577997  2523 net.cpp:116] Creating Layer bn1_bn1_0_split
I0318 12:14:47.578001  2523 net.cpp:450] bn1_bn1_0_split <- bn1
I0318 12:14:47.578004  2523 net.cpp:424] bn1_bn1_0_split -> bn1_bn1_0_split_0
I0318 12:14:47.578027  2523 net.cpp:424] bn1_bn1_0_split -> bn1_bn1_0_split_1
I0318 12:14:47.578058  2523 net.cpp:166] Setting up bn1_bn1_0_split
I0318 12:14:47.578063  2523 net.cpp:173] Top shape: 300 36 13 13 (1825200)
I0318 12:14:47.578066  2523 net.cpp:173] Top shape: 300 36 13 13 (1825200)
I0318 12:14:47.578069  2523 net.cpp:181] Memory required for data: 32967600
I0318 12:14:47.578073  2523 layer_factory.hpp:77] Creating layer conv1_inv
I0318 12:14:47.578078  2523 net.cpp:116] Creating Layer conv1_inv
I0318 12:14:47.578081  2523 net.cpp:450] conv1_inv <- bn1_bn1_0_split_0
I0318 12:14:47.578085  2523 net.cpp:424] conv1_inv -> conv1_inv
I0318 12:14:47.578101  2523 net.cpp:166] Setting up conv1_inv
I0318 12:14:47.578105  2523 net.cpp:173] Top shape: 300 36 13 13 (1825200)
I0318 12:14:47.578109  2523 net.cpp:181] Memory required for data: 40268400
I0318 12:14:47.578110  2523 layer_factory.hpp:77] Creating layer conv1_inv_prelu
I0318 12:14:47.578117  2523 net.cpp:116] Creating Layer conv1_inv_prelu
I0318 12:14:47.578120  2523 net.cpp:450] conv1_inv_prelu <- conv1_inv
I0318 12:14:47.578125  2523 net.cpp:411] conv1_inv_prelu -> conv1_inv (in-place)
I0318 12:14:47.578570  2523 net.cpp:166] Setting up conv1_inv_prelu
I0318 12:14:47.578582  2523 net.cpp:173] Top shape: 300 36 13 13 (1825200)
I0318 12:14:47.578584  2523 net.cpp:181] Memory required for data: 47569200
I0318 12:14:47.578588  2523 layer_factory.hpp:77] Creating layer prelu1
I0318 12:14:47.578594  2523 net.cpp:116] Creating Layer prelu1
I0318 12:14:47.578598  2523 net.cpp:450] prelu1 <- bn1_bn1_0_split_1
I0318 12:14:47.578603  2523 net.cpp:424] prelu1 -> conv1_pos
I0318 12:14:47.578896  2523 net.cpp:166] Setting up prelu1
I0318 12:14:47.578908  2523 net.cpp:173] Top shape: 300 36 13 13 (1825200)
I0318 12:14:47.578912  2523 net.cpp:181] Memory required for data: 54870000
I0318 12:14:47.578914  2523 layer_factory.hpp:77] Creating layer conv2
I0318 12:14:47.578924  2523 net.cpp:116] Creating Layer conv2
I0318 12:14:47.578927  2523 net.cpp:450] conv2 <- conv1_pos
I0318 12:14:47.578933  2523 net.cpp:424] conv2 -> conv2
I0318 12:14:47.580446  2523 net.cpp:166] Setting up conv2
I0318 12:14:47.580461  2523 net.cpp:173] Top shape: 300 128 6 6 (1382400)
I0318 12:14:47.580463  2523 net.cpp:181] Memory required for data: 60399600
I0318 12:14:47.580469  2523 layer_factory.hpp:77] Creating layer conv2_inv
I0318 12:14:47.580477  2523 net.cpp:116] Creating Layer conv2_inv
I0318 12:14:47.580480  2523 net.cpp:450] conv2_inv <- conv1_inv
I0318 12:14:47.580485  2523 net.cpp:424] conv2_inv -> conv2_inv
I0318 12:14:47.581400  2523 net.cpp:166] Setting up conv2_inv
I0318 12:14:47.581413  2523 net.cpp:173] Top shape: 300 128 6 6 (1382400)
I0318 12:14:47.581416  2523 net.cpp:181] Memory required for data: 65929200
I0318 12:14:47.581423  2523 layer_factory.hpp:77] Creating layer block_output
I0318 12:14:47.581429  2523 net.cpp:116] Creating Layer block_output
I0318 12:14:47.581432  2523 net.cpp:450] block_output <- conv2
I0318 12:14:47.581435  2523 net.cpp:450] block_output <- conv2_inv
I0318 12:14:47.581440  2523 net.cpp:424] block_output -> block_output
I0318 12:14:47.581467  2523 net.cpp:166] Setting up block_output
I0318 12:14:47.581472  2523 net.cpp:173] Top shape: 300 256 6 6 (2764800)
I0318 12:14:47.581475  2523 net.cpp:181] Memory required for data: 76988400
I0318 12:14:47.581477  2523 layer_factory.hpp:77] Creating layer block_output_prelu
I0318 12:14:47.581482  2523 net.cpp:116] Creating Layer block_output_prelu
I0318 12:14:47.581485  2523 net.cpp:450] block_output_prelu <- block_output
I0318 12:14:47.581490  2523 net.cpp:411] block_output_prelu -> block_output (in-place)
I0318 12:14:47.581565  2523 net.cpp:166] Setting up block_output_prelu
I0318 12:14:47.581575  2523 net.cpp:173] Top shape: 300 256 6 6 (2764800)
I0318 12:14:47.581578  2523 net.cpp:181] Memory required for data: 88047600
I0318 12:14:47.581581  2523 layer_factory.hpp:77] Creating layer fc_10
I0318 12:14:47.581588  2523 net.cpp:116] Creating Layer fc_10
I0318 12:14:47.581590  2523 net.cpp:450] fc_10 <- block_output
I0318 12:14:47.581605  2523 net.cpp:424] fc_10 -> fc_10
I0318 12:14:47.584125  2523 net.cpp:166] Setting up fc_10
I0318 12:14:47.584137  2523 net.cpp:173] Top shape: 300 10 (3000)
I0318 12:14:47.584141  2523 net.cpp:181] Memory required for data: 88059600
I0318 12:14:47.584146  2523 layer_factory.hpp:77] Creating layer loss
I0318 12:14:47.584152  2523 net.cpp:116] Creating Layer loss
I0318 12:14:47.584156  2523 net.cpp:450] loss <- fc_10
I0318 12:14:47.584158  2523 net.cpp:450] loss <- label
I0318 12:14:47.584163  2523 net.cpp:424] loss -> loss
I0318 12:14:47.584172  2523 layer_factory.hpp:77] Creating layer loss
…
I0318 12:14:47.585398  2523 net.cpp:338] The NetState phase (1) differed from the phase (0) specified by a rule in layer data_vision
I0318 12:14:47.585407  2523 net.cpp:338] The NetState phase (1) differed from the phase (0) specified by a rule in layer loss
I0318 12:14:47.585528  2523 net.cpp:74] Initializing net from parameters: 
name: "MNIST_NET"
state {
  phase: TEST
}
layer {
  name: "data"
  type: "ImageData"
  top: "data"
  top: "label"
  include {
    phase: TEST
  }
  image_data_param {
    source: "test.txt"
    batch_size: 100
    crop_size: 27
    shuffle: true
    is_color: false
  }
}
layer {
  name: "data_scaling"
  type: "Power"
  bottom: "data"
  top: "data"
  power_param {
    power: 1
    scale: 0.0078125
    shift: -1
  }
}
layer {
  name: "conv1"
  type: "Convolution"
  bottom: "data"
  top: "conv1"
  param {
    lr_mult: 1
    decay_mult: 1
  }
  param {
    lr_mult: 2
    decay_mult: 0
  }
  convolution_param {
    num_output: 36
    kernel_size: 3
    stride: 2
    weight_filler {
      type: "xavier"
    }
  }
}
layer {
  name: "bn1"
  type: "BatchNorm"
  bottom: "conv1"
  top: "bn1"
}
layer {
  name: "conv1_inv"
  type: "Power"
  bottom: "bn1"
  top: "conv1_inv"
  power_param {
    power: 1
    scale: -1
    shift: 0
  }
}
layer {
  name: "conv1_inv_prelu"
  type: "PReLU"
  bottom: "conv1_inv"
  top: "conv1_inv"
  prelu_param {
    filler {
      type: "constant"
      value: 0.01
    }
  }
}
layer {
  name: "prelu1"
  type: "ReLU"
  bottom: "bn1"
  top: "conv1_pos"
  prelu_param {
    filler {
      type: "constant"
      value: 0.01
    }
  }
}
layer {
  name: "conv2"
  type: "Convolution"
  bottom: "conv1_pos"
  top: "conv2"
  param {
    name: "conv2_w"
    lr_mult: 1
    decay_mult: 1
  }
  param {
    name: "conv2_b"
    lr_mult: 2
    decay_mult: 0
  }
  convolution_param {
    num_output: 128
    kernel_size: 3
    stride: 2
    weight_filler {
      type: "xavier"
    }
  }
}
layer {
  name: "conv2_inv"
  type: "Convolution"
  bottom: "conv1_inv"
  top: "conv2_inv"
  param {
    name: "conv2_inv_w"
    lr_mult: 1
    decay_mult: 1
  }
  param {
    name: "conv2_inv_b"
    lr_mult: 2
    decay_mult: 0
  }
  convolution_param {
    num_output: 128
    kernel_size: 3
    stride: 2
    weight_filler {
      type: "xavier"
    }
  }
}
layer {
  name: "block_output"
  type: "Concat"
  bottom: "conv2"
  bottom: "conv2_inv"
  top: "block_output"
}
layer {
  name: "block_output_prelu"
  type: "PReLU"
  bottom: "block_output"
  top: "block_output"
  prelu_param {
    filler {
      type: "constant"
      value: 0.01
    }
  }
}
layer {
  name: "fc_10"
  type: "InnerProduct"
  bottom: "block_output"
  top: "fc_10"
  param {
    lr_mult: 5
    decay_mult: 1
  }
  param {
    lr_mult: 10
    decay_mult: 0
  }
  inner_product_param {
    num_output: 10
    weight_filler {
      type: "gaussian"
      std: 0.01
    }
    bias_filler {
      type: "constant"
      value: 0
    }
  }
}
layer {
  name: "accuracy"
  type: "Accuracy"
  bottom: "fc_10"
  bottom: "label"
  top: "accuracy"
  include {
    phase: TEST
  }
}
I0318 12:14:47.585600  2523 layer_factory.hpp:77] Creating layer data
I0318 12:14:47.585613  2523 net.cpp:116] Creating Layer data
I0318 12:14:47.585618  2523 net.cpp:424] data -> data
I0318 12:14:47.585624  2523 net.cpp:424] data -> label
I0318 12:14:47.585630  2523 image_data_layer.cpp:38] Opening file test.txt
I0318 12:14:47.587770  2523 image_data_layer.cpp:53] Shuffling data
I0318 12:14:47.588347  2523 image_data_layer.cpp:58] A total of 10000 images.
I0318 12:14:47.588481  2523 image_data_layer.cpp:85] output data size: 100,1,28,28
I0318 12:14:47.589336  2523 net.cpp:166] Setting up data
I0318 12:14:47.589349  2523 net.cpp:173] Top shape: 100 1 28 28 (78400)
I0318 12:14:47.589352  2523 net.cpp:173] Top shape: 100 (100)
I0318 12:14:47.589354  2523 net.cpp:181] Memory required for data: 314000
I0318 12:14:47.589357  2523 layer_factory.hpp:77] Creating layer data_scaling
I0318 12:14:47.589365  2523 net.cpp:116] Creating Layer data_scaling
I0318 12:14:47.589366  2523 net.cpp:450] data_scaling <- data
I0318 12:14:47.589370  2523 net.cpp:411] data_scaling -> data (in-place)
I0318 12:14:47.589377  2523 net.cpp:166] Setting up data_scaling
I0318 12:14:47.589380  2523 net.cpp:173] Top shape: 100 1 28 28 (78400)
I0318 12:14:47.589382  2523 net.cpp:181] Memory required for data: 627600
I0318 12:14:47.589385  2523 layer_factory.hpp:77] Creating layer conv1
I0318 12:14:47.589391  2523 net.cpp:116] Creating Layer conv1
I0318 12:14:47.589395  2523 net.cpp:450] conv1 <- data
I0318 12:14:47.589398  2523 net.cpp:424] conv1 -> conv1
I0318 12:14:47.590683  2523 net.cpp:166] Setting up conv1
I0318 12:14:47.590697  2523 net.cpp:173] Top shape: 100 36 13 13 (608400)
I0318 12:14:47.590699  2523 net.cpp:181] Memory required for data: 3061200
I0318 12:14:47.590708  2523 layer_factory.hpp:77] Creating layer bn1
I0318 12:14:47.590715  2523 net.cpp:116] Creating Layer bn1
I0318 12:14:47.590718  2523 net.cpp:450] bn1 <- conv1
I0318 12:14:47.590723  2523 net.cpp:424] bn1 -> bn1
I0318 12:14:47.590890  2523 net.cpp:166] Setting up bn1
I0318 12:14:47.590899  2523 net.cpp:173] Top shape: 100 36 13 13 (608400)
I0318 12:14:47.590911  2523 net.cpp:181] Memory required for data: 5494800
I0318 12:14:47.590920  2523 layer_factory.hpp:77] Creating layer bn1_bn1_0_split
I0318 12:14:47.590926  2523 net.cpp:116] Creating Layer bn1_bn1_0_split
I0318 12:14:47.590929  2523 net.cpp:450] bn1_bn1_0_split <- bn1
I0318 12:14:47.590934  2523 net.cpp:424] bn1_bn1_0_split -> bn1_bn1_0_split_0
I0318 12:14:47.590939  2523 net.cpp:424] bn1_bn1_0_split -> bn1_bn1_0_split_1
I0318 12:14:47.590981  2523 net.cpp:166] Setting up bn1_bn1_0_split
I0318 12:14:47.590988  2523 net.cpp:173] Top shape: 100 36 13 13 (608400)
I0318 12:14:47.590991  2523 net.cpp:173] Top shape: 100 36 13 13 (608400)
I0318 12:14:47.590993  2523 net.cpp:181] Memory required for data: 10362000
I0318 12:14:47.590996  2523 layer_factory.hpp:77] Creating layer conv1_inv
I0318 12:14:47.591001  2523 net.cpp:116] Creating Layer conv1_inv
I0318 12:14:47.591002  2523 net.cpp:450] conv1_inv <- bn1_bn1_0_split_0
I0318 12:14:47.591007  2523 net.cpp:424] conv1_inv -> conv1_inv
I0318 12:14:47.591025  2523 net.cpp:166] Setting up conv1_inv
I0318 12:14:47.591030  2523 net.cpp:173] Top shape: 100 36 13 13 (608400)
I0318 12:14:47.591032  2523 net.cpp:181] Memory required for data: 12795600
I0318 12:14:47.591034  2523 layer_factory.hpp:77] Creating layer conv1_inv_prelu
I0318 12:14:47.591040  2523 net.cpp:116] Creating Layer conv1_inv_prelu
I0318 12:14:47.591043  2523 net.cpp:450] conv1_inv_prelu <- conv1_inv
I0318 12:14:47.591048  2523 net.cpp:411] conv1_inv_prelu -> conv1_inv (in-place)
I0318 12:14:47.591143  2523 net.cpp:166] Setting up conv1_inv_prelu
I0318 12:14:47.591151  2523 net.cpp:173] Top shape: 100 36 13 13 (608400)
I0318 12:14:47.591154  2523 net.cpp:181] Memory required for data: 15229200
I0318 12:14:47.591158  2523 layer_factory.hpp:77] Creating layer prelu1
I0318 12:14:47.591164  2523 net.cpp:116] Creating Layer prelu1
I0318 12:14:47.591167  2523 net.cpp:450] prelu1 <- bn1_bn1_0_split_1
I0318 12:14:47.591171  2523 net.cpp:424] prelu1 -> conv1_pos
I0318 12:14:47.591411  2523 net.cpp:166] Setting up prelu1
I0318 12:14:47.591436  2523 net.cpp:173] Top shape: 100 36 13 13 (608400)
I0318 12:14:47.591439  2523 net.cpp:181] Memory required for data: 17662800
I0318 12:14:47.591442  2523 layer_factory.hpp:77] Creating layer conv2
I0318 12:14:47.591451  2523 net.cpp:116] Creating Layer conv2
I0318 12:14:47.591454  2523 net.cpp:450] conv2 <- conv1_pos
I0318 12:14:47.591459  2523 net.cpp:424] conv2 -> conv2
I0318 12:14:47.592685  2523 net.cpp:166] Setting up conv2
I0318 12:14:47.592697  2523 net.cpp:173] Top shape: 100 128 6 6 (460800)
I0318 12:14:47.592700  2523 net.cpp:181] Memory required for data: 19506000
I0318 12:14:47.592706  2523 layer_factory.hpp:77] Creating layer conv2_inv
I0318 12:14:47.592722  2523 net.cpp:116] Creating Layer conv2_inv
I0318 12:14:47.592726  2523 net.cpp:450] conv2_inv <- conv1_inv
I0318 12:14:47.592731  2523 net.cpp:424] conv2_inv -> conv2_inv
I0318 12:14:47.593873  2523 net.cpp:166] Setting up conv2_inv
I0318 12:14:47.593886  2523 net.cpp:173] Top shape: 100 128 6 6 (460800)
I0318 12:14:47.593888  2523 net.cpp:181] Memory required for data: 21349200
I0318 12:14:47.593896  2523 layer_factory.hpp:77] Creating layer block_output
I0318 12:14:47.593904  2523 net.cpp:116] Creating Layer block_output
I0318 12:14:47.593906  2523 net.cpp:450] block_output <- conv2
I0318 12:14:47.593910  2523 net.cpp:450] block_output <- conv2_inv
I0318 12:14:47.593914  2523 net.cpp:424] block_output -> block_output
I0318 12:14:47.593938  2523 net.cpp:166] Setting up block_output
I0318 12:14:47.593945  2523 net.cpp:173] Top shape: 100 256 6 6 (921600)
I0318 12:14:47.593947  2523 net.cpp:181] Memory required for data: 25035600
I0318 12:14:47.593950  2523 layer_factory.hpp:77] Creating layer block_output_prelu
I0318 12:14:47.593955  2523 net.cpp:116] Creating Layer block_output_prelu
I0318 12:14:47.593956  2523 net.cpp:450] block_output_prelu <- block_output
I0318 12:14:47.593961  2523 net.cpp:411] block_output_prelu -> block_output (in-place)
I0318 12:14:47.594044  2523 net.cpp:166] Setting up block_output_prelu
I0318 12:14:47.594059  2523 net.cpp:173] Top shape: 100 256 6 6 (921600)
I0318 12:14:47.594063  2523 net.cpp:181] Memory required for data: 28722000
I0318 12:14:47.594066  2523 layer_factory.hpp:77] Creating layer fc_10
I0318 12:14:47.594079  2523 net.cpp:116] Creating Layer fc_10
I0318 12:14:47.594082  2523 net.cpp:450] fc_10 <- block_output
I0318 12:14:47.594097  2523 net.cpp:424] fc_10 -> fc_10
I0318 12:14:47.596284  2523 net.cpp:166] Setting up fc_10
I0318 12:14:47.596293  2523 net.cpp:173] Top shape: 100 10 (1000)
I0318 12:14:47.596297  2523 net.cpp:181] Memory required for data: 28726000
I0318 12:14:47.596302  2523 layer_factory.hpp:77] Creating layer accuracy
I0318 12:14:47.596307  2523 net.cpp:116] Creating Layer accuracy
I0318 12:14:47.596309  2523 net.cpp:450] accuracy <- fc_10
I0318 12:14:47.596312  2523 net.cpp:450] accuracy <- label
I0318 12:14:47.596316  2523 net.cpp:424] accuracy -> accuracy
…
