…
I0318 10:38:14.337754  2153 net.cpp:338] The NetState phase (0) differed from the phase (1) specified by a rule in layer data
I0318 10:38:14.337770  2153 net.cpp:338] The NetState phase (0) differed from the phase (1) specified by a rule in layer accuracy
I0318 10:38:14.337905  2153 net.cpp:74] Initializing net from parameters: 
name: "MNIST_NET"
state {
  phase: TRAIN
  level: 0
  stage: ""
}
layer {
  name: "data"
  type: "ImageData"
  top: "data"
  top: "label"
  include {
    phase: TRAIN
  }
  image_data_param {
    source: "train.txt"
    batch_size: 300
    crop_size: 27
    shuffle: true
    is_color: false
  }
}
layer {
  name: "data_scaling"
  type: "Power"
  bottom: "data"
  top: "data"
  power_param {
    power: 1
    scale: 0.0078125
    shift: -1
  }
}
layer {
  name: "data_drop"
  type: "Dropout"
  bottom: "data"
  top: "data"
  include {
    phase: TRAIN
  }
  dropout_param {
    dropout_ratio: 0.01
  }
}
layer {
  name: "data_vision"
  type: "VisionTransformation"
  bottom: "data"
  top: "data"
  include {
    phase: TRAIN
  }
  vision_transformation_param {
    noise_mean: 0
    noise_std: 0
    noise_std_small: 0
    rotate_min_angle: -20
    rotate_max_angle: 20
    rotate_fill_value: 0
    per_pixel_multiplier_mean: 1
    per_pixel_multiplier_std: 0
    rescale_probability: 0.25
    constant_multiplier_mean: 1
    constant_multiplier_std: 0
    scale_mean: 1
    scale_std: 0.1
    constant_multiplier_color_mean: 0
    constant_multiplier_color_std: 0
    value_cap_min: 0
    value_cap_max: 0
    passthrough_probability: 0.5
  }
}
layer {
  name: "conv1"
  type: "Convolution"
  bottom: "data"
  top: "conv1"
  param {
    lr_mult: 1
    decay_mult: 1
  }
  param {
    lr_mult: 2
    decay_mult: 0
  }
  convolution_param {
    num_output: 36
    kernel_size: 3
    stride: 2
    weight_filler {
      type: "xavier"
    }
  }
}
layer {
  name: "conv1_inv"
  type: "Power"
  bottom: "conv1"
  top: "conv1_inv"
  power_param {
    power: 1
    scale: -1
    shift: 0
  }
}
layer {
  name: "conv1_inv_relu"
  type: "ReLU"
  bottom: "conv1_inv"
  top: "conv1_inv"
}
layer {
  name: "relu1"
  type: "ReLU"
  bottom: "conv1"
  top: "conv1_pos"
}
layer {
  name: "conv2"
  type: "Convolution"
  bottom: "conv1_pos"
  top: "conv2"
  param {
    name: "conv2_w"
    lr_mult: 1
    decay_mult: 1
  }
  param {
    name: "conv2_b"
    lr_mult: 2
    decay_mult: 0
  }
  convolution_param {
    num_output: 128
    kernel_size: 3
    stride: 2
    weight_filler {
      type: "xavier"
    }
  }
}
layer {
  name: "conv2_inv"
  type: "Convolution"
  bottom: "conv1_inv"
  top: "conv2_inv"
  param {
    name: "conv2_inv_w"
    lr_mult: 1
    decay_mult: 1
  }
  param {
    name: "conv2_inv_b"
    lr_mult: 2
    decay_mult: 0
  }
  convolution_param {
    num_output: 128
    kernel_size: 3
    stride: 2
    weight_filler {
      type: "xavier"
    }
  }
}
layer {
  name: "block_output"
  type: "Concat"
  bottom: "conv2"
  bottom: "conv2_inv"
  top: "block_output"
}
layer {
  name: "block_output_prelu"
  type: "PReLU"
  bottom: "block_output"
  top: "block_output"
  prelu_param {
    filler {
      type: "constant"
      value: 0.01
    }
  }
}
layer {
  name: "fc_10"
  type: "InnerProduct"
  bottom: "block_output"
  top: "fc_10"
  param {
    lr_mult: 5
    decay_mult: 1
  }
  param {
    lr_mult: 10
    decay_mult: 0
  }
  inner_product_param {
    num_output: 10
    weight_filler {
      type: "gaussian"
      std: 0.01
    }
    bias_filler {
      type: "constant"
      value: 0
    }
  }
}
layer {
  name: "loss"
  type: "SoftmaxWithLoss"
  bottom: "fc_10"
  bottom: "label"
  top: "loss"
  include {
    phase: TRAIN
  }
}
I0318 10:38:14.338003  2153 layer_factory.hpp:77] Creating layer data
I0318 10:38:14.338030  2153 net.cpp:116] Creating Layer data
I0318 10:38:14.338037  2153 net.cpp:424] data -> data
I0318 10:38:14.338053  2153 net.cpp:424] data -> label
I0318 10:38:14.338064  2153 image_data_layer.cpp:38] Opening file train.txt
I0318 10:38:14.350391  2153 image_data_layer.cpp:53] Shuffling data
I0318 10:38:14.354511  2153 image_data_layer.cpp:58] A total of 60000 images.
I0318 10:38:14.364801  2153 image_data_layer.cpp:85] output data size: 300,1,28,28
I0318 10:38:14.367216  2153 net.cpp:166] Setting up data
I0318 10:38:14.367234  2153 net.cpp:173] Top shape: 300 1 28 28 (235200)
I0318 10:38:14.367238  2153 net.cpp:173] Top shape: 300 (300)
I0318 10:38:14.367241  2153 net.cpp:181] Memory required for data: 942000
I0318 10:38:14.367247  2153 layer_factory.hpp:77] Creating layer data_scaling
I0318 10:38:14.367259  2153 net.cpp:116] Creating Layer data_scaling
I0318 10:38:14.367264  2153 net.cpp:450] data_scaling <- data
I0318 10:38:14.367274  2153 net.cpp:411] data_scaling -> data (in-place)
I0318 10:38:14.367283  2153 net.cpp:166] Setting up data_scaling
I0318 10:38:14.367286  2153 net.cpp:173] Top shape: 300 1 28 28 (235200)
I0318 10:38:14.367288  2153 net.cpp:181] Memory required for data: 1882800
I0318 10:38:14.367291  2153 layer_factory.hpp:77] Creating layer data_drop
I0318 10:38:14.367298  2153 net.cpp:116] Creating Layer data_drop
I0318 10:38:14.367300  2153 net.cpp:450] data_drop <- data
I0318 10:38:14.367305  2153 net.cpp:411] data_drop -> data (in-place)
I0318 10:38:14.367382  2153 net.cpp:166] Setting up data_drop
I0318 10:38:14.367389  2153 net.cpp:173] Top shape: 300 1 28 28 (235200)
I0318 10:38:14.367391  2153 net.cpp:181] Memory required for data: 2823600
I0318 10:38:14.367393  2153 layer_factory.hpp:77] Creating layer data_vision
I0318 10:38:14.367399  2153 net.cpp:116] Creating Layer data_vision
I0318 10:38:14.367403  2153 net.cpp:450] data_vision <- data
I0318 10:38:14.367406  2153 net.cpp:411] data_vision -> data (in-place)
I0318 10:38:14.367413  2153 net.cpp:166] Setting up data_vision
I0318 10:38:14.367416  2153 net.cpp:173] Top shape: 300 1 28 28 (235200)
I0318 10:38:14.367419  2153 net.cpp:181] Memory required for data: 3764400
I0318 10:38:14.367420  2153 layer_factory.hpp:77] Creating layer conv1
I0318 10:38:14.367432  2153 net.cpp:116] Creating Layer conv1
I0318 10:38:14.367435  2153 net.cpp:450] conv1 <- data
I0318 10:38:14.367439  2153 net.cpp:424] conv1 -> conv1
I0318 10:38:14.540706  2153 net.cpp:166] Setting up conv1
I0318 10:38:14.540735  2153 net.cpp:173] Top shape: 300 36 13 13 (1825200)
I0318 10:38:14.540737  2153 net.cpp:181] Memory required for data: 11065200
I0318 10:38:14.540751  2153 layer_factory.hpp:77] Creating layer conv1_conv1_0_split
I0318 10:38:14.540765  2153 net.cpp:116] Creating Layer conv1_conv1_0_split
I0318 10:38:14.540767  2153 net.cpp:450] conv1_conv1_0_split <- conv1
I0318 10:38:14.540772  2153 net.cpp:424] conv1_conv1_0_split -> conv1_conv1_0_split_0
I0318 10:38:14.540781  2153 net.cpp:424] conv1_conv1_0_split -> conv1_conv1_0_split_1
I0318 10:38:14.540815  2153 net.cpp:166] Setting up conv1_conv1_0_split
I0318 10:38:14.540819  2153 net.cpp:173] Top shape: 300 36 13 13 (1825200)
I0318 10:38:14.540823  2153 net.cpp:173] Top shape: 300 36 13 13 (1825200)
I0318 10:38:14.540825  2153 net.cpp:181] Memory required for data: 25666800
I0318 10:38:14.540827  2153 layer_factory.hpp:77] Creating layer conv1_inv
I0318 10:38:14.540833  2153 net.cpp:116] Creating Layer conv1_inv
I0318 10:38:14.540835  2153 net.cpp:450] conv1_inv <- conv1_conv1_0_split_0
I0318 10:38:14.540839  2153 net.cpp:424] conv1_inv -> conv1_inv
I0318 10:38:14.540858  2153 net.cpp:166] Setting up conv1_inv
I0318 10:38:14.540861  2153 net.cpp:173] Top shape: 300 36 13 13 (1825200)
I0318 10:38:14.540864  2153 net.cpp:181] Memory required for data: 32967600
I0318 10:38:14.540880  2153 layer_factory.hpp:77] Creating layer conv1_inv_relu
I0318 10:38:14.540885  2153 net.cpp:116] Creating Layer conv1_inv_relu
I0318 10:38:14.540887  2153 net.cpp:450] conv1_inv_relu <- conv1_inv
I0318 10:38:14.540891  2153 net.cpp:411] conv1_inv_relu -> conv1_inv (in-place)
I0318 10:38:14.541174  2153 net.cpp:166] Setting up conv1_inv_relu
I0318 10:38:14.541187  2153 net.cpp:173] Top shape: 300 36 13 13 (1825200)
I0318 10:38:14.541188  2153 net.cpp:181] Memory required for data: 40268400
I0318 10:38:14.541191  2153 layer_factory.hpp:77] Creating layer relu1
I0318 10:38:14.541198  2153 net.cpp:116] Creating Layer relu1
I0318 10:38:14.541203  2153 net.cpp:450] relu1 <- conv1_conv1_0_split_1
I0318 10:38:14.541206  2153 net.cpp:424] relu1 -> conv1_pos
I0318 10:38:14.541358  2153 net.cpp:166] Setting up relu1
I0318 10:38:14.541368  2153 net.cpp:173] Top shape: 300 36 13 13 (1825200)
I0318 10:38:14.541370  2153 net.cpp:181] Memory required for data: 47569200
I0318 10:38:14.541373  2153 layer_factory.hpp:77] Creating layer conv2
I0318 10:38:14.541383  2153 net.cpp:116] Creating Layer conv2
I0318 10:38:14.541386  2153 net.cpp:450] conv2 <- conv1_pos
I0318 10:38:14.541393  2153 net.cpp:424] conv2 -> conv2
I0318 10:38:14.542945  2153 net.cpp:166] Setting up conv2
I0318 10:38:14.542963  2153 net.cpp:173] Top shape: 300 128 6 6 (1382400)
I0318 10:38:14.542966  2153 net.cpp:181] Memory required for data: 53098800
I0318 10:38:14.542973  2153 layer_factory.hpp:77] Creating layer conv2_inv
I0318 10:38:14.542984  2153 net.cpp:116] Creating Layer conv2_inv
I0318 10:38:14.542986  2153 net.cpp:450] conv2_inv <- conv1_inv
I0318 10:38:14.542992  2153 net.cpp:424] conv2_inv -> conv2_inv
I0318 10:38:14.544057  2153 net.cpp:166] Setting up conv2_inv
I0318 10:38:14.544070  2153 net.cpp:173] Top shape: 300 128 6 6 (1382400)
I0318 10:38:14.544072  2153 net.cpp:181] Memory required for data: 58628400
I0318 10:38:14.544080  2153 layer_factory.hpp:77] Creating layer block_output
I0318 10:38:14.544085  2153 net.cpp:116] Creating Layer block_output
I0318 10:38:14.544090  2153 net.cpp:450] block_output <- conv2
I0318 10:38:14.544092  2153 net.cpp:450] block_output <- conv2_inv
I0318 10:38:14.544095  2153 net.cpp:424] block_output -> block_output
I0318 10:38:14.544121  2153 net.cpp:166] Setting up block_output
I0318 10:38:14.544126  2153 net.cpp:173] Top shape: 300 256 6 6 (2764800)
I0318 10:38:14.544128  2153 net.cpp:181] Memory required for data: 69687600
I0318 10:38:14.544131  2153 layer_factory.hpp:77] Creating layer block_output_prelu
I0318 10:38:14.544139  2153 net.cpp:116] Creating Layer block_output_prelu
I0318 10:38:14.544142  2153 net.cpp:450] block_output_prelu <- block_output
I0318 10:38:14.544145  2153 net.cpp:411] block_output_prelu -> block_output (in-place)
I0318 10:38:14.544591  2153 net.cpp:166] Setting up block_output_prelu
I0318 10:38:14.544601  2153 net.cpp:173] Top shape: 300 256 6 6 (2764800)
I0318 10:38:14.544605  2153 net.cpp:181] Memory required for data: 80746800
I0318 10:38:14.544608  2153 layer_factory.hpp:77] Creating layer fc_10
I0318 10:38:14.544616  2153 net.cpp:116] Creating Layer fc_10
I0318 10:38:14.544618  2153 net.cpp:450] fc_10 <- block_output
I0318 10:38:14.544623  2153 net.cpp:424] fc_10 -> fc_10
I0318 10:38:14.547137  2153 net.cpp:166] Setting up fc_10
I0318 10:38:14.547148  2153 net.cpp:173] Top shape: 300 10 (3000)
I0318 10:38:14.547150  2153 net.cpp:181] Memory required for data: 80758800
I0318 10:38:14.547158  2153 layer_factory.hpp:77] Creating layer loss
I0318 10:38:14.547165  2153 net.cpp:116] Creating Layer loss
I0318 10:38:14.547168  2153 net.cpp:450] loss <- fc_10
I0318 10:38:14.547171  2153 net.cpp:450] loss <- label
I0318 10:38:14.547176  2153 net.cpp:424] loss -> loss
I0318 10:38:14.547184  2153 layer_factory.hpp:77] Creating layer loss
…
I0318 10:38:14.548377  2153 net.cpp:338] The NetState phase (1) differed from the phase (0) specified by a rule in layer data_vision
I0318 10:38:14.548382  2153 net.cpp:338] The NetState phase (1) differed from the phase (0) specified by a rule in layer loss
I0318 10:38:14.548496  2153 net.cpp:74] Initializing net from parameters: 
name: "MNIST_NET"
state {
  phase: TEST
}
layer {
  name: "data"
  type: "ImageData"
  top: "data"
  top: "label"
  include {
    phase: TEST
  }
  image_data_param {
    source: "test.txt"
    batch_size: 100
    crop_size: 27
    shuffle: true
    is_color: false
  }
}
layer {
  name: "data_scaling"
  type: "Power"
  bottom: "data"
  top: "data"
  power_param {
    power: 1
    scale: 0.0078125
    shift: -1
  }
}
layer {
  name: "conv1"
  type: "Convolution"
  bottom: "data"
  top: "conv1"
  param {
    lr_mult: 1
    decay_mult: 1
  }
  param {
    lr_mult: 2
    decay_mult: 0
  }
  convolution_param {
    num_output: 36
    kernel_size: 3
    stride: 2
    weight_filler {
      type: "xavier"
    }
  }
}
layer {
  name: "conv1_inv"
  type: "Power"
  bottom: "conv1"
  top: "conv1_inv"
  power_param {
    power: 1
    scale: -1
    shift: 0
  }
}
layer {
  name: "conv1_inv_relu"
  type: "ReLU"
  bottom: "conv1_inv"
  top: "conv1_inv"
}
layer {
  name: "relu1"
  type: "ReLU"
  bottom: "conv1"
  top: "conv1_pos"
}
layer {
  name: "conv2"
  type: "Convolution"
  bottom: "conv1_pos"
  top: "conv2"
  param {
    name: "conv2_w"
    lr_mult: 1
    decay_mult: 1
  }
  param {
    name: "conv2_b"
    lr_mult: 2
    decay_mult: 0
  }
  convolution_param {
    num_output: 128
    kernel_size: 3
    stride: 2
    weight_filler {
      type: "xavier"
    }
  }
}
layer {
  name: "conv2_inv"
  type: "Convolution"
  bottom: "conv1_inv"
  top: "conv2_inv"
  param {
    name: "conv2_inv_w"
    lr_mult: 1
    decay_mult: 1
  }
  param {
    name: "conv2_inv_b"
    lr_mult: 2
    decay_mult: 0
  }
  convolution_param {
    num_output: 128
    kernel_size: 3
    stride: 2
    weight_filler {
      type: "xavier"
    }
  }
}
layer {
  name: "block_output"
  type: "Concat"
  bottom: "conv2"
  bottom: "conv2_inv"
  top: "block_output"
}
layer {
  name: "block_output_prelu"
  type: "PReLU"
  bottom: "block_output"
  top: "block_output"
  prelu_param {
    filler {
      type: "constant"
      value: 0.01
    }
  }
}
layer {
  name: "fc_10"
  type: "InnerProduct"
  bottom: "block_output"
  top: "fc_10"
  param {
    lr_mult: 5
    decay_mult: 1
  }
  param {
    lr_mult: 10
    decay_mult: 0
  }
  inner_product_param {
    num_output: 10
    weight_filler {
      type: "gaussian"
      std: 0.01
    }
    bias_filler {
      type: "constant"
      value: 0
    }
  }
}
layer {
  name: "accuracy"
  type: "Accuracy"
  bottom: "fc_10"
  bottom: "label"
  top: "accuracy"
  include {
    phase: TEST
  }
}
I0318 10:38:14.548557  2153 layer_factory.hpp:77] Creating layer data
I0318 10:38:14.548568  2153 net.cpp:116] Creating Layer data
I0318 10:38:14.548573  2153 net.cpp:424] data -> data
I0318 10:38:14.548578  2153 net.cpp:424] data -> label
I0318 10:38:14.548584  2153 image_data_layer.cpp:38] Opening file test.txt
I0318 10:38:14.550727  2153 image_data_layer.cpp:53] Shuffling data
I0318 10:38:14.551309  2153 image_data_layer.cpp:58] A total of 10000 images.
I0318 10:38:14.551443  2153 image_data_layer.cpp:85] output data size: 100,1,28,28
I0318 10:38:14.552291  2153 net.cpp:166] Setting up data
I0318 10:38:14.552302  2153 net.cpp:173] Top shape: 100 1 28 28 (78400)
I0318 10:38:14.552306  2153 net.cpp:173] Top shape: 100 (100)
I0318 10:38:14.552309  2153 net.cpp:181] Memory required for data: 314000
I0318 10:38:14.552311  2153 layer_factory.hpp:77] Creating layer data_scaling
I0318 10:38:14.552317  2153 net.cpp:116] Creating Layer data_scaling
I0318 10:38:14.552320  2153 net.cpp:450] data_scaling <- data
I0318 10:38:14.552325  2153 net.cpp:411] data_scaling -> data (in-place)
I0318 10:38:14.552330  2153 net.cpp:166] Setting up data_scaling
I0318 10:38:14.552332  2153 net.cpp:173] Top shape: 100 1 28 28 (78400)
I0318 10:38:14.552335  2153 net.cpp:181] Memory required for data: 627600
I0318 10:38:14.552336  2153 layer_factory.hpp:77] Creating layer conv1
I0318 10:38:14.552342  2153 net.cpp:116] Creating Layer conv1
I0318 10:38:14.552345  2153 net.cpp:450] conv1 <- data
I0318 10:38:14.552348  2153 net.cpp:424] conv1 -> conv1
I0318 10:38:14.553457  2153 net.cpp:166] Setting up conv1
I0318 10:38:14.553469  2153 net.cpp:173] Top shape: 100 36 13 13 (608400)
I0318 10:38:14.553472  2153 net.cpp:181] Memory required for data: 3061200
I0318 10:38:14.553479  2153 layer_factory.hpp:77] Creating layer conv1_conv1_0_split
I0318 10:38:14.553486  2153 net.cpp:116] Creating Layer conv1_conv1_0_split
I0318 10:38:14.553489  2153 net.cpp:450] conv1_conv1_0_split <- conv1
I0318 10:38:14.553493  2153 net.cpp:424] conv1_conv1_0_split -> conv1_conv1_0_split_0
I0318 10:38:14.553498  2153 net.cpp:424] conv1_conv1_0_split -> conv1_conv1_0_split_1
I0318 10:38:14.553532  2153 net.cpp:166] Setting up conv1_conv1_0_split
I0318 10:38:14.553537  2153 net.cpp:173] Top shape: 100 36 13 13 (608400)
I0318 10:38:14.553540  2153 net.cpp:173] Top shape: 100 36 13 13 (608400)
I0318 10:38:14.553542  2153 net.cpp:181] Memory required for data: 7928400
I0318 10:38:14.553544  2153 layer_factory.hpp:77] Creating layer conv1_inv
I0318 10:38:14.553550  2153 net.cpp:116] Creating Layer conv1_inv
I0318 10:38:14.553551  2153 net.cpp:450] conv1_inv <- conv1_conv1_0_split_0
I0318 10:38:14.553555  2153 net.cpp:424] conv1_inv -> conv1_inv
I0318 10:38:14.553573  2153 net.cpp:166] Setting up conv1_inv
I0318 10:38:14.553578  2153 net.cpp:173] Top shape: 100 36 13 13 (608400)
I0318 10:38:14.553580  2153 net.cpp:181] Memory required for data: 10362000
I0318 10:38:14.553582  2153 layer_factory.hpp:77] Creating layer conv1_inv_relu
I0318 10:38:14.553586  2153 net.cpp:116] Creating Layer conv1_inv_relu
I0318 10:38:14.553588  2153 net.cpp:450] conv1_inv_relu <- conv1_inv
I0318 10:38:14.553591  2153 net.cpp:411] conv1_inv_relu -> conv1_inv (in-place)
I0318 10:38:14.553958  2153 net.cpp:166] Setting up conv1_inv_relu
I0318 10:38:14.553969  2153 net.cpp:173] Top shape: 100 36 13 13 (608400)
I0318 10:38:14.553972  2153 net.cpp:181] Memory required for data: 12795600
I0318 10:38:14.553974  2153 layer_factory.hpp:77] Creating layer relu1
I0318 10:38:14.553990  2153 net.cpp:116] Creating Layer relu1
I0318 10:38:14.554003  2153 net.cpp:450] relu1 <- conv1_conv1_0_split_1
I0318 10:38:14.554008  2153 net.cpp:424] relu1 -> conv1_pos
I0318 10:38:14.554267  2153 net.cpp:166] Setting up relu1
I0318 10:38:14.554276  2153 net.cpp:173] Top shape: 100 36 13 13 (608400)
I0318 10:38:14.554280  2153 net.cpp:181] Memory required for data: 15229200
I0318 10:38:14.554281  2153 layer_factory.hpp:77] Creating layer conv2
I0318 10:38:14.554296  2153 net.cpp:116] Creating Layer conv2
I0318 10:38:14.554299  2153 net.cpp:450] conv2 <- conv1_pos
I0318 10:38:14.554306  2153 net.cpp:424] conv2 -> conv2
I0318 10:38:14.555461  2153 net.cpp:166] Setting up conv2
I0318 10:38:14.555474  2153 net.cpp:173] Top shape: 100 128 6 6 (460800)
I0318 10:38:14.555475  2153 net.cpp:181] Memory required for data: 17072400
I0318 10:38:14.555482  2153 layer_factory.hpp:77] Creating layer conv2_inv
I0318 10:38:14.555512  2153 net.cpp:116] Creating Layer conv2_inv
I0318 10:38:14.555517  2153 net.cpp:450] conv2_inv <- conv1_inv
I0318 10:38:14.555522  2153 net.cpp:424] conv2_inv -> conv2_inv
I0318 10:38:14.556674  2153 net.cpp:166] Setting up conv2_inv
I0318 10:38:14.556686  2153 net.cpp:173] Top shape: 100 128 6 6 (460800)
I0318 10:38:14.556689  2153 net.cpp:181] Memory required for data: 18915600
I0318 10:38:14.556696  2153 layer_factory.hpp:77] Creating layer block_output
I0318 10:38:14.556707  2153 net.cpp:116] Creating Layer block_output
I0318 10:38:14.556710  2153 net.cpp:450] block_output <- conv2
I0318 10:38:14.556713  2153 net.cpp:450] block_output <- conv2_inv
I0318 10:38:14.556716  2153 net.cpp:424] block_output -> block_output
I0318 10:38:14.556742  2153 net.cpp:166] Setting up block_output
I0318 10:38:14.556747  2153 net.cpp:173] Top shape: 100 256 6 6 (921600)
I0318 10:38:14.556749  2153 net.cpp:181] Memory required for data: 22602000
I0318 10:38:14.556752  2153 layer_factory.hpp:77] Creating layer block_output_prelu
I0318 10:38:14.556757  2153 net.cpp:116] Creating Layer block_output_prelu
I0318 10:38:14.556759  2153 net.cpp:450] block_output_prelu <- block_output
I0318 10:38:14.556764  2153 net.cpp:411] block_output_prelu -> block_output (in-place)
I0318 10:38:14.556855  2153 net.cpp:166] Setting up block_output_prelu
I0318 10:38:14.556864  2153 net.cpp:173] Top shape: 100 256 6 6 (921600)
I0318 10:38:14.556866  2153 net.cpp:181] Memory required for data: 26288400
I0318 10:38:14.556870  2153 layer_factory.hpp:77] Creating layer fc_10
I0318 10:38:14.556876  2153 net.cpp:116] Creating Layer fc_10
I0318 10:38:14.556879  2153 net.cpp:450] fc_10 <- block_output
I0318 10:38:14.556885  2153 net.cpp:424] fc_10 -> fc_10
I0318 10:38:14.559068  2153 net.cpp:166] Setting up fc_10
I0318 10:38:14.559077  2153 net.cpp:173] Top shape: 100 10 (1000)
I0318 10:38:14.559080  2153 net.cpp:181] Memory required for data: 26292400
I0318 10:38:14.559087  2153 layer_factory.hpp:77] Creating layer accuracy
I0318 10:38:14.559092  2153 net.cpp:116] Creating Layer accuracy
I0318 10:38:14.559094  2153 net.cpp:450] accuracy <- fc_10
I0318 10:38:14.559098  2153 net.cpp:450] accuracy <- label
I0318 10:38:14.559103  2153 net.cpp:424] accuracy -> accuracy
…
