…
I0318 11:01:36.166792  2230 net.cpp:338] The NetState phase (0) differed from the phase (1) specified by a rule in layer data
I0318 11:01:36.166811  2230 net.cpp:338] The NetState phase (0) differed from the phase (1) specified by a rule in layer accuracy
I0318 11:01:36.166963  2230 net.cpp:74] Initializing net from parameters: 
name: "MNIST_NET"
state {
  phase: TRAIN
  level: 0
  stage: ""
}
layer {
  name: "data"
  type: "ImageData"
  top: "data"
  top: "label"
  include {
    phase: TRAIN
  }
  image_data_param {
    source: "train.txt"
    batch_size: 300
    crop_size: 27
    shuffle: true
    is_color: false
  }
}
layer {
  name: "data_scaling"
  type: "Power"
  bottom: "data"
  top: "data"
  power_param {
    power: 1
    scale: 0.0078125
    shift: -1
  }
}
layer {
  name: "data_drop"
  type: "Dropout"
  bottom: "data"
  top: "data"
  include {
    phase: TRAIN
  }
  dropout_param {
    dropout_ratio: 0.01
  }
}
layer {
  name: "data_vision"
  type: "VisionTransformation"
  bottom: "data"
  top: "data"
  include {
    phase: TRAIN
  }
  vision_transformation_param {
    noise_mean: 0
    noise_std: 0
    noise_std_small: 0
    rotate_min_angle: -20
    rotate_max_angle: 20
    rotate_fill_value: 0
    per_pixel_multiplier_mean: 1
    per_pixel_multiplier_std: 0
    rescale_probability: 0.25
    constant_multiplier_mean: 1
    constant_multiplier_std: 0
    scale_mean: 1
    scale_std: 0.1
    constant_multiplier_color_mean: 0
    constant_multiplier_color_std: 0
    value_cap_min: 0
    value_cap_max: 0
    passthrough_probability: 0.5
  }
}
layer {
  name: "conv1"
  type: "Convolution"
  bottom: "data"
  top: "conv1"
  param {
    lr_mult: 1
    decay_mult: 1
  }
  param {
    lr_mult: 2
    decay_mult: 0
  }
  convolution_param {
    num_output: 36
    kernel_size: 3
    stride: 2
    weight_filler {
      type: "xavier"
    }
  }
}
layer {
  name: "conv1_inv"
  type: "Power"
  bottom: "conv1"
  top: "conv1_inv"
  power_param {
    power: 1
    scale: -1
    shift: 0
  }
}
layer {
  name: "conv1_inv_relu"
  type: "ReLU"
  bottom: "conv1_inv"
  top: "conv1_inv"
}
layer {
  name: "relu1"
  type: "ReLU"
  bottom: "conv1"
  top: "conv1_pos"
}
layer {
  name: "conv2"
  type: "Convolution"
  bottom: "conv1_pos"
  top: "conv2"
  param {
    name: "conv2_w"
    lr_mult: 1
    decay_mult: 1
  }
  param {
    name: "conv2_b"
    lr_mult: 2
    decay_mult: 0
  }
  convolution_param {
    num_output: 128
    kernel_size: 3
    stride: 2
    weight_filler {
      type: "xavier"
    }
  }
}
layer {
  name: "conv2_inv"
  type: "Convolution"
  bottom: "conv1_inv"
  top: "conv2_inv"
  param {
    name: "conv2_inv_w"
    lr_mult: 1
    decay_mult: 1
  }
  param {
    name: "conv2_inv_b"
    lr_mult: 2
    decay_mult: 0
  }
  convolution_param {
    num_output: 128
    kernel_size: 3
    stride: 2
    weight_filler {
      type: "xavier"
    }
  }
}
layer {
  name: "block_output_maxout"
  type: "Eltwise"
  bottom: "conv2"
  bottom: "conv2_inv"
  top: "block_output_maxout"
  eltwise_param {
    operation: MAX
  }
}
layer {
  name: "block_output_prelu"
  type: "PReLU"
  bottom: "block_output_maxout"
  top: "block_output"
  prelu_param {
    filler {
      type: "constant"
      value: 0.01
    }
  }
}
layer {
  name: "fc_10"
  type: "InnerProduct"
  bottom: "block_output"
  top: "fc_10"
  param {
    lr_mult: 5
    decay_mult: 1
  }
  param {
    lr_mult: 10
    decay_mult: 0
  }
  inner_product_param {
    num_output: 10
    weight_filler {
      type: "gaussian"
      std: 0.01
    }
    bias_filler {
      type: "constant"
      value: 0
    }
  }
}
layer {
  name: "loss"
  type: "SoftmaxWithLoss"
  bottom: "fc_10"
  bottom: "label"
  top: "loss"
  include {
    phase: TRAIN
  }
}
I0318 11:01:36.167068  2230 layer_factory.hpp:77] Creating layer data
I0318 11:01:36.167095  2230 net.cpp:116] Creating Layer data
I0318 11:01:36.167101  2230 net.cpp:424] data -> data
I0318 11:01:36.167117  2230 net.cpp:424] data -> label
I0318 11:01:36.167131  2230 image_data_layer.cpp:38] Opening file train.txt
I0318 11:01:36.179551  2230 image_data_layer.cpp:53] Shuffling data
I0318 11:01:36.183723  2230 image_data_layer.cpp:58] A total of 60000 images.
I0318 11:01:36.194025  2230 image_data_layer.cpp:85] output data size: 300,1,28,28
I0318 11:01:36.196470  2230 net.cpp:166] Setting up data
I0318 11:01:36.196486  2230 net.cpp:173] Top shape: 300 1 28 28 (235200)
I0318 11:01:36.196491  2230 net.cpp:173] Top shape: 300 (300)
I0318 11:01:36.196493  2230 net.cpp:181] Memory required for data: 942000
I0318 11:01:36.196499  2230 layer_factory.hpp:77] Creating layer data_scaling
I0318 11:01:36.196512  2230 net.cpp:116] Creating Layer data_scaling
I0318 11:01:36.196516  2230 net.cpp:450] data_scaling <- data
I0318 11:01:36.196524  2230 net.cpp:411] data_scaling -> data (in-place)
I0318 11:01:36.196534  2230 net.cpp:166] Setting up data_scaling
I0318 11:01:36.196537  2230 net.cpp:173] Top shape: 300 1 28 28 (235200)
I0318 11:01:36.196539  2230 net.cpp:181] Memory required for data: 1882800
I0318 11:01:36.196542  2230 layer_factory.hpp:77] Creating layer data_drop
I0318 11:01:36.196548  2230 net.cpp:116] Creating Layer data_drop
I0318 11:01:36.196550  2230 net.cpp:450] data_drop <- data
I0318 11:01:36.196554  2230 net.cpp:411] data_drop -> data (in-place)
I0318 11:01:36.196630  2230 net.cpp:166] Setting up data_drop
I0318 11:01:36.196638  2230 net.cpp:173] Top shape: 300 1 28 28 (235200)
I0318 11:01:36.196640  2230 net.cpp:181] Memory required for data: 2823600
I0318 11:01:36.196643  2230 layer_factory.hpp:77] Creating layer data_vision
I0318 11:01:36.196651  2230 net.cpp:116] Creating Layer data_vision
I0318 11:01:36.196655  2230 net.cpp:450] data_vision <- data
I0318 11:01:36.196657  2230 net.cpp:411] data_vision -> data (in-place)
I0318 11:01:36.196665  2230 net.cpp:166] Setting up data_vision
I0318 11:01:36.196667  2230 net.cpp:173] Top shape: 300 1 28 28 (235200)
I0318 11:01:36.196669  2230 net.cpp:181] Memory required for data: 3764400
I0318 11:01:36.196672  2230 layer_factory.hpp:77] Creating layer conv1
I0318 11:01:36.196686  2230 net.cpp:116] Creating Layer conv1
I0318 11:01:36.196688  2230 net.cpp:450] conv1 <- data
I0318 11:01:36.196693  2230 net.cpp:424] conv1 -> conv1
I0318 11:01:36.370793  2230 net.cpp:166] Setting up conv1
I0318 11:01:36.370820  2230 net.cpp:173] Top shape: 300 36 13 13 (1825200)
I0318 11:01:36.370823  2230 net.cpp:181] Memory required for data: 11065200
I0318 11:01:36.370838  2230 layer_factory.hpp:77] Creating layer conv1_conv1_0_split
I0318 11:01:36.370848  2230 net.cpp:116] Creating Layer conv1_conv1_0_split
I0318 11:01:36.370851  2230 net.cpp:450] conv1_conv1_0_split <- conv1
I0318 11:01:36.370857  2230 net.cpp:424] conv1_conv1_0_split -> conv1_conv1_0_split_0
I0318 11:01:36.370864  2230 net.cpp:424] conv1_conv1_0_split -> conv1_conv1_0_split_1
I0318 11:01:36.370898  2230 net.cpp:166] Setting up conv1_conv1_0_split
I0318 11:01:36.370905  2230 net.cpp:173] Top shape: 300 36 13 13 (1825200)
I0318 11:01:36.370908  2230 net.cpp:173] Top shape: 300 36 13 13 (1825200)
I0318 11:01:36.370910  2230 net.cpp:181] Memory required for data: 25666800
I0318 11:01:36.370913  2230 layer_factory.hpp:77] Creating layer conv1_inv
I0318 11:01:36.370918  2230 net.cpp:116] Creating Layer conv1_inv
I0318 11:01:36.370921  2230 net.cpp:450] conv1_inv <- conv1_conv1_0_split_0
I0318 11:01:36.370924  2230 net.cpp:424] conv1_inv -> conv1_inv
I0318 11:01:36.370942  2230 net.cpp:166] Setting up conv1_inv
I0318 11:01:36.370949  2230 net.cpp:173] Top shape: 300 36 13 13 (1825200)
I0318 11:01:36.370975  2230 net.cpp:181] Memory required for data: 32967600
I0318 11:01:36.370978  2230 layer_factory.hpp:77] Creating layer conv1_inv_relu
I0318 11:01:36.370983  2230 net.cpp:116] Creating Layer conv1_inv_relu
I0318 11:01:36.370986  2230 net.cpp:450] conv1_inv_relu <- conv1_inv
I0318 11:01:36.370990  2230 net.cpp:411] conv1_inv_relu -> conv1_inv (in-place)
I0318 11:01:36.371273  2230 net.cpp:166] Setting up conv1_inv_relu
I0318 11:01:36.371284  2230 net.cpp:173] Top shape: 300 36 13 13 (1825200)
I0318 11:01:36.371286  2230 net.cpp:181] Memory required for data: 40268400
I0318 11:01:36.371289  2230 layer_factory.hpp:77] Creating layer relu1
I0318 11:01:36.371296  2230 net.cpp:116] Creating Layer relu1
I0318 11:01:36.371299  2230 net.cpp:450] relu1 <- conv1_conv1_0_split_1
I0318 11:01:36.371302  2230 net.cpp:424] relu1 -> conv1_pos
I0318 11:01:36.371449  2230 net.cpp:166] Setting up relu1
I0318 11:01:36.371459  2230 net.cpp:173] Top shape: 300 36 13 13 (1825200)
I0318 11:01:36.371461  2230 net.cpp:181] Memory required for data: 47569200
I0318 11:01:36.371464  2230 layer_factory.hpp:77] Creating layer conv2
I0318 11:01:36.371474  2230 net.cpp:116] Creating Layer conv2
I0318 11:01:36.371477  2230 net.cpp:450] conv2 <- conv1_pos
I0318 11:01:36.371481  2230 net.cpp:424] conv2 -> conv2
I0318 11:01:36.373044  2230 net.cpp:166] Setting up conv2
I0318 11:01:36.373056  2230 net.cpp:173] Top shape: 300 128 6 6 (1382400)
I0318 11:01:36.373059  2230 net.cpp:181] Memory required for data: 53098800
I0318 11:01:36.373066  2230 layer_factory.hpp:77] Creating layer conv2_inv
I0318 11:01:36.373076  2230 net.cpp:116] Creating Layer conv2_inv
I0318 11:01:36.373080  2230 net.cpp:450] conv2_inv <- conv1_inv
I0318 11:01:36.373085  2230 net.cpp:424] conv2_inv -> conv2_inv
I0318 11:01:36.374156  2230 net.cpp:166] Setting up conv2_inv
I0318 11:01:36.374169  2230 net.cpp:173] Top shape: 300 128 6 6 (1382400)
I0318 11:01:36.374171  2230 net.cpp:181] Memory required for data: 58628400
I0318 11:01:36.374178  2230 layer_factory.hpp:77] Creating layer block_output_maxout
I0318 11:01:36.374186  2230 net.cpp:116] Creating Layer block_output_maxout
I0318 11:01:36.374188  2230 net.cpp:450] block_output_maxout <- conv2
I0318 11:01:36.374199  2230 net.cpp:450] block_output_maxout <- conv2_inv
I0318 11:01:36.374202  2230 net.cpp:424] block_output_maxout -> block_output_maxout
I0318 11:01:36.374241  2230 net.cpp:166] Setting up block_output_maxout
I0318 11:01:36.374246  2230 net.cpp:173] Top shape: 300 128 6 6 (1382400)
I0318 11:01:36.374248  2230 net.cpp:181] Memory required for data: 64158000
I0318 11:01:36.374250  2230 layer_factory.hpp:77] Creating layer block_output_prelu
I0318 11:01:36.374255  2230 net.cpp:116] Creating Layer block_output_prelu
I0318 11:01:36.374258  2230 net.cpp:450] block_output_prelu <- block_output_maxout
I0318 11:01:36.374263  2230 net.cpp:424] block_output_prelu -> block_output
I0318 11:01:36.374696  2230 net.cpp:166] Setting up block_output_prelu
I0318 11:01:36.374708  2230 net.cpp:173] Top shape: 300 128 6 6 (1382400)
I0318 11:01:36.374716  2230 net.cpp:181] Memory required for data: 69687600
I0318 11:01:36.374721  2230 layer_factory.hpp:77] Creating layer fc_10
I0318 11:01:36.374728  2230 net.cpp:116] Creating Layer fc_10
I0318 11:01:36.374730  2230 net.cpp:450] fc_10 <- block_output
I0318 11:01:36.374737  2230 net.cpp:424] fc_10 -> fc_10
I0318 11:01:36.375866  2230 net.cpp:166] Setting up fc_10
I0318 11:01:36.375875  2230 net.cpp:173] Top shape: 300 10 (3000)
I0318 11:01:36.375877  2230 net.cpp:181] Memory required for data: 69699600
I0318 11:01:36.375885  2230 layer_factory.hpp:77] Creating layer loss
I0318 11:01:36.375892  2230 net.cpp:116] Creating Layer loss
I0318 11:01:36.375895  2230 net.cpp:450] loss <- fc_10
I0318 11:01:36.375898  2230 net.cpp:450] loss <- label
I0318 11:01:36.375902  2230 net.cpp:424] loss -> loss
I0318 11:01:36.375911  2230 layer_factory.hpp:77] Creating layer loss
…
I0318 11:01:36.377122  2230 net.cpp:338] The NetState phase (1) differed from the phase (0) specified by a rule in layer data_vision
I0318 11:01:36.377130  2230 net.cpp:338] The NetState phase (1) differed from the phase (0) specified by a rule in layer loss
I0318 11:01:36.377238  2230 net.cpp:74] Initializing net from parameters: 
name: "MNIST_NET"
state {
  phase: TEST
}
layer {
  name: "data"
  type: "ImageData"
  top: "data"
  top: "label"
  include {
    phase: TEST
  }
  image_data_param {
    source: "test.txt"
    batch_size: 100
    crop_size: 27
    shuffle: true
    is_color: false
  }
}
layer {
  name: "data_scaling"
  type: "Power"
  bottom: "data"
  top: "data"
  power_param {
    power: 1
    scale: 0.0078125
    shift: -1
  }
}
layer {
  name: "conv1"
  type: "Convolution"
  bottom: "data"
  top: "conv1"
  param {
    lr_mult: 1
    decay_mult: 1
  }
  param {
    lr_mult: 2
    decay_mult: 0
  }
  convolution_param {
    num_output: 36
    kernel_size: 3
    stride: 2
    weight_filler {
      type: "xavier"
    }
  }
}
layer {
  name: "conv1_inv"
  type: "Power"
  bottom: "conv1"
  top: "conv1_inv"
  power_param {
    power: 1
    scale: -1
    shift: 0
  }
}
layer {
  name: "conv1_inv_relu"
  type: "ReLU"
  bottom: "conv1_inv"
  top: "conv1_inv"
}
layer {
  name: "relu1"
  type: "ReLU"
  bottom: "conv1"
  top: "conv1_pos"
}
layer {
  name: "conv2"
  type: "Convolution"
  bottom: "conv1_pos"
  top: "conv2"
  param {
    name: "conv2_w"
    lr_mult: 1
    decay_mult: 1
  }
  param {
    name: "conv2_b"
    lr_mult: 2
    decay_mult: 0
  }
  convolution_param {
    num_output: 128
    kernel_size: 3
    stride: 2
    weight_filler {
      type: "xavier"
    }
  }
}
layer {
  name: "conv2_inv"
  type: "Convolution"
  bottom: "conv1_inv"
  top: "conv2_inv"
  param {
    name: "conv2_inv_w"
    lr_mult: 1
    decay_mult: 1
  }
  param {
    name: "conv2_inv_b"
    lr_mult: 2
    decay_mult: 0
  }
  convolution_param {
    num_output: 128
    kernel_size: 3
    stride: 2
    weight_filler {
      type: "xavier"
    }
  }
}
layer {
  name: "block_output_maxout"
  type: "Eltwise"
  bottom: "conv2"
  bottom: "conv2_inv"
  top: "block_output_maxout"
  eltwise_param {
    operation: MAX
  }
}
layer {
  name: "block_output_prelu"
  type: "PReLU"
  bottom: "block_output_maxout"
  top: "block_output"
  prelu_param {
    filler {
      type: "constant"
      value: 0.01
    }
  }
}
layer {
  name: "fc_10"
  type: "InnerProduct"
  bottom: "block_output"
  top: "fc_10"
  param {
    lr_mult: 5
    decay_mult: 1
  }
  param {
    lr_mult: 10
    decay_mult: 0
  }
  inner_product_param {
    num_output: 10
    weight_filler {
      type: "gaussian"
      std: 0.01
    }
    bias_filler {
      type: "constant"
      value: 0
    }
  }
}
layer {
  name: "accuracy"
  type: "Accuracy"
  bottom: "fc_10"
  bottom: "label"
  top: "accuracy"
  include {
    phase: TEST
  }
}
I0318 11:01:36.377305  2230 layer_factory.hpp:77] Creating layer data
I0318 11:01:36.377317  2230 net.cpp:116] Creating Layer data
I0318 11:01:36.377321  2230 net.cpp:424] data -> data
I0318 11:01:36.377327  2230 net.cpp:424] data -> label
I0318 11:01:36.377332  2230 image_data_layer.cpp:38] Opening file test.txt
I0318 11:01:36.379473  2230 image_data_layer.cpp:53] Shuffling data
I0318 11:01:36.380050  2230 image_data_layer.cpp:58] A total of 10000 images.
I0318 11:01:36.380182  2230 image_data_layer.cpp:85] output data size: 100,1,28,28
I0318 11:01:36.381038  2230 net.cpp:166] Setting up data
I0318 11:01:36.381050  2230 net.cpp:173] Top shape: 100 1 28 28 (78400)
I0318 11:01:36.381054  2230 net.cpp:173] Top shape: 100 (100)
I0318 11:01:36.381057  2230 net.cpp:181] Memory required for data: 314000
I0318 11:01:36.381059  2230 layer_factory.hpp:77] Creating layer data_scaling
I0318 11:01:36.381065  2230 net.cpp:116] Creating Layer data_scaling
I0318 11:01:36.381068  2230 net.cpp:450] data_scaling <- data
I0318 11:01:36.381072  2230 net.cpp:411] data_scaling -> data (in-place)
I0318 11:01:36.381078  2230 net.cpp:166] Setting up data_scaling
I0318 11:01:36.381080  2230 net.cpp:173] Top shape: 100 1 28 28 (78400)
I0318 11:01:36.381083  2230 net.cpp:181] Memory required for data: 627600
I0318 11:01:36.381085  2230 layer_factory.hpp:77] Creating layer conv1
I0318 11:01:36.381091  2230 net.cpp:116] Creating Layer conv1
I0318 11:01:36.381094  2230 net.cpp:450] conv1 <- data
I0318 11:01:36.381098  2230 net.cpp:424] conv1 -> conv1
I0318 11:01:36.382271  2230 net.cpp:166] Setting up conv1
I0318 11:01:36.382282  2230 net.cpp:173] Top shape: 100 36 13 13 (608400)
I0318 11:01:36.382285  2230 net.cpp:181] Memory required for data: 3061200
I0318 11:01:36.382295  2230 layer_factory.hpp:77] Creating layer conv1_conv1_0_split
I0318 11:01:36.382302  2230 net.cpp:116] Creating Layer conv1_conv1_0_split
I0318 11:01:36.382303  2230 net.cpp:450] conv1_conv1_0_split <- conv1
I0318 11:01:36.382308  2230 net.cpp:424] conv1_conv1_0_split -> conv1_conv1_0_split_0
I0318 11:01:36.382313  2230 net.cpp:424] conv1_conv1_0_split -> conv1_conv1_0_split_1
I0318 11:01:36.382349  2230 net.cpp:166] Setting up conv1_conv1_0_split
I0318 11:01:36.382355  2230 net.cpp:173] Top shape: 100 36 13 13 (608400)
I0318 11:01:36.382359  2230 net.cpp:173] Top shape: 100 36 13 13 (608400)
I0318 11:01:36.382361  2230 net.cpp:181] Memory required for data: 7928400
I0318 11:01:36.382364  2230 layer_factory.hpp:77] Creating layer conv1_inv
I0318 11:01:36.382369  2230 net.cpp:116] Creating Layer conv1_inv
I0318 11:01:36.382370  2230 net.cpp:450] conv1_inv <- conv1_conv1_0_split_0
I0318 11:01:36.382375  2230 net.cpp:424] conv1_inv -> conv1_inv
I0318 11:01:36.382395  2230 net.cpp:166] Setting up conv1_inv
I0318 11:01:36.382400  2230 net.cpp:173] Top shape: 100 36 13 13 (608400)
I0318 11:01:36.382402  2230 net.cpp:181] Memory required for data: 10362000
I0318 11:01:36.382405  2230 layer_factory.hpp:77] Creating layer conv1_inv_relu
I0318 11:01:36.382408  2230 net.cpp:116] Creating Layer conv1_inv_relu
I0318 11:01:36.382411  2230 net.cpp:450] conv1_inv_relu <- conv1_inv
I0318 11:01:36.382416  2230 net.cpp:411] conv1_inv_relu -> conv1_inv (in-place)
I0318 11:01:36.382730  2230 net.cpp:166] Setting up conv1_inv_relu
I0318 11:01:36.382740  2230 net.cpp:173] Top shape: 100 36 13 13 (608400)
I0318 11:01:36.382743  2230 net.cpp:181] Memory required for data: 12795600
I0318 11:01:36.382755  2230 layer_factory.hpp:77] Creating layer relu1
I0318 11:01:36.382761  2230 net.cpp:116] Creating Layer relu1
I0318 11:01:36.382763  2230 net.cpp:450] relu1 <- conv1_conv1_0_split_1
I0318 11:01:36.382769  2230 net.cpp:424] relu1 -> conv1_pos
I0318 11:01:36.382933  2230 net.cpp:166] Setting up relu1
I0318 11:01:36.382942  2230 net.cpp:173] Top shape: 100 36 13 13 (608400)
I0318 11:01:36.382946  2230 net.cpp:181] Memory required for data: 15229200
I0318 11:01:36.382947  2230 layer_factory.hpp:77] Creating layer conv2
I0318 11:01:36.382966  2230 net.cpp:116] Creating Layer conv2
I0318 11:01:36.382968  2230 net.cpp:450] conv2 <- conv1_pos
I0318 11:01:36.382975  2230 net.cpp:424] conv2 -> conv2
I0318 11:01:36.384307  2230 net.cpp:166] Setting up conv2
I0318 11:01:36.384318  2230 net.cpp:173] Top shape: 100 128 6 6 (460800)
I0318 11:01:36.384321  2230 net.cpp:181] Memory required for data: 17072400
I0318 11:01:36.384330  2230 layer_factory.hpp:77] Creating layer conv2_inv
I0318 11:01:36.384338  2230 net.cpp:116] Creating Layer conv2_inv
I0318 11:01:36.384341  2230 net.cpp:450] conv2_inv <- conv1_inv
I0318 11:01:36.384347  2230 net.cpp:424] conv2_inv -> conv2_inv
I0318 11:01:36.385493  2230 net.cpp:166] Setting up conv2_inv
I0318 11:01:36.385509  2230 net.cpp:173] Top shape: 100 128 6 6 (460800)
I0318 11:01:36.385511  2230 net.cpp:181] Memory required for data: 18915600
I0318 11:01:36.385519  2230 layer_factory.hpp:77] Creating layer block_output_maxout
I0318 11:01:36.385524  2230 net.cpp:116] Creating Layer block_output_maxout
I0318 11:01:36.385526  2230 net.cpp:450] block_output_maxout <- conv2
I0318 11:01:36.385529  2230 net.cpp:450] block_output_maxout <- conv2_inv
I0318 11:01:36.385532  2230 net.cpp:424] block_output_maxout -> block_output_maxout
I0318 11:01:36.385581  2230 net.cpp:166] Setting up block_output_maxout
I0318 11:01:36.385589  2230 net.cpp:173] Top shape: 100 128 6 6 (460800)
I0318 11:01:36.385591  2230 net.cpp:181] Memory required for data: 20758800
I0318 11:01:36.385593  2230 layer_factory.hpp:77] Creating layer block_output_prelu
I0318 11:01:36.385599  2230 net.cpp:116] Creating Layer block_output_prelu
I0318 11:01:36.385602  2230 net.cpp:450] block_output_prelu <- block_output_maxout
I0318 11:01:36.385607  2230 net.cpp:424] block_output_prelu -> block_output
I0318 11:01:36.385690  2230 net.cpp:166] Setting up block_output_prelu
I0318 11:01:36.385699  2230 net.cpp:173] Top shape: 100 128 6 6 (460800)
I0318 11:01:36.385700  2230 net.cpp:181] Memory required for data: 22602000
I0318 11:01:36.385704  2230 layer_factory.hpp:77] Creating layer fc_10
I0318 11:01:36.385710  2230 net.cpp:116] Creating Layer fc_10
I0318 11:01:36.385711  2230 net.cpp:450] fc_10 <- block_output
I0318 11:01:36.385716  2230 net.cpp:424] fc_10 -> fc_10
I0318 11:01:36.386842  2230 net.cpp:166] Setting up fc_10
I0318 11:01:36.386849  2230 net.cpp:173] Top shape: 100 10 (1000)
I0318 11:01:36.386852  2230 net.cpp:181] Memory required for data: 22606000
I0318 11:01:36.386868  2230 layer_factory.hpp:77] Creating layer accuracy
I0318 11:01:36.386874  2230 net.cpp:116] Creating Layer accuracy
I0318 11:01:36.386878  2230 net.cpp:450] accuracy <- fc_10
I0318 11:01:36.386880  2230 net.cpp:450] accuracy <- label
I0318 11:01:36.386883  2230 net.cpp:424] accuracy -> accuracy
…
