…
I0318 11:57:42.315382  2460 net.cpp:338] The NetState phase (0) differed from the phase (1) specified by a rule in layer data
I0318 11:57:42.315395  2460 net.cpp:338] The NetState phase (0) differed from the phase (1) specified by a rule in layer accuracy
I0318 11:57:42.315534  2460 net.cpp:74] Initializing net from parameters: 
name: "MNIST_NET"
state {
  phase: TRAIN
  level: 0
  stage: ""
}
layer {
  name: "data"
  type: "ImageData"
  top: "data"
  top: "label"
  include {
    phase: TRAIN
  }
  image_data_param {
    source: "train.txt"
    batch_size: 300
    crop_size: 27
    shuffle: true
    is_color: false
  }
}
layer {
  name: "data_scaling"
  type: "Power"
  bottom: "data"
  top: "data"
  power_param {
    power: 1
    scale: 0.0078125
    shift: -1
  }
}
layer {
  name: "data_drop"
  type: "Dropout"
  bottom: "data"
  top: "data"
  include {
    phase: TRAIN
  }
  dropout_param {
    dropout_ratio: 0.01
  }
}
layer {
  name: "data_vision"
  type: "VisionTransformation"
  bottom: "data"
  top: "data"
  include {
    phase: TRAIN
  }
  vision_transformation_param {
    noise_mean: 0
    noise_std: 0
    noise_std_small: 0
    rotate_min_angle: -20
    rotate_max_angle: 20
    rotate_fill_value: 0
    per_pixel_multiplier_mean: 1
    per_pixel_multiplier_std: 0
    rescale_probability: 0.25
    constant_multiplier_mean: 1
    constant_multiplier_std: 0
    scale_mean: 1
    scale_std: 0.1
    constant_multiplier_color_mean: 0
    constant_multiplier_color_std: 0
    value_cap_min: 0
    value_cap_max: 0
    passthrough_probability: 0.5
  }
}
layer {
  name: "conv1"
  type: "Convolution"
  bottom: "data"
  top: "conv1"
  param {
    lr_mult: 1
    decay_mult: 1
  }
  param {
    lr_mult: 2
    decay_mult: 0
  }
  convolution_param {
    num_output: 36
    kernel_size: 3
    stride: 2
    weight_filler {
      type: "xavier"
    }
  }
}
layer {
  name: "bn1"
  type: "BatchNorm"
  bottom: "conv1"
  top: "bn1"
}
layer {
  name: "conv1_inv"
  type: "Power"
  bottom: "bn1"
  top: "conv1_inv"
  power_param {
    power: 1
    scale: -1
    shift: 0
  }
}
layer {
  name: "conv1_inv_relu"
  type: "ReLU"
  bottom: "conv1_inv"
  top: "conv1_inv"
}
layer {
  name: "relu1"
  type: "ReLU"
  bottom: "bn1"
  top: "conv1_pos"
}
layer {
  name: "conv2"
  type: "Convolution"
  bottom: "conv1_pos"
  top: "conv2"
  param {
    name: "conv2_w"
    lr_mult: 1
    decay_mult: 1
  }
  param {
    name: "conv2_b"
    lr_mult: 2
    decay_mult: 0
  }
  convolution_param {
    num_output: 128
    kernel_size: 3
    stride: 2
    weight_filler {
      type: "xavier"
    }
  }
}
layer {
  name: "conv2_inv"
  type: "Convolution"
  bottom: "conv1_inv"
  top: "conv2_inv"
  param {
    name: "conv2_inv_w"
    lr_mult: 1
    decay_mult: 1
  }
  param {
    name: "conv2_inv_b"
    lr_mult: 2
    decay_mult: 0
  }
  convolution_param {
    num_output: 128
    kernel_size: 3
    stride: 2
    weight_filler {
      type: "xavier"
    }
  }
}
layer {
  name: "block_output"
  type: "Concat"
  bottom: "conv2"
  bottom: "conv2_inv"
  top: "block_output"
}
layer {
  name: "block_output_prelu"
  type: "PReLU"
  bottom: "block_output"
  top: "block_output"
  prelu_param {
    filler {
      type: "constant"
      value: 0.01
    }
  }
}
layer {
  name: "fc_10"
  type: "InnerProduct"
  bottom: "block_output"
  top: "fc_10"
  param {
    lr_mult: 5
    decay_mult: 1
  }
  param {
    lr_mult: 10
    decay_mult: 0
  }
  inner_product_param {
    num_output: 10
    weight_filler {
      type: "gaussian"
      std: 0.01
    }
    bias_filler {
      type: "constant"
      value: 0
    }
  }
}
layer {
  name: "loss"
  type: "SoftmaxWithLoss"
  bottom: "fc_10"
  bottom: "label"
  top: "loss"
  include {
    phase: TRAIN
  }
}
I0318 11:57:42.315635  2460 layer_factory.hpp:77] Creating layer data
I0318 11:57:42.315662  2460 net.cpp:116] Creating Layer data
I0318 11:57:42.315668  2460 net.cpp:424] data -> data
I0318 11:57:42.315685  2460 net.cpp:424] data -> label
I0318 11:57:42.315696  2460 image_data_layer.cpp:38] Opening file train.txt
I0318 11:57:42.328105  2460 image_data_layer.cpp:53] Shuffling data
I0318 11:57:42.332227  2460 image_data_layer.cpp:58] A total of 60000 images.
I0318 11:57:42.342366  2460 image_data_layer.cpp:85] output data size: 300,1,28,28
I0318 11:57:42.344805  2460 net.cpp:166] Setting up data
I0318 11:57:42.344822  2460 net.cpp:173] Top shape: 300 1 28 28 (235200)
I0318 11:57:42.344830  2460 net.cpp:173] Top shape: 300 (300)
I0318 11:57:42.344831  2460 net.cpp:181] Memory required for data: 942000
I0318 11:57:42.344838  2460 layer_factory.hpp:77] Creating layer data_scaling
I0318 11:57:42.344849  2460 net.cpp:116] Creating Layer data_scaling
I0318 11:57:42.344854  2460 net.cpp:450] data_scaling <- data
I0318 11:57:42.344862  2460 net.cpp:411] data_scaling -> data (in-place)
I0318 11:57:42.344873  2460 net.cpp:166] Setting up data_scaling
I0318 11:57:42.344877  2460 net.cpp:173] Top shape: 300 1 28 28 (235200)
I0318 11:57:42.344878  2460 net.cpp:181] Memory required for data: 1882800
I0318 11:57:42.344880  2460 layer_factory.hpp:77] Creating layer data_drop
I0318 11:57:42.344887  2460 net.cpp:116] Creating Layer data_drop
I0318 11:57:42.344889  2460 net.cpp:450] data_drop <- data
I0318 11:57:42.344892  2460 net.cpp:411] data_drop -> data (in-place)
I0318 11:57:42.344944  2460 net.cpp:166] Setting up data_drop
I0318 11:57:42.344951  2460 net.cpp:173] Top shape: 300 1 28 28 (235200)
I0318 11:57:42.344954  2460 net.cpp:181] Memory required for data: 2823600
I0318 11:57:42.344956  2460 layer_factory.hpp:77] Creating layer data_vision
I0318 11:57:42.344964  2460 net.cpp:116] Creating Layer data_vision
I0318 11:57:42.344967  2460 net.cpp:450] data_vision <- data
I0318 11:57:42.344970  2460 net.cpp:411] data_vision -> data (in-place)
I0318 11:57:42.344977  2460 net.cpp:166] Setting up data_vision
I0318 11:57:42.344980  2460 net.cpp:173] Top shape: 300 1 28 28 (235200)
I0318 11:57:42.344982  2460 net.cpp:181] Memory required for data: 3764400
I0318 11:57:42.344985  2460 layer_factory.hpp:77] Creating layer conv1
I0318 11:57:42.344997  2460 net.cpp:116] Creating Layer conv1
I0318 11:57:42.345000  2460 net.cpp:450] conv1 <- data
I0318 11:57:42.345006  2460 net.cpp:424] conv1 -> conv1
I0318 11:57:42.589920  2460 net.cpp:166] Setting up conv1
I0318 11:57:42.589956  2460 net.cpp:173] Top shape: 300 36 13 13 (1825200)
I0318 11:57:42.589959  2460 net.cpp:181] Memory required for data: 11065200
I0318 11:57:42.589980  2460 layer_factory.hpp:77] Creating layer bn1
I0318 11:57:42.589995  2460 net.cpp:116] Creating Layer bn1
I0318 11:57:42.590000  2460 net.cpp:450] bn1 <- conv1
I0318 11:57:42.590009  2460 net.cpp:424] bn1 -> bn1
I0318 11:57:42.590198  2460 net.cpp:166] Setting up bn1
I0318 11:57:42.590209  2460 net.cpp:173] Top shape: 300 36 13 13 (1825200)
I0318 11:57:42.590214  2460 net.cpp:181] Memory required for data: 18366000
I0318 11:57:42.590229  2460 layer_factory.hpp:77] Creating layer bn1_bn1_0_split
I0318 11:57:42.590239  2460 net.cpp:116] Creating Layer bn1_bn1_0_split
I0318 11:57:42.590242  2460 net.cpp:450] bn1_bn1_0_split <- bn1
I0318 11:57:42.590250  2460 net.cpp:424] bn1_bn1_0_split -> bn1_bn1_0_split_0
I0318 11:57:42.590260  2460 net.cpp:424] bn1_bn1_0_split -> bn1_bn1_0_split_1
I0318 11:57:42.590307  2460 net.cpp:166] Setting up bn1_bn1_0_split
I0318 11:57:42.590333  2460 net.cpp:173] Top shape: 300 36 13 13 (1825200)
I0318 11:57:42.590340  2460 net.cpp:173] Top shape: 300 36 13 13 (1825200)
I0318 11:57:42.590343  2460 net.cpp:181] Memory required for data: 32967600
I0318 11:57:42.590348  2460 layer_factory.hpp:77] Creating layer conv1_inv
I0318 11:57:42.590358  2460 net.cpp:116] Creating Layer conv1_inv
I0318 11:57:42.590363  2460 net.cpp:450] conv1_inv <- bn1_bn1_0_split_0
I0318 11:57:42.590369  2460 net.cpp:424] conv1_inv -> conv1_inv
I0318 11:57:42.590401  2460 net.cpp:166] Setting up conv1_inv
I0318 11:57:42.590410  2460 net.cpp:173] Top shape: 300 36 13 13 (1825200)
I0318 11:57:42.590415  2460 net.cpp:181] Memory required for data: 40268400
I0318 11:57:42.590420  2460 layer_factory.hpp:77] Creating layer conv1_inv_relu
I0318 11:57:42.590430  2460 net.cpp:116] Creating Layer conv1_inv_relu
I0318 11:57:42.590433  2460 net.cpp:450] conv1_inv_relu <- conv1_inv
I0318 11:57:42.590440  2460 net.cpp:411] conv1_inv_relu -> conv1_inv (in-place)
I0318 11:57:42.590741  2460 net.cpp:166] Setting up conv1_inv_relu
I0318 11:57:42.590755  2460 net.cpp:173] Top shape: 300 36 13 13 (1825200)
I0318 11:57:42.590759  2460 net.cpp:181] Memory required for data: 47569200
I0318 11:57:42.590764  2460 layer_factory.hpp:77] Creating layer relu1
I0318 11:57:42.590771  2460 net.cpp:116] Creating Layer relu1
I0318 11:57:42.590776  2460 net.cpp:450] relu1 <- bn1_bn1_0_split_1
I0318 11:57:42.590783  2460 net.cpp:424] relu1 -> conv1_pos
I0318 11:57:42.590947  2460 net.cpp:166] Setting up relu1
I0318 11:57:42.590970  2460 net.cpp:173] Top shape: 300 36 13 13 (1825200)
I0318 11:57:42.590975  2460 net.cpp:181] Memory required for data: 54870000
I0318 11:57:42.590981  2460 layer_factory.hpp:77] Creating layer conv2
I0318 11:57:42.590994  2460 net.cpp:116] Creating Layer conv2
I0318 11:57:42.590999  2460 net.cpp:450] conv2 <- conv1_pos
I0318 11:57:42.591008  2460 net.cpp:424] conv2 -> conv2
I0318 11:57:42.592625  2460 net.cpp:166] Setting up conv2
I0318 11:57:42.592641  2460 net.cpp:173] Top shape: 300 128 6 6 (1382400)
I0318 11:57:42.592645  2460 net.cpp:181] Memory required for data: 60399600
I0318 11:57:42.592655  2460 layer_factory.hpp:77] Creating layer conv2_inv
I0318 11:57:42.592667  2460 net.cpp:116] Creating Layer conv2_inv
I0318 11:57:42.592674  2460 net.cpp:450] conv2_inv <- conv1_inv
I0318 11:57:42.592681  2460 net.cpp:424] conv2_inv -> conv2_inv
I0318 11:57:42.593760  2460 net.cpp:166] Setting up conv2_inv
I0318 11:57:42.593775  2460 net.cpp:173] Top shape: 300 128 6 6 (1382400)
I0318 11:57:42.593780  2460 net.cpp:181] Memory required for data: 65929200
I0318 11:57:42.593791  2460 layer_factory.hpp:77] Creating layer block_output
I0318 11:57:42.593801  2460 net.cpp:116] Creating Layer block_output
I0318 11:57:42.593806  2460 net.cpp:450] block_output <- conv2
I0318 11:57:42.593812  2460 net.cpp:450] block_output <- conv2_inv
I0318 11:57:42.593818  2460 net.cpp:424] block_output -> block_output
I0318 11:57:42.593853  2460 net.cpp:166] Setting up block_output
I0318 11:57:42.593864  2460 net.cpp:173] Top shape: 300 256 6 6 (2764800)
I0318 11:57:42.593868  2460 net.cpp:181] Memory required for data: 76988400
I0318 11:57:42.593873  2460 layer_factory.hpp:77] Creating layer block_output_prelu
I0318 11:57:42.593881  2460 net.cpp:116] Creating Layer block_output_prelu
I0318 11:57:42.593886  2460 net.cpp:450] block_output_prelu <- block_output
I0318 11:57:42.593894  2460 net.cpp:411] block_output_prelu -> block_output (in-place)
I0318 11:57:42.594375  2460 net.cpp:166] Setting up block_output_prelu
I0318 11:57:42.594388  2460 net.cpp:173] Top shape: 300 256 6 6 (2764800)
I0318 11:57:42.594393  2460 net.cpp:181] Memory required for data: 88047600
I0318 11:57:42.594400  2460 layer_factory.hpp:77] Creating layer fc_10
I0318 11:57:42.594411  2460 net.cpp:116] Creating Layer fc_10
I0318 11:57:42.594416  2460 net.cpp:450] fc_10 <- block_output
I0318 11:57:42.594424  2460 net.cpp:424] fc_10 -> fc_10
I0318 11:57:42.597240  2460 net.cpp:166] Setting up fc_10
I0318 11:57:42.597254  2460 net.cpp:173] Top shape: 300 10 (3000)
I0318 11:57:42.597273  2460 net.cpp:181] Memory required for data: 88059600
I0318 11:57:42.597283  2460 layer_factory.hpp:77] Creating layer loss
I0318 11:57:42.597293  2460 net.cpp:116] Creating Layer loss
I0318 11:57:42.597298  2460 net.cpp:450] loss <- fc_10
I0318 11:57:42.597304  2460 net.cpp:450] loss <- label
I0318 11:57:42.597312  2460 net.cpp:424] loss -> loss
I0318 11:57:42.597327  2460 layer_factory.hpp:77] Creating layer loss
…
I0318 11:57:42.598701  2460 net.cpp:338] The NetState phase (1) differed from the phase (0) specified by a rule in layer data_vision
I0318 11:57:42.598713  2460 net.cpp:338] The NetState phase (1) differed from the phase (0) specified by a rule in layer loss
I0318 11:57:42.598844  2460 net.cpp:74] Initializing net from parameters: 
name: "MNIST_NET"
state {
  phase: TEST
}
layer {
  name: "data"
  type: "ImageData"
  top: "data"
  top: "label"
  include {
    phase: TEST
  }
  image_data_param {
    source: "test.txt"
    batch_size: 100
    crop_size: 27
    shuffle: true
    is_color: false
  }
}
layer {
  name: "data_scaling"
  type: "Power"
  bottom: "data"
  top: "data"
  power_param {
    power: 1
    scale: 0.0078125
    shift: -1
  }
}
layer {
  name: "conv1"
  type: "Convolution"
  bottom: "data"
  top: "conv1"
  param {
    lr_mult: 1
    decay_mult: 1
  }
  param {
    lr_mult: 2
    decay_mult: 0
  }
  convolution_param {
    num_output: 36
    kernel_size: 3
    stride: 2
    weight_filler {
      type: "xavier"
    }
  }
}
layer {
  name: "bn1"
  type: "BatchNorm"
  bottom: "conv1"
  top: "bn1"
}
layer {
  name: "conv1_inv"
  type: "Power"
  bottom: "bn1"
  top: "conv1_inv"
  power_param {
    power: 1
    scale: -1
    shift: 0
  }
}
layer {
  name: "conv1_inv_relu"
  type: "ReLU"
  bottom: "conv1_inv"
  top: "conv1_inv"
}
layer {
  name: "relu1"
  type: "ReLU"
  bottom: "bn1"
  top: "conv1_pos"
}
layer {
  name: "conv2"
  type: "Convolution"
  bottom: "conv1_pos"
  top: "conv2"
  param {
    name: "conv2_w"
    lr_mult: 1
    decay_mult: 1
  }
  param {
    name: "conv2_b"
    lr_mult: 2
    decay_mult: 0
  }
  convolution_param {
    num_output: 128
    kernel_size: 3
    stride: 2
    weight_filler {
      type: "xavier"
    }
  }
}
layer {
  name: "conv2_inv"
  type: "Convolution"
  bottom: "conv1_inv"
  top: "conv2_inv"
  param {
    name: "conv2_inv_w"
    lr_mult: 1
    decay_mult: 1
  }
  param {
    name: "conv2_inv_b"
    lr_mult: 2
    decay_mult: 0
  }
  convolution_param {
    num_output: 128
    kernel_size: 3
    stride: 2
    weight_filler {
      type: "xavier"
    }
  }
}
layer {
  name: "block_output"
  type: "Concat"
  bottom: "conv2"
  bottom: "conv2_inv"
  top: "block_output"
}
layer {
  name: "block_output_prelu"
  type: "PReLU"
  bottom: "block_output"
  top: "block_output"
  prelu_param {
    filler {
      type: "constant"
      value: 0.01
    }
  }
}
layer {
  name: "fc_10"
  type: "InnerProduct"
  bottom: "block_output"
  top: "fc_10"
  param {
    lr_mult: 5
    decay_mult: 1
  }
  param {
    lr_mult: 10
    decay_mult: 0
  }
  inner_product_param {
    num_output: 10
    weight_filler {
      type: "gaussian"
      std: 0.01
    }
    bias_filler {
      type: "constant"
      value: 0
    }
  }
}
layer {
  name: "accuracy"
  type: "Accuracy"
  bottom: "fc_10"
  bottom: "label"
  top: "accuracy"
  include {
    phase: TEST
  }
}
I0318 11:57:42.598939  2460 layer_factory.hpp:77] Creating layer data
I0318 11:57:42.598964  2460 net.cpp:116] Creating Layer data
I0318 11:57:42.598973  2460 net.cpp:424] data -> data
I0318 11:57:42.598984  2460 net.cpp:424] data -> label
I0318 11:57:42.598994  2460 image_data_layer.cpp:38] Opening file test.txt
I0318 11:57:42.601395  2460 image_data_layer.cpp:53] Shuffling data
I0318 11:57:42.601994  2460 image_data_layer.cpp:58] A total of 10000 images.
I0318 11:57:42.602136  2460 image_data_layer.cpp:85] output data size: 100,1,28,28
I0318 11:57:42.603021  2460 net.cpp:166] Setting up data
I0318 11:57:42.603035  2460 net.cpp:173] Top shape: 100 1 28 28 (78400)
I0318 11:57:42.603041  2460 net.cpp:173] Top shape: 100 (100)
I0318 11:57:42.603045  2460 net.cpp:181] Memory required for data: 314000
I0318 11:57:42.603050  2460 layer_factory.hpp:77] Creating layer data_scaling
I0318 11:57:42.603060  2460 net.cpp:116] Creating Layer data_scaling
I0318 11:57:42.603065  2460 net.cpp:450] data_scaling <- data
I0318 11:57:42.603071  2460 net.cpp:411] data_scaling -> data (in-place)
I0318 11:57:42.603080  2460 net.cpp:166] Setting up data_scaling
I0318 11:57:42.603087  2460 net.cpp:173] Top shape: 100 1 28 28 (78400)
I0318 11:57:42.603091  2460 net.cpp:181] Memory required for data: 627600
I0318 11:57:42.603094  2460 layer_factory.hpp:77] Creating layer conv1
I0318 11:57:42.603106  2460 net.cpp:116] Creating Layer conv1
I0318 11:57:42.603111  2460 net.cpp:450] conv1 <- data
I0318 11:57:42.603117  2460 net.cpp:424] conv1 -> conv1
I0318 11:57:42.604074  2460 net.cpp:166] Setting up conv1
I0318 11:57:42.604089  2460 net.cpp:173] Top shape: 100 36 13 13 (608400)
I0318 11:57:42.604094  2460 net.cpp:181] Memory required for data: 3061200
I0318 11:57:42.604105  2460 layer_factory.hpp:77] Creating layer bn1
I0318 11:57:42.604115  2460 net.cpp:116] Creating Layer bn1
I0318 11:57:42.604120  2460 net.cpp:450] bn1 <- conv1
I0318 11:57:42.604127  2460 net.cpp:424] bn1 -> bn1
I0318 11:57:42.604317  2460 net.cpp:166] Setting up bn1
I0318 11:57:42.604326  2460 net.cpp:173] Top shape: 100 36 13 13 (608400)
I0318 11:57:42.604331  2460 net.cpp:181] Memory required for data: 5494800
I0318 11:57:42.604344  2460 layer_factory.hpp:77] Creating layer bn1_bn1_0_split
I0318 11:57:42.604353  2460 net.cpp:116] Creating Layer bn1_bn1_0_split
I0318 11:57:42.604357  2460 net.cpp:450] bn1_bn1_0_split <- bn1
I0318 11:57:42.604363  2460 net.cpp:424] bn1_bn1_0_split -> bn1_bn1_0_split_0
I0318 11:57:42.604385  2460 net.cpp:424] bn1_bn1_0_split -> bn1_bn1_0_split_1
I0318 11:57:42.604432  2460 net.cpp:166] Setting up bn1_bn1_0_split
I0318 11:57:42.604442  2460 net.cpp:173] Top shape: 100 36 13 13 (608400)
I0318 11:57:42.604449  2460 net.cpp:173] Top shape: 100 36 13 13 (608400)
I0318 11:57:42.604451  2460 net.cpp:181] Memory required for data: 10362000
I0318 11:57:42.604455  2460 layer_factory.hpp:77] Creating layer conv1_inv
I0318 11:57:42.604463  2460 net.cpp:116] Creating Layer conv1_inv
I0318 11:57:42.604467  2460 net.cpp:450] conv1_inv <- bn1_bn1_0_split_0
I0318 11:57:42.604475  2460 net.cpp:424] conv1_inv -> conv1_inv
I0318 11:57:42.604517  2460 net.cpp:166] Setting up conv1_inv
I0318 11:57:42.604526  2460 net.cpp:173] Top shape: 100 36 13 13 (608400)
I0318 11:57:42.604529  2460 net.cpp:181] Memory required for data: 12795600
I0318 11:57:42.604534  2460 layer_factory.hpp:77] Creating layer conv1_inv_relu
I0318 11:57:42.604540  2460 net.cpp:116] Creating Layer conv1_inv_relu
I0318 11:57:42.604545  2460 net.cpp:450] conv1_inv_relu <- conv1_inv
I0318 11:57:42.604552  2460 net.cpp:411] conv1_inv_relu -> conv1_inv (in-place)
I0318 11:57:42.604851  2460 net.cpp:166] Setting up conv1_inv_relu
I0318 11:57:42.604864  2460 net.cpp:173] Top shape: 100 36 13 13 (608400)
I0318 11:57:42.604868  2460 net.cpp:181] Memory required for data: 15229200
I0318 11:57:42.604873  2460 layer_factory.hpp:77] Creating layer relu1
I0318 11:57:42.604882  2460 net.cpp:116] Creating Layer relu1
I0318 11:57:42.604885  2460 net.cpp:450] relu1 <- bn1_bn1_0_split_1
I0318 11:57:42.604892  2460 net.cpp:424] relu1 -> conv1_pos
I0318 11:57:42.605060  2460 net.cpp:166] Setting up relu1
I0318 11:57:42.605073  2460 net.cpp:173] Top shape: 100 36 13 13 (608400)
I0318 11:57:42.605077  2460 net.cpp:181] Memory required for data: 17662800
I0318 11:57:42.605082  2460 layer_factory.hpp:77] Creating layer conv2
I0318 11:57:42.605094  2460 net.cpp:116] Creating Layer conv2
I0318 11:57:42.605099  2460 net.cpp:450] conv2 <- conv1_pos
I0318 11:57:42.605108  2460 net.cpp:424] conv2 -> conv2
I0318 11:57:42.606181  2460 net.cpp:166] Setting up conv2
I0318 11:57:42.606197  2460 net.cpp:173] Top shape: 100 128 6 6 (460800)
I0318 11:57:42.606201  2460 net.cpp:181] Memory required for data: 19506000
I0318 11:57:42.606209  2460 layer_factory.hpp:77] Creating layer conv2_inv
I0318 11:57:42.606220  2460 net.cpp:116] Creating Layer conv2_inv
I0318 11:57:42.606227  2460 net.cpp:450] conv2_inv <- conv1_inv
I0318 11:57:42.606235  2460 net.cpp:424] conv2_inv -> conv2_inv
I0318 11:57:42.607321  2460 net.cpp:166] Setting up conv2_inv
I0318 11:57:42.607336  2460 net.cpp:173] Top shape: 100 128 6 6 (460800)
I0318 11:57:42.607341  2460 net.cpp:181] Memory required for data: 21349200
I0318 11:57:42.607352  2460 layer_factory.hpp:77] Creating layer block_output
I0318 11:57:42.607360  2460 net.cpp:116] Creating Layer block_output
I0318 11:57:42.607365  2460 net.cpp:450] block_output <- conv2
I0318 11:57:42.607372  2460 net.cpp:450] block_output <- conv2_inv
I0318 11:57:42.607378  2460 net.cpp:424] block_output -> block_output
I0318 11:57:42.607414  2460 net.cpp:166] Setting up block_output
I0318 11:57:42.607425  2460 net.cpp:173] Top shape: 100 256 6 6 (921600)
I0318 11:57:42.607429  2460 net.cpp:181] Memory required for data: 25035600
I0318 11:57:42.607434  2460 layer_factory.hpp:77] Creating layer block_output_prelu
I0318 11:57:42.607451  2460 net.cpp:116] Creating Layer block_output_prelu
I0318 11:57:42.607455  2460 net.cpp:450] block_output_prelu <- block_output
I0318 11:57:42.607462  2460 net.cpp:411] block_output_prelu -> block_output (in-place)
I0318 11:57:42.607550  2460 net.cpp:166] Setting up block_output_prelu
I0318 11:57:42.607559  2460 net.cpp:173] Top shape: 100 256 6 6 (921600)
I0318 11:57:42.607563  2460 net.cpp:181] Memory required for data: 28722000
I0318 11:57:42.607570  2460 layer_factory.hpp:77] Creating layer fc_10
I0318 11:57:42.607579  2460 net.cpp:116] Creating Layer fc_10
I0318 11:57:42.607584  2460 net.cpp:450] fc_10 <- block_output
I0318 11:57:42.607605  2460 net.cpp:424] fc_10 -> fc_10
I0318 11:57:42.609900  2460 net.cpp:166] Setting up fc_10
I0318 11:57:42.609912  2460 net.cpp:173] Top shape: 100 10 (1000)
I0318 11:57:42.609916  2460 net.cpp:181] Memory required for data: 28726000
I0318 11:57:42.609925  2460 layer_factory.hpp:77] Creating layer accuracy
I0318 11:57:42.609932  2460 net.cpp:116] Creating Layer accuracy
I0318 11:57:42.609937  2460 net.cpp:450] accuracy <- fc_10
I0318 11:57:42.609943  2460 net.cpp:450] accuracy <- label
I0318 11:57:42.609949  2460 net.cpp:424] accuracy -> accuracy
…
