…
I0318 11:38:41.362500  2360 net.cpp:338] The NetState phase (0) differed from the phase (1) specified by a rule in layer data
I0318 11:38:41.362517  2360 net.cpp:338] The NetState phase (0) differed from the phase (1) specified by a rule in layer accuracy
I0318 11:38:41.362653  2360 net.cpp:74] Initializing net from parameters: 
name: "MNIST_NET"
state {
  phase: TRAIN
  level: 0
  stage: ""
}
layer {
  name: "data"
  type: "ImageData"
  top: "data"
  top: "label"
  include {
    phase: TRAIN
  }
  image_data_param {
    source: "train.txt"
    batch_size: 300
    crop_size: 27
    shuffle: true
    is_color: false
  }
}
layer {
  name: "data_scaling"
  type: "Power"
  bottom: "data"
  top: "data"
  power_param {
    power: 1
    scale: 0.0078125
    shift: -1
  }
}
layer {
  name: "data_drop"
  type: "Dropout"
  bottom: "data"
  top: "data"
  include {
    phase: TRAIN
  }
  dropout_param {
    dropout_ratio: 0.01
  }
}
layer {
  name: "data_vision"
  type: "VisionTransformation"
  bottom: "data"
  top: "data"
  include {
    phase: TRAIN
  }
  vision_transformation_param {
    noise_mean: 0
    noise_std: 0
    noise_std_small: 0
    rotate_min_angle: -20
    rotate_max_angle: 20
    rotate_fill_value: 0
    per_pixel_multiplier_mean: 1
    per_pixel_multiplier_std: 0
    rescale_probability: 0.25
    constant_multiplier_mean: 1
    constant_multiplier_std: 0
    scale_mean: 1
    scale_std: 0.1
    constant_multiplier_color_mean: 0
    constant_multiplier_color_std: 0
    value_cap_min: 0
    value_cap_max: 0
    passthrough_probability: 0.5
  }
}
layer {
  name: "conv1"
  type: "Convolution"
  bottom: "data"
  top: "conv1"
  param {
    lr_mult: 1
    decay_mult: 1
  }
  param {
    lr_mult: 2
    decay_mult: 0
  }
  convolution_param {
    num_output: 36
    kernel_size: 3
    stride: 2
    weight_filler {
      type: "xavier"
    }
  }
}
layer {
  name: "conv1_inv"
  type: "Power"
  bottom: "conv1"
  top: "conv1_inv"
  power_param {
    power: 1
    scale: -1
    shift: 0
  }
}
layer {
  name: "conv1_inv_relu"
  type: "ReLU"
  bottom: "conv1_inv"
  top: "conv1_inv"
}
layer {
  name: "relu1"
  type: "ReLU"
  bottom: "conv1"
  top: "conv1_pos"
}
layer {
  name: "conv2"
  type: "Convolution"
  bottom: "conv1_pos"
  top: "conv2"
  param {
    name: "conv2_w"
    lr_mult: 1
    decay_mult: 1
  }
  param {
    name: "conv2_b"
    lr_mult: 2
    decay_mult: 0
  }
  convolution_param {
    num_output: 128
    kernel_size: 3
    stride: 2
    weight_filler {
      type: "xavier"
    }
  }
}
layer {
  name: "conv2_inv"
  type: "Convolution"
  bottom: "conv1_inv"
  top: "conv2_inv"
  param {
    name: "conv2_inv_w"
    lr_mult: 1
    decay_mult: 1
  }
  param {
    name: "conv2_inv_b"
    lr_mult: 2
    decay_mult: 0
  }
  propagate_down: false
  convolution_param {
    num_output: 128
    kernel_size: 3
    stride: 2
    weight_filler {
      type: "xavier"
    }
  }
}
layer {
  name: "block_output"
  type: "Concat"
  bottom: "conv2"
  bottom: "conv2_inv"
  top: "block_output"
}
layer {
  name: "block_output_prelu"
  type: "PReLU"
  bottom: "block_output"
  top: "block_output"
  prelu_param {
    filler {
      type: "constant"
      value: 0.01
    }
  }
}
layer {
  name: "fc_10"
  type: "InnerProduct"
  bottom: "block_output"
  top: "fc_10"
  param {
    lr_mult: 5
    decay_mult: 1
  }
  param {
    lr_mult: 10
    decay_mult: 0
  }
  inner_product_param {
    num_output: 10
    weight_filler {
      type: "gaussian"
      std: 0.01
    }
    bias_filler {
      type: "constant"
      value: 0
    }
  }
}
layer {
  name: "loss"
  type: "SoftmaxWithLoss"
  bottom: "fc_10"
  bottom: "label"
  top: "loss"
  include {
    phase: TRAIN
  }
}
I0318 11:38:41.362751  2360 layer_factory.hpp:77] Creating layer data
I0318 11:38:41.362782  2360 net.cpp:116] Creating Layer data
I0318 11:38:41.362788  2360 net.cpp:424] data -> data
I0318 11:38:41.362807  2360 net.cpp:424] data -> label
I0318 11:38:41.362818  2360 image_data_layer.cpp:38] Opening file train.txt
I0318 11:38:41.375113  2360 image_data_layer.cpp:53] Shuffling data
I0318 11:38:41.379236  2360 image_data_layer.cpp:58] A total of 60000 images.
I0318 11:38:41.389367  2360 image_data_layer.cpp:85] output data size: 300,1,28,28
I0318 11:38:41.391799  2360 net.cpp:166] Setting up data
I0318 11:38:41.391819  2360 net.cpp:173] Top shape: 300 1 28 28 (235200)
I0318 11:38:41.391822  2360 net.cpp:173] Top shape: 300 (300)
I0318 11:38:41.391824  2360 net.cpp:181] Memory required for data: 942000
I0318 11:38:41.391834  2360 layer_factory.hpp:77] Creating layer data_scaling
I0318 11:38:41.391844  2360 net.cpp:116] Creating Layer data_scaling
I0318 11:38:41.391849  2360 net.cpp:450] data_scaling <- data
I0318 11:38:41.391858  2360 net.cpp:411] data_scaling -> data (in-place)
I0318 11:38:41.391868  2360 net.cpp:166] Setting up data_scaling
I0318 11:38:41.391871  2360 net.cpp:173] Top shape: 300 1 28 28 (235200)
I0318 11:38:41.391873  2360 net.cpp:181] Memory required for data: 1882800
I0318 11:38:41.391876  2360 layer_factory.hpp:77] Creating layer data_drop
I0318 11:38:41.391883  2360 net.cpp:116] Creating Layer data_drop
I0318 11:38:41.391885  2360 net.cpp:450] data_drop <- data
I0318 11:38:41.391891  2360 net.cpp:411] data_drop -> data (in-place)
I0318 11:38:41.391966  2360 net.cpp:166] Setting up data_drop
I0318 11:38:41.391973  2360 net.cpp:173] Top shape: 300 1 28 28 (235200)
I0318 11:38:41.391976  2360 net.cpp:181] Memory required for data: 2823600
I0318 11:38:41.391978  2360 layer_factory.hpp:77] Creating layer data_vision
I0318 11:38:41.391984  2360 net.cpp:116] Creating Layer data_vision
I0318 11:38:41.391988  2360 net.cpp:450] data_vision <- data
I0318 11:38:41.391990  2360 net.cpp:411] data_vision -> data (in-place)
I0318 11:38:41.391999  2360 net.cpp:166] Setting up data_vision
I0318 11:38:41.392001  2360 net.cpp:173] Top shape: 300 1 28 28 (235200)
I0318 11:38:41.392004  2360 net.cpp:181] Memory required for data: 3764400
I0318 11:38:41.392005  2360 layer_factory.hpp:77] Creating layer conv1
I0318 11:38:41.392021  2360 net.cpp:116] Creating Layer conv1
I0318 11:38:41.392024  2360 net.cpp:450] conv1 <- data
I0318 11:38:41.392030  2360 net.cpp:424] conv1 -> conv1
I0318 11:38:41.561444  2360 net.cpp:166] Setting up conv1
I0318 11:38:41.561473  2360 net.cpp:173] Top shape: 300 36 13 13 (1825200)
I0318 11:38:41.561476  2360 net.cpp:181] Memory required for data: 11065200
I0318 11:38:41.561491  2360 layer_factory.hpp:77] Creating layer conv1_conv1_0_split
I0318 11:38:41.561501  2360 net.cpp:116] Creating Layer conv1_conv1_0_split
I0318 11:38:41.561504  2360 net.cpp:450] conv1_conv1_0_split <- conv1
I0318 11:38:41.561509  2360 net.cpp:424] conv1_conv1_0_split -> conv1_conv1_0_split_0
I0318 11:38:41.561518  2360 net.cpp:424] conv1_conv1_0_split -> conv1_conv1_0_split_1
I0318 11:38:41.561553  2360 net.cpp:166] Setting up conv1_conv1_0_split
I0318 11:38:41.561558  2360 net.cpp:173] Top shape: 300 36 13 13 (1825200)
I0318 11:38:41.561560  2360 net.cpp:173] Top shape: 300 36 13 13 (1825200)
I0318 11:38:41.561563  2360 net.cpp:181] Memory required for data: 25666800
I0318 11:38:41.561565  2360 layer_factory.hpp:77] Creating layer conv1_inv
I0318 11:38:41.561573  2360 net.cpp:116] Creating Layer conv1_inv
I0318 11:38:41.561575  2360 net.cpp:450] conv1_inv <- conv1_conv1_0_split_0
I0318 11:38:41.561578  2360 net.cpp:424] conv1_inv -> conv1_inv
I0318 11:38:41.561596  2360 net.cpp:166] Setting up conv1_inv
I0318 11:38:41.561600  2360 net.cpp:173] Top shape: 300 36 13 13 (1825200)
I0318 11:38:41.561602  2360 net.cpp:181] Memory required for data: 32967600
I0318 11:38:41.561619  2360 layer_factory.hpp:77] Creating layer conv1_inv_relu
I0318 11:38:41.561625  2360 net.cpp:116] Creating Layer conv1_inv_relu
I0318 11:38:41.561626  2360 net.cpp:450] conv1_inv_relu <- conv1_inv
I0318 11:38:41.561632  2360 net.cpp:411] conv1_inv_relu -> conv1_inv (in-place)
I0318 11:38:41.561914  2360 net.cpp:166] Setting up conv1_inv_relu
I0318 11:38:41.561926  2360 net.cpp:173] Top shape: 300 36 13 13 (1825200)
I0318 11:38:41.561929  2360 net.cpp:181] Memory required for data: 40268400
I0318 11:38:41.561931  2360 layer_factory.hpp:77] Creating layer relu1
I0318 11:38:41.561939  2360 net.cpp:116] Creating Layer relu1
I0318 11:38:41.561944  2360 net.cpp:450] relu1 <- conv1_conv1_0_split_1
I0318 11:38:41.561947  2360 net.cpp:424] relu1 -> conv1_pos
I0318 11:38:41.562100  2360 net.cpp:166] Setting up relu1
I0318 11:38:41.562109  2360 net.cpp:173] Top shape: 300 36 13 13 (1825200)
I0318 11:38:41.562111  2360 net.cpp:181] Memory required for data: 47569200
I0318 11:38:41.562114  2360 layer_factory.hpp:77] Creating layer conv2
I0318 11:38:41.562125  2360 net.cpp:116] Creating Layer conv2
I0318 11:38:41.562129  2360 net.cpp:450] conv2 <- conv1_pos
I0318 11:38:41.562134  2360 net.cpp:424] conv2 -> conv2
I0318 11:38:41.563704  2360 net.cpp:166] Setting up conv2
I0318 11:38:41.563719  2360 net.cpp:173] Top shape: 300 128 6 6 (1382400)
I0318 11:38:41.563721  2360 net.cpp:181] Memory required for data: 53098800
I0318 11:38:41.563730  2360 layer_factory.hpp:77] Creating layer conv2_inv
I0318 11:38:41.563738  2360 net.cpp:116] Creating Layer conv2_inv
I0318 11:38:41.563741  2360 net.cpp:450] conv2_inv <- conv1_inv
I0318 11:38:41.563747  2360 net.cpp:424] conv2_inv -> conv2_inv
I0318 11:38:41.564815  2360 net.cpp:166] Setting up conv2_inv
I0318 11:38:41.564828  2360 net.cpp:173] Top shape: 300 128 6 6 (1382400)
I0318 11:38:41.564831  2360 net.cpp:181] Memory required for data: 58628400
I0318 11:38:41.564838  2360 layer_factory.hpp:77] Creating layer block_output
I0318 11:38:41.564843  2360 net.cpp:116] Creating Layer block_output
I0318 11:38:41.564846  2360 net.cpp:450] block_output <- conv2
I0318 11:38:41.564849  2360 net.cpp:450] block_output <- conv2_inv
I0318 11:38:41.564855  2360 net.cpp:424] block_output -> block_output
I0318 11:38:41.564879  2360 net.cpp:166] Setting up block_output
I0318 11:38:41.564884  2360 net.cpp:173] Top shape: 300 256 6 6 (2764800)
I0318 11:38:41.564887  2360 net.cpp:181] Memory required for data: 69687600
I0318 11:38:41.564889  2360 layer_factory.hpp:77] Creating layer block_output_prelu
I0318 11:38:41.564898  2360 net.cpp:116] Creating Layer block_output_prelu
I0318 11:38:41.564901  2360 net.cpp:450] block_output_prelu <- block_output
I0318 11:38:41.564905  2360 net.cpp:411] block_output_prelu -> block_output (in-place)
I0318 11:38:41.565346  2360 net.cpp:166] Setting up block_output_prelu
I0318 11:38:41.565358  2360 net.cpp:173] Top shape: 300 256 6 6 (2764800)
I0318 11:38:41.565361  2360 net.cpp:181] Memory required for data: 80746800
I0318 11:38:41.565366  2360 layer_factory.hpp:77] Creating layer fc_10
I0318 11:38:41.565374  2360 net.cpp:116] Creating Layer fc_10
I0318 11:38:41.565377  2360 net.cpp:450] fc_10 <- block_output
I0318 11:38:41.565382  2360 net.cpp:424] fc_10 -> fc_10
I0318 11:38:41.567903  2360 net.cpp:166] Setting up fc_10
I0318 11:38:41.567916  2360 net.cpp:173] Top shape: 300 10 (3000)
I0318 11:38:41.567919  2360 net.cpp:181] Memory required for data: 80758800
I0318 11:38:41.567926  2360 layer_factory.hpp:77] Creating layer loss
I0318 11:38:41.567932  2360 net.cpp:116] Creating Layer loss
I0318 11:38:41.567935  2360 net.cpp:450] loss <- fc_10
I0318 11:38:41.567939  2360 net.cpp:450] loss <- label
I0318 11:38:41.567942  2360 net.cpp:424] loss -> loss
I0318 11:38:41.567951  2360 layer_factory.hpp:77] Creating layer loss
…
I0318 11:38:41.569164  2360 net.cpp:338] The NetState phase (1) differed from the phase (0) specified by a rule in layer data_vision
I0318 11:38:41.569171  2360 net.cpp:338] The NetState phase (1) differed from the phase (0) specified by a rule in layer loss
I0318 11:38:41.569288  2360 net.cpp:74] Initializing net from parameters: 
name: "MNIST_NET"
state {
  phase: TEST
}
layer {
  name: "data"
  type: "ImageData"
  top: "data"
  top: "label"
  include {
    phase: TEST
  }
  image_data_param {
    source: "test.txt"
    batch_size: 100
    crop_size: 27
    shuffle: true
    is_color: false
  }
}
layer {
  name: "data_scaling"
  type: "Power"
  bottom: "data"
  top: "data"
  power_param {
    power: 1
    scale: 0.0078125
    shift: -1
  }
}
layer {
  name: "conv1"
  type: "Convolution"
  bottom: "data"
  top: "conv1"
  param {
    lr_mult: 1
    decay_mult: 1
  }
  param {
    lr_mult: 2
    decay_mult: 0
  }
  convolution_param {
    num_output: 36
    kernel_size: 3
    stride: 2
    weight_filler {
      type: "xavier"
    }
  }
}
layer {
  name: "conv1_inv"
  type: "Power"
  bottom: "conv1"
  top: "conv1_inv"
  power_param {
    power: 1
    scale: -1
    shift: 0
  }
}
layer {
  name: "conv1_inv_relu"
  type: "ReLU"
  bottom: "conv1_inv"
  top: "conv1_inv"
}
layer {
  name: "relu1"
  type: "ReLU"
  bottom: "conv1"
  top: "conv1_pos"
}
layer {
  name: "conv2"
  type: "Convolution"
  bottom: "conv1_pos"
  top: "conv2"
  param {
    name: "conv2_w"
    lr_mult: 1
    decay_mult: 1
  }
  param {
    name: "conv2_b"
    lr_mult: 2
    decay_mult: 0
  }
  convolution_param {
    num_output: 128
    kernel_size: 3
    stride: 2
    weight_filler {
      type: "xavier"
    }
  }
}
layer {
  name: "conv2_inv"
  type: "Convolution"
  bottom: "conv1_inv"
  top: "conv2_inv"
  param {
    name: "conv2_inv_w"
    lr_mult: 1
    decay_mult: 1
  }
  param {
    name: "conv2_inv_b"
    lr_mult: 2
    decay_mult: 0
  }
  propagate_down: false
  convolution_param {
    num_output: 128
    kernel_size: 3
    stride: 2
    weight_filler {
      type: "xavier"
    }
  }
}
layer {
  name: "block_output"
  type: "Concat"
  bottom: "conv2"
  bottom: "conv2_inv"
  top: "block_output"
}
layer {
  name: "block_output_prelu"
  type: "PReLU"
  bottom: "block_output"
  top: "block_output"
  prelu_param {
    filler {
      type: "constant"
      value: 0.01
    }
  }
}
layer {
  name: "fc_10"
  type: "InnerProduct"
  bottom: "block_output"
  top: "fc_10"
  param {
    lr_mult: 5
    decay_mult: 1
  }
  param {
    lr_mult: 10
    decay_mult: 0
  }
  inner_product_param {
    num_output: 10
    weight_filler {
      type: "gaussian"
      std: 0.01
    }
    bias_filler {
      type: "constant"
      value: 0
    }
  }
}
layer {
  name: "accuracy"
  type: "Accuracy"
  bottom: "fc_10"
  bottom: "label"
  top: "accuracy"
  include {
    phase: TEST
  }
}
I0318 11:38:41.569351  2360 layer_factory.hpp:77] Creating layer data
I0318 11:38:41.569362  2360 net.cpp:116] Creating Layer data
I0318 11:38:41.569368  2360 net.cpp:424] data -> data
I0318 11:38:41.569375  2360 net.cpp:424] data -> label
I0318 11:38:41.569382  2360 image_data_layer.cpp:38] Opening file test.txt
I0318 11:38:41.571521  2360 image_data_layer.cpp:53] Shuffling data
I0318 11:38:41.572096  2360 image_data_layer.cpp:58] A total of 10000 images.
I0318 11:38:41.572229  2360 image_data_layer.cpp:85] output data size: 100,1,28,28
I0318 11:38:41.573274  2360 net.cpp:166] Setting up data
I0318 11:38:41.573287  2360 net.cpp:173] Top shape: 100 1 28 28 (78400)
I0318 11:38:41.573292  2360 net.cpp:173] Top shape: 100 (100)
I0318 11:38:41.573293  2360 net.cpp:181] Memory required for data: 314000
I0318 11:38:41.573297  2360 layer_factory.hpp:77] Creating layer data_scaling
I0318 11:38:41.573303  2360 net.cpp:116] Creating Layer data_scaling
I0318 11:38:41.573305  2360 net.cpp:450] data_scaling <- data
I0318 11:38:41.573310  2360 net.cpp:411] data_scaling -> data (in-place)
I0318 11:38:41.573315  2360 net.cpp:166] Setting up data_scaling
I0318 11:38:41.573319  2360 net.cpp:173] Top shape: 100 1 28 28 (78400)
I0318 11:38:41.573321  2360 net.cpp:181] Memory required for data: 627600
I0318 11:38:41.573323  2360 layer_factory.hpp:77] Creating layer conv1
I0318 11:38:41.573330  2360 net.cpp:116] Creating Layer conv1
I0318 11:38:41.573333  2360 net.cpp:450] conv1 <- data
I0318 11:38:41.573336  2360 net.cpp:424] conv1 -> conv1
I0318 11:38:41.574465  2360 net.cpp:166] Setting up conv1
I0318 11:38:41.574478  2360 net.cpp:173] Top shape: 100 36 13 13 (608400)
I0318 11:38:41.574481  2360 net.cpp:181] Memory required for data: 3061200
I0318 11:38:41.574488  2360 layer_factory.hpp:77] Creating layer conv1_conv1_0_split
I0318 11:38:41.574494  2360 net.cpp:116] Creating Layer conv1_conv1_0_split
I0318 11:38:41.574497  2360 net.cpp:450] conv1_conv1_0_split <- conv1
I0318 11:38:41.574501  2360 net.cpp:424] conv1_conv1_0_split -> conv1_conv1_0_split_0
I0318 11:38:41.574508  2360 net.cpp:424] conv1_conv1_0_split -> conv1_conv1_0_split_1
I0318 11:38:41.574542  2360 net.cpp:166] Setting up conv1_conv1_0_split
I0318 11:38:41.574548  2360 net.cpp:173] Top shape: 100 36 13 13 (608400)
I0318 11:38:41.574550  2360 net.cpp:173] Top shape: 100 36 13 13 (608400)
I0318 11:38:41.574553  2360 net.cpp:181] Memory required for data: 7928400
I0318 11:38:41.574555  2360 layer_factory.hpp:77] Creating layer conv1_inv
I0318 11:38:41.574560  2360 net.cpp:116] Creating Layer conv1_inv
I0318 11:38:41.574563  2360 net.cpp:450] conv1_inv <- conv1_conv1_0_split_0
I0318 11:38:41.574566  2360 net.cpp:424] conv1_inv -> conv1_inv
I0318 11:38:41.574585  2360 net.cpp:166] Setting up conv1_inv
I0318 11:38:41.574589  2360 net.cpp:173] Top shape: 100 36 13 13 (608400)
I0318 11:38:41.574591  2360 net.cpp:181] Memory required for data: 10362000
I0318 11:38:41.574594  2360 layer_factory.hpp:77] Creating layer conv1_inv_relu
I0318 11:38:41.574596  2360 net.cpp:116] Creating Layer conv1_inv_relu
I0318 11:38:41.574599  2360 net.cpp:450] conv1_inv_relu <- conv1_inv
I0318 11:38:41.574604  2360 net.cpp:411] conv1_inv_relu -> conv1_inv (in-place)
I0318 11:38:41.574986  2360 net.cpp:166] Setting up conv1_inv_relu
I0318 11:38:41.574998  2360 net.cpp:173] Top shape: 100 36 13 13 (608400)
I0318 11:38:41.575001  2360 net.cpp:181] Memory required for data: 12795600
I0318 11:38:41.575006  2360 layer_factory.hpp:77] Creating layer relu1
I0318 11:38:41.575021  2360 net.cpp:116] Creating Layer relu1
I0318 11:38:41.575022  2360 net.cpp:450] relu1 <- conv1_conv1_0_split_1
I0318 11:38:41.575028  2360 net.cpp:424] relu1 -> conv1_pos
I0318 11:38:41.575273  2360 net.cpp:166] Setting up relu1
I0318 11:38:41.575284  2360 net.cpp:173] Top shape: 100 36 13 13 (608400)
I0318 11:38:41.575285  2360 net.cpp:181] Memory required for data: 15229200
I0318 11:38:41.575289  2360 layer_factory.hpp:77] Creating layer conv2
I0318 11:38:41.575306  2360 net.cpp:116] Creating Layer conv2
I0318 11:38:41.575309  2360 net.cpp:450] conv2 <- conv1_pos
I0318 11:38:41.575316  2360 net.cpp:424] conv2 -> conv2
I0318 11:38:41.576478  2360 net.cpp:166] Setting up conv2
I0318 11:38:41.576490  2360 net.cpp:173] Top shape: 100 128 6 6 (460800)
I0318 11:38:41.576493  2360 net.cpp:181] Memory required for data: 17072400
I0318 11:38:41.576500  2360 layer_factory.hpp:77] Creating layer conv2_inv
I0318 11:38:41.576511  2360 net.cpp:116] Creating Layer conv2_inv
I0318 11:38:41.576514  2360 net.cpp:450] conv2_inv <- conv1_inv
I0318 11:38:41.576520  2360 net.cpp:424] conv2_inv -> conv2_inv
I0318 11:38:41.577709  2360 net.cpp:166] Setting up conv2_inv
I0318 11:38:41.577723  2360 net.cpp:173] Top shape: 100 128 6 6 (460800)
I0318 11:38:41.577725  2360 net.cpp:181] Memory required for data: 18915600
I0318 11:38:41.577733  2360 layer_factory.hpp:77] Creating layer block_output
I0318 11:38:41.577738  2360 net.cpp:116] Creating Layer block_output
I0318 11:38:41.577740  2360 net.cpp:450] block_output <- conv2
I0318 11:38:41.577744  2360 net.cpp:450] block_output <- conv2_inv
I0318 11:38:41.577747  2360 net.cpp:424] block_output -> block_output
I0318 11:38:41.577786  2360 net.cpp:166] Setting up block_output
I0318 11:38:41.577793  2360 net.cpp:173] Top shape: 100 256 6 6 (921600)
I0318 11:38:41.577796  2360 net.cpp:181] Memory required for data: 22602000
I0318 11:38:41.577798  2360 layer_factory.hpp:77] Creating layer block_output_prelu
I0318 11:38:41.577803  2360 net.cpp:116] Creating Layer block_output_prelu
I0318 11:38:41.577806  2360 net.cpp:450] block_output_prelu <- block_output
I0318 11:38:41.577810  2360 net.cpp:411] block_output_prelu -> block_output (in-place)
I0318 11:38:41.577903  2360 net.cpp:166] Setting up block_output_prelu
I0318 11:38:41.577911  2360 net.cpp:173] Top shape: 100 256 6 6 (921600)
I0318 11:38:41.577913  2360 net.cpp:181] Memory required for data: 26288400
I0318 11:38:41.577919  2360 layer_factory.hpp:77] Creating layer fc_10
I0318 11:38:41.577924  2360 net.cpp:116] Creating Layer fc_10
I0318 11:38:41.577927  2360 net.cpp:450] fc_10 <- block_output
I0318 11:38:41.577931  2360 net.cpp:424] fc_10 -> fc_10
I0318 11:38:41.580111  2360 net.cpp:166] Setting up fc_10
I0318 11:38:41.580119  2360 net.cpp:173] Top shape: 100 10 (1000)
I0318 11:38:41.580121  2360 net.cpp:181] Memory required for data: 26292400
I0318 11:38:41.580128  2360 layer_factory.hpp:77] Creating layer accuracy
I0318 11:38:41.580135  2360 net.cpp:116] Creating Layer accuracy
I0318 11:38:41.580137  2360 net.cpp:450] accuracy <- fc_10
I0318 11:38:41.580140  2360 net.cpp:450] accuracy <- label
I0318 11:38:41.580144  2360 net.cpp:424] accuracy -> accuracy
…
