…
I0318 13:17:51.739369  2771 net.cpp:338] The NetState phase (0) differed from the phase (1) specified by a rule in layer data
I0318 13:17:51.739387  2771 net.cpp:338] The NetState phase (0) differed from the phase (1) specified by a rule in layer accuracy
I0318 13:17:51.739500  2771 net.cpp:74] Initializing net from parameters: 
name: "MNIST_NET"
state {
  phase: TRAIN
  level: 0
  stage: ""
}
layer {
  name: "data"
  type: "ImageData"
  top: "data"
  top: "label"
  include {
    phase: TRAIN
  }
  image_data_param {
    source: "train.txt"
    batch_size: 300
    crop_size: 27
    shuffle: true
    is_color: false
  }
}
layer {
  name: "data_scaling"
  type: "Power"
  bottom: "data"
  top: "data"
  power_param {
    power: 1
    scale: 0.0078125
    shift: -1
  }
}
layer {
  name: "data_drop"
  type: "Dropout"
  bottom: "data"
  top: "data"
  include {
    phase: TRAIN
  }
  dropout_param {
    dropout_ratio: 0.01
  }
}
layer {
  name: "data_vision"
  type: "VisionTransformation"
  bottom: "data"
  top: "data"
  include {
    phase: TRAIN
  }
  vision_transformation_param {
    noise_mean: 0
    noise_std: 0
    noise_std_small: 0
    rotate_min_angle: -20
    rotate_max_angle: 20
    rotate_fill_value: 0
    per_pixel_multiplier_mean: 1
    per_pixel_multiplier_std: 0
    rescale_probability: 0.25
    constant_multiplier_mean: 1
    constant_multiplier_std: 0
    scale_mean: 1
    scale_std: 0.1
    constant_multiplier_color_mean: 0
    constant_multiplier_color_std: 0
    value_cap_min: 0
    value_cap_max: 0
    passthrough_probability: 0.5
  }
}
layer {
  name: "conv1"
  type: "Convolution"
  bottom: "data"
  top: "conv1"
  param {
    lr_mult: 1
    decay_mult: 1
  }
  param {
    lr_mult: 2
    decay_mult: 0
  }
  convolution_param {
    num_output: 36
    kernel_size: 3
    stride: 2
    weight_filler {
      type: "xavier"
    }
  }
}
layer {
  name: "relu1"
  type: "ReLU"
  bottom: "conv1"
  top: "conv1_pos"
}
layer {
  name: "conv2"
  type: "Convolution"
  bottom: "conv1_pos"
  top: "conv2"
  param {
    name: "conv2_w"
    lr_mult: 1
    decay_mult: 1
  }
  param {
    name: "conv2_b"
    lr_mult: 2
    decay_mult: 0
  }
  convolution_param {
    num_output: 128
    kernel_size: 3
    stride: 2
    weight_filler {
      type: "xavier"
    }
  }
}
layer {
  name: "block_output"
  type: "Concat"
  bottom: "conv2"
  top: "block_output"
}
layer {
  name: "block_output_prelu"
  type: "PReLU"
  bottom: "block_output"
  top: "block_output"
  prelu_param {
    filler {
      type: "constant"
      value: 0.01
    }
  }
}
layer {
  name: "fc_10"
  type: "InnerProduct"
  bottom: "block_output"
  top: "fc_10"
  param {
    lr_mult: 5
    decay_mult: 1
  }
  param {
    lr_mult: 10
    decay_mult: 0
  }
  inner_product_param {
    num_output: 10
    weight_filler {
      type: "gaussian"
      std: 0.01
    }
    bias_filler {
      type: "constant"
      value: 0
    }
  }
}
layer {
  name: "loss"
  type: "SoftmaxWithLoss"
  bottom: "fc_10"
  bottom: "label"
  top: "loss"
  include {
    phase: TRAIN
  }
}
I0318 13:17:51.739560  2771 layer_factory.hpp:77] Creating layer data
I0318 13:17:51.739589  2771 net.cpp:116] Creating Layer data
I0318 13:17:51.739596  2771 net.cpp:424] data -> data
I0318 13:17:51.739614  2771 net.cpp:424] data -> label
I0318 13:17:51.739624  2771 image_data_layer.cpp:38] Opening file train.txt
I0318 13:17:51.751941  2771 image_data_layer.cpp:53] Shuffling data
I0318 13:17:51.756065  2771 image_data_layer.cpp:58] A total of 60000 images.
I0318 13:17:51.766316  2771 image_data_layer.cpp:85] output data size: 300,1,28,28
I0318 13:17:51.768771  2771 net.cpp:166] Setting up data
I0318 13:17:51.768790  2771 net.cpp:173] Top shape: 300 1 28 28 (235200)
I0318 13:17:51.768793  2771 net.cpp:173] Top shape: 300 (300)
I0318 13:17:51.768795  2771 net.cpp:181] Memory required for data: 942000
I0318 13:17:51.768802  2771 layer_factory.hpp:77] Creating layer data_scaling
I0318 13:17:51.768816  2771 net.cpp:116] Creating Layer data_scaling
I0318 13:17:51.768821  2771 net.cpp:450] data_scaling <- data
I0318 13:17:51.768829  2771 net.cpp:411] data_scaling -> data (in-place)
I0318 13:17:51.768839  2771 net.cpp:166] Setting up data_scaling
I0318 13:17:51.768842  2771 net.cpp:173] Top shape: 300 1 28 28 (235200)
I0318 13:17:51.768844  2771 net.cpp:181] Memory required for data: 1882800
I0318 13:17:51.768847  2771 layer_factory.hpp:77] Creating layer data_drop
I0318 13:17:51.768856  2771 net.cpp:116] Creating Layer data_drop
I0318 13:17:51.768857  2771 net.cpp:450] data_drop <- data
I0318 13:17:51.768860  2771 net.cpp:411] data_drop -> data (in-place)
I0318 13:17:51.768936  2771 net.cpp:166] Setting up data_drop
I0318 13:17:51.768944  2771 net.cpp:173] Top shape: 300 1 28 28 (235200)
I0318 13:17:51.768946  2771 net.cpp:181] Memory required for data: 2823600
I0318 13:17:51.768949  2771 layer_factory.hpp:77] Creating layer data_vision
I0318 13:17:51.768957  2771 net.cpp:116] Creating Layer data_vision
I0318 13:17:51.768959  2771 net.cpp:450] data_vision <- data
I0318 13:17:51.768965  2771 net.cpp:411] data_vision -> data (in-place)
I0318 13:17:51.768972  2771 net.cpp:166] Setting up data_vision
I0318 13:17:51.768975  2771 net.cpp:173] Top shape: 300 1 28 28 (235200)
I0318 13:17:51.768977  2771 net.cpp:181] Memory required for data: 3764400
I0318 13:17:51.768980  2771 layer_factory.hpp:77] Creating layer conv1
I0318 13:17:51.768993  2771 net.cpp:116] Creating Layer conv1
I0318 13:17:51.768996  2771 net.cpp:450] conv1 <- data
I0318 13:17:51.768999  2771 net.cpp:424] conv1 -> conv1
I0318 13:17:51.938959  2771 net.cpp:166] Setting up conv1
I0318 13:17:51.938987  2771 net.cpp:173] Top shape: 300 36 13 13 (1825200)
I0318 13:17:51.938990  2771 net.cpp:181] Memory required for data: 11065200
I0318 13:17:51.939005  2771 layer_factory.hpp:77] Creating layer relu1
I0318 13:17:51.939015  2771 net.cpp:116] Creating Layer relu1
I0318 13:17:51.939019  2771 net.cpp:450] relu1 <- conv1
I0318 13:17:51.939024  2771 net.cpp:424] relu1 -> conv1_pos
I0318 13:17:51.939317  2771 net.cpp:166] Setting up relu1
I0318 13:17:51.939329  2771 net.cpp:173] Top shape: 300 36 13 13 (1825200)
I0318 13:17:51.939332  2771 net.cpp:181] Memory required for data: 18366000
I0318 13:17:51.939334  2771 layer_factory.hpp:77] Creating layer conv2
I0318 13:17:51.939344  2771 net.cpp:116] Creating Layer conv2
I0318 13:17:51.939347  2771 net.cpp:450] conv2 <- conv1_pos
I0318 13:17:51.939352  2771 net.cpp:424] conv2 -> conv2
I0318 13:17:51.940873  2771 net.cpp:166] Setting up conv2
I0318 13:17:51.940886  2771 net.cpp:173] Top shape: 300 128 6 6 (1382400)
I0318 13:17:51.940889  2771 net.cpp:181] Memory required for data: 23895600
I0318 13:17:51.940896  2771 layer_factory.hpp:77] Creating layer block_output
I0318 13:17:51.940901  2771 net.cpp:116] Creating Layer block_output
I0318 13:17:51.940904  2771 net.cpp:450] block_output <- conv2
I0318 13:17:51.940908  2771 net.cpp:424] block_output -> block_output
I0318 13:17:51.940935  2771 net.cpp:166] Setting up block_output
I0318 13:17:51.940940  2771 net.cpp:173] Top shape: 300 128 6 6 (1382400)
I0318 13:17:51.940943  2771 net.cpp:181] Memory required for data: 29425200
I0318 13:17:51.940945  2771 layer_factory.hpp:77] Creating layer block_output_prelu
I0318 13:17:51.940953  2771 net.cpp:116] Creating Layer block_output_prelu
I0318 13:17:51.940954  2771 net.cpp:450] block_output_prelu <- block_output
I0318 13:17:51.940958  2771 net.cpp:411] block_output_prelu -> block_output (in-place)
I0318 13:17:51.941390  2771 net.cpp:166] Setting up block_output_prelu
I0318 13:17:51.941416  2771 net.cpp:173] Top shape: 300 128 6 6 (1382400)
I0318 13:17:51.941417  2771 net.cpp:181] Memory required for data: 34954800
I0318 13:17:51.941424  2771 layer_factory.hpp:77] Creating layer fc_10
I0318 13:17:51.941431  2771 net.cpp:116] Creating Layer fc_10
I0318 13:17:51.941433  2771 net.cpp:450] fc_10 <- block_output
I0318 13:17:51.941438  2771 net.cpp:424] fc_10 -> fc_10
I0318 13:17:51.942579  2771 net.cpp:166] Setting up fc_10
I0318 13:17:51.942587  2771 net.cpp:173] Top shape: 300 10 (3000)
I0318 13:17:51.942590  2771 net.cpp:181] Memory required for data: 34966800
I0318 13:17:51.942595  2771 layer_factory.hpp:77] Creating layer loss
I0318 13:17:51.942600  2771 net.cpp:116] Creating Layer loss
I0318 13:17:51.942602  2771 net.cpp:450] loss <- fc_10
I0318 13:17:51.942605  2771 net.cpp:450] loss <- label
I0318 13:17:51.942610  2771 net.cpp:424] loss -> loss
I0318 13:17:51.942620  2771 layer_factory.hpp:77] Creating layer loss
…
I0318 13:17:51.943615  2771 net.cpp:338] The NetState phase (1) differed from the phase (0) specified by a rule in layer data_vision
I0318 13:17:51.943620  2771 net.cpp:338] The NetState phase (1) differed from the phase (0) specified by a rule in layer loss
I0318 13:17:51.943711  2771 net.cpp:74] Initializing net from parameters: 
name: "MNIST_NET"
state {
  phase: TEST
}
layer {
  name: "data"
  type: "ImageData"
  top: "data"
  top: "label"
  include {
    phase: TEST
  }
  image_data_param {
    source: "test.txt"
    batch_size: 100
    crop_size: 27
    shuffle: true
    is_color: false
  }
}
layer {
  name: "data_scaling"
  type: "Power"
  bottom: "data"
  top: "data"
  power_param {
    power: 1
    scale: 0.0078125
    shift: -1
  }
}
layer {
  name: "conv1"
  type: "Convolution"
  bottom: "data"
  top: "conv1"
  param {
    lr_mult: 1
    decay_mult: 1
  }
  param {
    lr_mult: 2
    decay_mult: 0
  }
  convolution_param {
    num_output: 36
    kernel_size: 3
    stride: 2
    weight_filler {
      type: "xavier"
    }
  }
}
layer {
  name: "relu1"
  type: "ReLU"
  bottom: "conv1"
  top: "conv1_pos"
}
layer {
  name: "conv2"
  type: "Convolution"
  bottom: "conv1_pos"
  top: "conv2"
  param {
    name: "conv2_w"
    lr_mult: 1
    decay_mult: 1
  }
  param {
    name: "conv2_b"
    lr_mult: 2
    decay_mult: 0
  }
  convolution_param {
    num_output: 128
    kernel_size: 3
    stride: 2
    weight_filler {
      type: "xavier"
    }
  }
}
layer {
  name: "block_output"
  type: "Concat"
  bottom: "conv2"
  top: "block_output"
}
layer {
  name: "block_output_prelu"
  type: "PReLU"
  bottom: "block_output"
  top: "block_output"
  prelu_param {
    filler {
      type: "constant"
      value: 0.01
    }
  }
}
layer {
  name: "fc_10"
  type: "InnerProduct"
  bottom: "block_output"
  top: "fc_10"
  param {
    lr_mult: 5
    decay_mult: 1
  }
  param {
    lr_mult: 10
    decay_mult: 0
  }
  inner_product_param {
    num_output: 10
    weight_filler {
      type: "gaussian"
      std: 0.01
    }
    bias_filler {
      type: "constant"
      value: 0
    }
  }
}
layer {
  name: "accuracy"
  type: "Accuracy"
  bottom: "fc_10"
  bottom: "label"
  top: "accuracy"
  include {
    phase: TEST
  }
}
I0318 13:17:51.943763  2771 layer_factory.hpp:77] Creating layer data
I0318 13:17:51.943774  2771 net.cpp:116] Creating Layer data
I0318 13:17:51.943778  2771 net.cpp:424] data -> data
I0318 13:17:51.943783  2771 net.cpp:424] data -> label
I0318 13:17:51.943789  2771 image_data_layer.cpp:38] Opening file test.txt
I0318 13:17:51.945828  2771 image_data_layer.cpp:53] Shuffling data
I0318 13:17:51.946403  2771 image_data_layer.cpp:58] A total of 10000 images.
I0318 13:17:51.946532  2771 image_data_layer.cpp:85] output data size: 100,1,28,28
I0318 13:17:51.947585  2771 net.cpp:166] Setting up data
I0318 13:17:51.947597  2771 net.cpp:173] Top shape: 100 1 28 28 (78400)
I0318 13:17:51.947600  2771 net.cpp:173] Top shape: 100 (100)
I0318 13:17:51.947602  2771 net.cpp:181] Memory required for data: 314000
I0318 13:17:51.947607  2771 layer_factory.hpp:77] Creating layer data_scaling
I0318 13:17:51.947613  2771 net.cpp:116] Creating Layer data_scaling
I0318 13:17:51.947615  2771 net.cpp:450] data_scaling <- data
I0318 13:17:51.947619  2771 net.cpp:411] data_scaling -> data (in-place)
I0318 13:17:51.947625  2771 net.cpp:166] Setting up data_scaling
I0318 13:17:51.947628  2771 net.cpp:173] Top shape: 100 1 28 28 (78400)
I0318 13:17:51.947630  2771 net.cpp:181] Memory required for data: 627600
I0318 13:17:51.947633  2771 layer_factory.hpp:77] Creating layer conv1
I0318 13:17:51.947639  2771 net.cpp:116] Creating Layer conv1
I0318 13:17:51.947641  2771 net.cpp:450] conv1 <- data
I0318 13:17:51.947645  2771 net.cpp:424] conv1 -> conv1
I0318 13:17:51.948803  2771 net.cpp:166] Setting up conv1
I0318 13:17:51.948815  2771 net.cpp:173] Top shape: 100 36 13 13 (608400)
I0318 13:17:51.948817  2771 net.cpp:181] Memory required for data: 3061200
I0318 13:17:51.948827  2771 layer_factory.hpp:77] Creating layer relu1
I0318 13:17:51.948832  2771 net.cpp:116] Creating Layer relu1
I0318 13:17:51.948834  2771 net.cpp:450] relu1 <- conv1
I0318 13:17:51.948839  2771 net.cpp:424] relu1 -> conv1_pos
I0318 13:17:51.949219  2771 net.cpp:166] Setting up relu1
I0318 13:17:51.949230  2771 net.cpp:173] Top shape: 100 36 13 13 (608400)
I0318 13:17:51.949234  2771 net.cpp:181] Memory required for data: 5494800
I0318 13:17:51.949236  2771 layer_factory.hpp:77] Creating layer conv2
I0318 13:17:51.949246  2771 net.cpp:116] Creating Layer conv2
I0318 13:17:51.949249  2771 net.cpp:450] conv2 <- conv1_pos
I0318 13:17:51.949255  2771 net.cpp:424] conv2 -> conv2
I0318 13:17:51.950296  2771 net.cpp:166] Setting up conv2
I0318 13:17:51.950309  2771 net.cpp:173] Top shape: 100 128 6 6 (460800)
I0318 13:17:51.950311  2771 net.cpp:181] Memory required for data: 7338000
I0318 13:17:51.950319  2771 layer_factory.hpp:77] Creating layer block_output
I0318 13:17:51.950323  2771 net.cpp:116] Creating Layer block_output
I0318 13:17:51.950326  2771 net.cpp:450] block_output <- conv2
I0318 13:17:51.950331  2771 net.cpp:424] block_output -> block_output
I0318 13:17:51.950356  2771 net.cpp:166] Setting up block_output
I0318 13:17:51.950362  2771 net.cpp:173] Top shape: 100 128 6 6 (460800)
I0318 13:17:51.950364  2771 net.cpp:181] Memory required for data: 9181200
I0318 13:17:51.950366  2771 layer_factory.hpp:77] Creating layer block_output_prelu
I0318 13:17:51.950371  2771 net.cpp:116] Creating Layer block_output_prelu
I0318 13:17:51.950384  2771 net.cpp:450] block_output_prelu <- block_output
I0318 13:17:51.950388  2771 net.cpp:411] block_output_prelu -> block_output (in-place)
I0318 13:17:51.950464  2771 net.cpp:166] Setting up block_output_prelu
I0318 13:17:51.950469  2771 net.cpp:173] Top shape: 100 128 6 6 (460800)
I0318 13:17:51.950472  2771 net.cpp:181] Memory required for data: 11024400
I0318 13:17:51.950479  2771 layer_factory.hpp:77] Creating layer fc_10
I0318 13:17:51.950494  2771 net.cpp:116] Creating Layer fc_10
I0318 13:17:51.950497  2771 net.cpp:450] fc_10 <- block_output
I0318 13:17:51.950500  2771 net.cpp:424] fc_10 -> fc_10
I0318 13:17:51.951650  2771 net.cpp:166] Setting up fc_10
I0318 13:17:51.951661  2771 net.cpp:173] Top shape: 100 10 (1000)
I0318 13:17:51.951663  2771 net.cpp:181] Memory required for data: 11028400
I0318 13:17:51.951668  2771 layer_factory.hpp:77] Creating layer accuracy
I0318 13:17:51.951674  2771 net.cpp:116] Creating Layer accuracy
I0318 13:17:51.951676  2771 net.cpp:450] accuracy <- fc_10
I0318 13:17:51.951679  2771 net.cpp:450] accuracy <- label
I0318 13:17:51.951686  2771 net.cpp:424] accuracy -> accuracy
…
