…
I0318 09:59:54.320544  1825 net.cpp:338] The NetState phase (0) differed from the phase (1) specified by a rule in layer data
I0318 09:59:54.320565  1825 net.cpp:338] The NetState phase (0) differed from the phase (1) specified by a rule in layer accuracy
I0318 09:59:54.320688  1825 net.cpp:74] Initializing net from parameters: 
name: "MNIST_NET"
state {
  phase: TRAIN
  level: 0
  stage: ""
}
layer {
  name: "data"
  type: "ImageData"
  top: "data"
  top: "label"
  include {
    phase: TRAIN
  }
  image_data_param {
    source: "train.txt"
    batch_size: 300
    crop_size: 27
    shuffle: true
    is_color: false
  }
}
layer {
  name: "data_scaling"
  type: "Power"
  bottom: "data"
  top: "data"
  power_param {
    power: 1
    scale: 0.0078125
    shift: -1
  }
}
layer {
  name: "data_drop"
  type: "Dropout"
  bottom: "data"
  top: "data"
  include {
    phase: TRAIN
  }
  dropout_param {
    dropout_ratio: 0.01
  }
}
layer {
  name: "data_vision"
  type: "VisionTransformation"
  bottom: "data"
  top: "data"
  include {
    phase: TRAIN
  }
  vision_transformation_param {
    noise_mean: 0
    noise_std: 0
    noise_std_small: 0
    rotate_min_angle: -20
    rotate_max_angle: 20
    rotate_fill_value: 0
    per_pixel_multiplier_mean: 1
    per_pixel_multiplier_std: 0
    rescale_probability: 0.25
    constant_multiplier_mean: 1
    constant_multiplier_std: 0
    scale_mean: 1
    scale_std: 0.1
    constant_multiplier_color_mean: 0
    constant_multiplier_color_std: 0
    value_cap_min: 0
    value_cap_max: 0
    passthrough_probability: 0.5
  }
}
layer {
  name: "conv1"
  type: "Convolution"
  bottom: "data"
  top: "conv1"
  param {
    lr_mult: 1
    decay_mult: 1
  }
  param {
    lr_mult: 2
    decay_mult: 0
  }
  convolution_param {
    num_output: 36
    kernel_size: 3
    stride: 2
    weight_filler {
      type: "xavier"
    }
  }
}
layer {
  name: "relu1"
  type: "ReLU"
  bottom: "conv1"
  top: "conv1_pos"
}
layer {
  name: "conv2"
  type: "Convolution"
  bottom: "conv1_pos"
  top: "conv2"
  param {
    name: "conv2_w"
    lr_mult: 1
    decay_mult: 1
  }
  param {
    name: "conv2_b"
    lr_mult: 2
    decay_mult: 0
  }
  convolution_param {
    num_output: 128
    kernel_size: 3
    stride: 2
    weight_filler {
      type: "xavier"
    }
  }
}
layer {
  name: "block_output"
  type: "Concat"
  bottom: "conv2"
  top: "block_output"
}
layer {
  name: "block_output_prelu"
  type: "PReLU"
  bottom: "block_output"
  top: "block_output"
  prelu_param {
    filler {
      type: "constant"
      value: 0.01
    }
  }
}
layer {
  name: "fc_10"
  type: "InnerProduct"
  bottom: "block_output"
  top: "fc_10"
  param {
    lr_mult: 5
    decay_mult: 1
  }
  param {
    lr_mult: 10
    decay_mult: 0
  }
  inner_product_param {
    num_output: 10
    weight_filler {
      type: "gaussian"
      std: 0.01
    }
    bias_filler {
      type: "constant"
      value: 0
    }
  }
}
layer {
  name: "loss"
  type: "SoftmaxWithLoss"
  bottom: "fc_10"
  bottom: "label"
  top: "loss"
  include {
    phase: TRAIN
  }
}
I0318 09:59:54.320772  1825 layer_factory.hpp:77] Creating layer data
I0318 09:59:54.320806  1825 net.cpp:116] Creating Layer data
I0318 09:59:54.320814  1825 net.cpp:424] data -> data
I0318 09:59:54.320837  1825 net.cpp:424] data -> label
I0318 09:59:54.320852  1825 image_data_layer.cpp:38] Opening file train.txt
I0318 09:59:54.333423  1825 image_data_layer.cpp:53] Shuffling data
I0318 09:59:54.337563  1825 image_data_layer.cpp:58] A total of 60000 images.
I0318 09:59:54.347638  1825 image_data_layer.cpp:85] output data size: 300,1,28,28
I0318 09:59:54.350075  1825 net.cpp:166] Setting up data
I0318 09:59:54.350095  1825 net.cpp:173] Top shape: 300 1 28 28 (235200)
I0318 09:59:54.350102  1825 net.cpp:173] Top shape: 300 (300)
I0318 09:59:54.350106  1825 net.cpp:181] Memory required for data: 942000
I0318 09:59:54.350116  1825 layer_factory.hpp:77] Creating layer data_scaling
I0318 09:59:54.350131  1825 net.cpp:116] Creating Layer data_scaling
I0318 09:59:54.350141  1825 net.cpp:450] data_scaling <- data
I0318 09:59:54.350155  1825 net.cpp:411] data_scaling -> data (in-place)
I0318 09:59:54.350172  1825 net.cpp:166] Setting up data_scaling
I0318 09:59:54.350179  1825 net.cpp:173] Top shape: 300 1 28 28 (235200)
I0318 09:59:54.350183  1825 net.cpp:181] Memory required for data: 1882800
I0318 09:59:54.350188  1825 layer_factory.hpp:77] Creating layer data_drop
I0318 09:59:54.350200  1825 net.cpp:116] Creating Layer data_drop
I0318 09:59:54.350205  1825 net.cpp:450] data_drop <- data
I0318 09:59:54.350211  1825 net.cpp:411] data_drop -> data (in-place)
I0318 09:59:54.350273  1825 net.cpp:166] Setting up data_drop
I0318 09:59:54.350282  1825 net.cpp:173] Top shape: 300 1 28 28 (235200)
I0318 09:59:54.350286  1825 net.cpp:181] Memory required for data: 2823600
I0318 09:59:54.350291  1825 layer_factory.hpp:77] Creating layer data_vision
I0318 09:59:54.350301  1825 net.cpp:116] Creating Layer data_vision
I0318 09:59:54.350304  1825 net.cpp:450] data_vision <- data
I0318 09:59:54.350312  1825 net.cpp:411] data_vision -> data (in-place)
I0318 09:59:54.350324  1825 net.cpp:166] Setting up data_vision
I0318 09:59:54.350335  1825 net.cpp:173] Top shape: 300 1 28 28 (235200)
I0318 09:59:54.350339  1825 net.cpp:181] Memory required for data: 3764400
I0318 09:59:54.350343  1825 layer_factory.hpp:77] Creating layer conv1
I0318 09:59:54.350365  1825 net.cpp:116] Creating Layer conv1
I0318 09:59:54.350370  1825 net.cpp:450] conv1 <- data
I0318 09:59:54.350378  1825 net.cpp:424] conv1 -> conv1
I0318 09:59:54.521953  1825 net.cpp:166] Setting up conv1
I0318 09:59:54.521984  1825 net.cpp:173] Top shape: 300 36 13 13 (1825200)
I0318 09:59:54.521989  1825 net.cpp:181] Memory required for data: 11065200
I0318 09:59:54.522009  1825 layer_factory.hpp:77] Creating layer relu1
I0318 09:59:54.522023  1825 net.cpp:116] Creating Layer relu1
I0318 09:59:54.522029  1825 net.cpp:450] relu1 <- conv1
I0318 09:59:54.522037  1825 net.cpp:424] relu1 -> conv1_pos
I0318 09:59:54.522341  1825 net.cpp:166] Setting up relu1
I0318 09:59:54.522354  1825 net.cpp:173] Top shape: 300 36 13 13 (1825200)
I0318 09:59:54.522358  1825 net.cpp:181] Memory required for data: 18366000
I0318 09:59:54.522363  1825 layer_factory.hpp:77] Creating layer conv2
I0318 09:59:54.522378  1825 net.cpp:116] Creating Layer conv2
I0318 09:59:54.522383  1825 net.cpp:450] conv2 <- conv1_pos
I0318 09:59:54.522392  1825 net.cpp:424] conv2 -> conv2
I0318 09:59:54.523932  1825 net.cpp:166] Setting up conv2
I0318 09:59:54.523947  1825 net.cpp:173] Top shape: 300 128 6 6 (1382400)
I0318 09:59:54.523952  1825 net.cpp:181] Memory required for data: 23895600
I0318 09:59:54.523962  1825 layer_factory.hpp:77] Creating layer block_output
I0318 09:59:54.523970  1825 net.cpp:116] Creating Layer block_output
I0318 09:59:54.523974  1825 net.cpp:450] block_output <- conv2
I0318 09:59:54.523982  1825 net.cpp:424] block_output -> block_output
I0318 09:59:54.524019  1825 net.cpp:166] Setting up block_output
I0318 09:59:54.524029  1825 net.cpp:173] Top shape: 300 128 6 6 (1382400)
I0318 09:59:54.524032  1825 net.cpp:181] Memory required for data: 29425200
I0318 09:59:54.524036  1825 layer_factory.hpp:77] Creating layer block_output_prelu
I0318 09:59:54.524047  1825 net.cpp:116] Creating Layer block_output_prelu
I0318 09:59:54.524052  1825 net.cpp:450] block_output_prelu <- block_output
I0318 09:59:54.524058  1825 net.cpp:411] block_output_prelu -> block_output (in-place)
I0318 09:59:54.524494  1825 net.cpp:166] Setting up block_output_prelu
I0318 09:59:54.524521  1825 net.cpp:173] Top shape: 300 128 6 6 (1382400)
I0318 09:59:54.524526  1825 net.cpp:181] Memory required for data: 34954800
I0318 09:59:54.524536  1825 layer_factory.hpp:77] Creating layer fc_10
I0318 09:59:54.524546  1825 net.cpp:116] Creating Layer fc_10
I0318 09:59:54.524550  1825 net.cpp:450] fc_10 <- block_output
I0318 09:59:54.524557  1825 net.cpp:424] fc_10 -> fc_10
I0318 09:59:54.525693  1825 net.cpp:166] Setting up fc_10
I0318 09:59:54.525705  1825 net.cpp:173] Top shape: 300 10 (3000)
I0318 09:59:54.525709  1825 net.cpp:181] Memory required for data: 34966800
I0318 09:59:54.525717  1825 layer_factory.hpp:77] Creating layer loss
I0318 09:59:54.525727  1825 net.cpp:116] Creating Layer loss
I0318 09:59:54.525732  1825 net.cpp:450] loss <- fc_10
I0318 09:59:54.525737  1825 net.cpp:450] loss <- label
I0318 09:59:54.525743  1825 net.cpp:424] loss -> loss
I0318 09:59:54.525758  1825 layer_factory.hpp:77] Creating layer loss
…
I0318 09:59:54.526813  1825 net.cpp:338] The NetState phase (1) differed from the phase (0) specified by a rule in layer data_vision
I0318 09:59:54.526823  1825 net.cpp:338] The NetState phase (1) differed from the phase (0) specified by a rule in layer loss
I0318 09:59:54.526921  1825 net.cpp:74] Initializing net from parameters: 
name: "MNIST_NET"
state {
  phase: TEST
}
layer {
  name: "data"
  type: "ImageData"
  top: "data"
  top: "label"
  include {
    phase: TEST
  }
  image_data_param {
    source: "test.txt"
    batch_size: 100
    crop_size: 27
    shuffle: true
    is_color: false
  }
}
layer {
  name: "data_scaling"
  type: "Power"
  bottom: "data"
  top: "data"
  power_param {
    power: 1
    scale: 0.0078125
    shift: -1
  }
}
layer {
  name: "conv1"
  type: "Convolution"
  bottom: "data"
  top: "conv1"
  param {
    lr_mult: 1
    decay_mult: 1
  }
  param {
    lr_mult: 2
    decay_mult: 0
  }
  convolution_param {
    num_output: 36
    kernel_size: 3
    stride: 2
    weight_filler {
      type: "xavier"
    }
  }
}
layer {
  name: "relu1"
  type: "ReLU"
  bottom: "conv1"
  top: "conv1_pos"
}
layer {
  name: "conv2"
  type: "Convolution"
  bottom: "conv1_pos"
  top: "conv2"
  param {
    name: "conv2_w"
    lr_mult: 1
    decay_mult: 1
  }
  param {
    name: "conv2_b"
    lr_mult: 2
    decay_mult: 0
  }
  convolution_param {
    num_output: 128
    kernel_size: 3
    stride: 2
    weight_filler {
      type: "xavier"
    }
  }
}
layer {
  name: "block_output"
  type: "Concat"
  bottom: "conv2"
  top: "block_output"
}
layer {
  name: "block_output_prelu"
  type: "PReLU"
  bottom: "block_output"
  top: "block_output"
  prelu_param {
    filler {
      type: "constant"
      value: 0.01
    }
  }
}
layer {
  name: "fc_10"
  type: "InnerProduct"
  bottom: "block_output"
  top: "fc_10"
  param {
    lr_mult: 5
    decay_mult: 1
  }
  param {
    lr_mult: 10
    decay_mult: 0
  }
  inner_product_param {
    num_output: 10
    weight_filler {
      type: "gaussian"
      std: 0.01
    }
    bias_filler {
      type: "constant"
      value: 0
    }
  }
}
layer {
  name: "accuracy"
  type: "Accuracy"
  bottom: "fc_10"
  bottom: "label"
  top: "accuracy"
  include {
    phase: TEST
  }
}
I0318 09:59:54.526991  1825 layer_factory.hpp:77] Creating layer data
I0318 09:59:54.527009  1825 net.cpp:116] Creating Layer data
I0318 09:59:54.527017  1825 net.cpp:424] data -> data
I0318 09:59:54.527027  1825 net.cpp:424] data -> label
I0318 09:59:54.527036  1825 image_data_layer.cpp:38] Opening file test.txt
I0318 09:59:54.529366  1825 image_data_layer.cpp:53] Shuffling data
I0318 09:59:54.529949  1825 image_data_layer.cpp:58] A total of 10000 images.
I0318 09:59:54.530089  1825 image_data_layer.cpp:85] output data size: 100,1,28,28
I0318 09:59:54.530949  1825 net.cpp:166] Setting up data
I0318 09:59:54.530967  1825 net.cpp:173] Top shape: 100 1 28 28 (78400)
I0318 09:59:54.530974  1825 net.cpp:173] Top shape: 100 (100)
I0318 09:59:54.530978  1825 net.cpp:181] Memory required for data: 314000
I0318 09:59:54.530982  1825 layer_factory.hpp:77] Creating layer data_scaling
I0318 09:59:54.530992  1825 net.cpp:116] Creating Layer data_scaling
I0318 09:59:54.530997  1825 net.cpp:450] data_scaling <- data
I0318 09:59:54.531003  1825 net.cpp:411] data_scaling -> data (in-place)
I0318 09:59:54.531011  1825 net.cpp:166] Setting up data_scaling
I0318 09:59:54.531018  1825 net.cpp:173] Top shape: 100 1 28 28 (78400)
I0318 09:59:54.531021  1825 net.cpp:181] Memory required for data: 627600
I0318 09:59:54.531025  1825 layer_factory.hpp:77] Creating layer conv1
I0318 09:59:54.531036  1825 net.cpp:116] Creating Layer conv1
I0318 09:59:54.531040  1825 net.cpp:450] conv1 <- data
I0318 09:59:54.531047  1825 net.cpp:424] conv1 -> conv1
I0318 09:59:54.532387  1825 net.cpp:166] Setting up conv1
I0318 09:59:54.532400  1825 net.cpp:173] Top shape: 100 36 13 13 (608400)
I0318 09:59:54.532404  1825 net.cpp:181] Memory required for data: 3061200
I0318 09:59:54.532416  1825 layer_factory.hpp:77] Creating layer relu1
I0318 09:59:54.532424  1825 net.cpp:116] Creating Layer relu1
I0318 09:59:54.532428  1825 net.cpp:450] relu1 <- conv1
I0318 09:59:54.532438  1825 net.cpp:424] relu1 -> conv1_pos
I0318 09:59:54.532860  1825 net.cpp:166] Setting up relu1
I0318 09:59:54.532873  1825 net.cpp:173] Top shape: 100 36 13 13 (608400)
I0318 09:59:54.532877  1825 net.cpp:181] Memory required for data: 5494800
I0318 09:59:54.532881  1825 layer_factory.hpp:77] Creating layer conv2
I0318 09:59:54.532896  1825 net.cpp:116] Creating Layer conv2
I0318 09:59:54.532901  1825 net.cpp:450] conv2 <- conv1_pos
I0318 09:59:54.532909  1825 net.cpp:424] conv2 -> conv2
I0318 09:59:54.533874  1825 net.cpp:166] Setting up conv2
I0318 09:59:54.533888  1825 net.cpp:173] Top shape: 100 128 6 6 (460800)
I0318 09:59:54.533893  1825 net.cpp:181] Memory required for data: 7338000
I0318 09:59:54.533902  1825 layer_factory.hpp:77] Creating layer block_output
I0318 09:59:54.533910  1825 net.cpp:116] Creating Layer block_output
I0318 09:59:54.533915  1825 net.cpp:450] block_output <- conv2
I0318 09:59:54.533921  1825 net.cpp:424] block_output -> block_output
I0318 09:59:54.533957  1825 net.cpp:166] Setting up block_output
I0318 09:59:54.533967  1825 net.cpp:173] Top shape: 100 128 6 6 (460800)
I0318 09:59:54.533970  1825 net.cpp:181] Memory required for data: 9181200
I0318 09:59:54.533974  1825 layer_factory.hpp:77] Creating layer block_output_prelu
I0318 09:59:54.533983  1825 net.cpp:116] Creating Layer block_output_prelu
I0318 09:59:54.534000  1825 net.cpp:450] block_output_prelu <- block_output
I0318 09:59:54.534008  1825 net.cpp:411] block_output_prelu -> block_output (in-place)
I0318 09:59:54.534137  1825 net.cpp:166] Setting up block_output_prelu
I0318 09:59:54.534147  1825 net.cpp:173] Top shape: 100 128 6 6 (460800)
I0318 09:59:54.534150  1825 net.cpp:181] Memory required for data: 11024400
I0318 09:59:54.534162  1825 layer_factory.hpp:77] Creating layer fc_10
I0318 09:59:54.534170  1825 net.cpp:116] Creating Layer fc_10
I0318 09:59:54.534188  1825 net.cpp:450] fc_10 <- block_output
I0318 09:59:54.534195  1825 net.cpp:424] fc_10 -> fc_10
I0318 09:59:54.535353  1825 net.cpp:166] Setting up fc_10
I0318 09:59:54.535364  1825 net.cpp:173] Top shape: 100 10 (1000)
I0318 09:59:54.535368  1825 net.cpp:181] Memory required for data: 11028400
I0318 09:59:54.535375  1825 layer_factory.hpp:77] Creating layer accuracy
I0318 09:59:54.535385  1825 net.cpp:116] Creating Layer accuracy
I0318 09:59:54.535390  1825 net.cpp:450] accuracy <- fc_10
I0318 09:59:54.535396  1825 net.cpp:450] accuracy <- label
I0318 09:59:54.535408  1825 net.cpp:424] accuracy -> accuracy
…
