…
I0318 11:16:30.989195  2293 net.cpp:338] The NetState phase (0) differed from the phase (1) specified by a rule in layer data
I0318 11:16:30.989213  2293 net.cpp:338] The NetState phase (0) differed from the phase (1) specified by a rule in layer accuracy
I0318 11:16:30.989326  2293 net.cpp:74] Initializing net from parameters: 
name: "MNIST_NET"
state {
  phase: TRAIN
  level: 0
  stage: ""
}
layer {
  name: "data"
  type: "ImageData"
  top: "data"
  top: "label"
  include {
    phase: TRAIN
  }
  image_data_param {
    source: "train.txt"
    batch_size: 300
    crop_size: 27
    shuffle: true
    is_color: false
  }
}
layer {
  name: "data_scaling"
  type: "Power"
  bottom: "data"
  top: "data"
  power_param {
    power: 1
    scale: 0.0078125
    shift: -1
  }
}
layer {
  name: "data_drop"
  type: "Dropout"
  bottom: "data"
  top: "data"
  include {
    phase: TRAIN
  }
  dropout_param {
    dropout_ratio: 0.01
  }
}
layer {
  name: "data_vision"
  type: "VisionTransformation"
  bottom: "data"
  top: "data"
  include {
    phase: TRAIN
  }
  vision_transformation_param {
    noise_mean: 0
    noise_std: 0
    noise_std_small: 0
    rotate_min_angle: -20
    rotate_max_angle: 20
    rotate_fill_value: 0
    per_pixel_multiplier_mean: 1
    per_pixel_multiplier_std: 0
    rescale_probability: 0.25
    constant_multiplier_mean: 1
    constant_multiplier_std: 0
    scale_mean: 1
    scale_std: 0.1
    constant_multiplier_color_mean: 0
    constant_multiplier_color_std: 0
    value_cap_min: 0
    value_cap_max: 0
    passthrough_probability: 0.5
  }
}
layer {
  name: "conv1"
  type: "Convolution"
  bottom: "data"
  top: "conv1"
  param {
    lr_mult: 1
    decay_mult: 1
  }
  param {
    lr_mult: 2
    decay_mult: 0
  }
  convolution_param {
    num_output: 36
    kernel_size: 3
    stride: 2
    weight_filler {
      type: "xavier"
    }
  }
}
layer {
  name: "relu1"
  type: "ReLU"
  bottom: "conv1"
  top: "conv1_pos"
}
layer {
  name: "conv2"
  type: "Convolution"
  bottom: "conv1_pos"
  top: "conv2"
  param {
    name: "conv2_w"
    lr_mult: 1
    decay_mult: 1
  }
  param {
    name: "conv2_b"
    lr_mult: 2
    decay_mult: 0
  }
  convolution_param {
    num_output: 128
    kernel_size: 3
    stride: 2
    weight_filler {
      type: "xavier"
    }
  }
}
layer {
  name: "block_output"
  type: "Concat"
  bottom: "conv2"
  top: "block_output"
}
layer {
  name: "block_output_prelu"
  type: "PReLU"
  bottom: "block_output"
  top: "block_output"
  prelu_param {
    filler {
      type: "constant"
      value: 0.01
    }
  }
}
layer {
  name: "fc_10"
  type: "InnerProduct"
  bottom: "block_output"
  top: "fc_10"
  param {
    lr_mult: 5
    decay_mult: 1
  }
  param {
    lr_mult: 10
    decay_mult: 0
  }
  inner_product_param {
    num_output: 10
    weight_filler {
      type: "gaussian"
      std: 0.01
    }
    bias_filler {
      type: "constant"
      value: 0
    }
  }
}
layer {
  name: "loss"
  type: "SoftmaxWithLoss"
  bottom: "fc_10"
  bottom: "label"
  top: "loss"
  include {
    phase: TRAIN
  }
}
I0318 11:16:30.989388  2293 layer_factory.hpp:77] Creating layer data
I0318 11:16:30.989418  2293 net.cpp:116] Creating Layer data
I0318 11:16:30.989423  2293 net.cpp:424] data -> data
I0318 11:16:30.989440  2293 net.cpp:424] data -> label
I0318 11:16:30.989451  2293 image_data_layer.cpp:38] Opening file train.txt
I0318 11:16:31.001760  2293 image_data_layer.cpp:53] Shuffling data
I0318 11:16:31.005878  2293 image_data_layer.cpp:58] A total of 60000 images.
I0318 11:16:31.016196  2293 image_data_layer.cpp:85] output data size: 300,1,28,28
I0318 11:16:31.018786  2293 net.cpp:166] Setting up data
I0318 11:16:31.018805  2293 net.cpp:173] Top shape: 300 1 28 28 (235200)
I0318 11:16:31.018810  2293 net.cpp:173] Top shape: 300 (300)
I0318 11:16:31.018811  2293 net.cpp:181] Memory required for data: 942000
I0318 11:16:31.018820  2293 layer_factory.hpp:77] Creating layer data_scaling
I0318 11:16:31.018837  2293 net.cpp:116] Creating Layer data_scaling
I0318 11:16:31.018841  2293 net.cpp:450] data_scaling <- data
I0318 11:16:31.018851  2293 net.cpp:411] data_scaling -> data (in-place)
I0318 11:16:31.018862  2293 net.cpp:166] Setting up data_scaling
I0318 11:16:31.018864  2293 net.cpp:173] Top shape: 300 1 28 28 (235200)
I0318 11:16:31.018867  2293 net.cpp:181] Memory required for data: 1882800
I0318 11:16:31.018869  2293 layer_factory.hpp:77] Creating layer data_drop
I0318 11:16:31.018875  2293 net.cpp:116] Creating Layer data_drop
I0318 11:16:31.018878  2293 net.cpp:450] data_drop <- data
I0318 11:16:31.018882  2293 net.cpp:411] data_drop -> data (in-place)
I0318 11:16:31.018929  2293 net.cpp:166] Setting up data_drop
I0318 11:16:31.018934  2293 net.cpp:173] Top shape: 300 1 28 28 (235200)
I0318 11:16:31.018936  2293 net.cpp:181] Memory required for data: 2823600
I0318 11:16:31.018939  2293 layer_factory.hpp:77] Creating layer data_vision
I0318 11:16:31.018944  2293 net.cpp:116] Creating Layer data_vision
I0318 11:16:31.018947  2293 net.cpp:450] data_vision <- data
I0318 11:16:31.018950  2293 net.cpp:411] data_vision -> data (in-place)
I0318 11:16:31.018963  2293 net.cpp:166] Setting up data_vision
I0318 11:16:31.018967  2293 net.cpp:173] Top shape: 300 1 28 28 (235200)
I0318 11:16:31.018970  2293 net.cpp:181] Memory required for data: 3764400
I0318 11:16:31.018971  2293 layer_factory.hpp:77] Creating layer conv1
I0318 11:16:31.018985  2293 net.cpp:116] Creating Layer conv1
I0318 11:16:31.018986  2293 net.cpp:450] conv1 <- data
I0318 11:16:31.018990  2293 net.cpp:424] conv1 -> conv1
I0318 11:16:31.191041  2293 net.cpp:166] Setting up conv1
I0318 11:16:31.191067  2293 net.cpp:173] Top shape: 300 36 13 13 (1825200)
I0318 11:16:31.191071  2293 net.cpp:181] Memory required for data: 11065200
I0318 11:16:31.191085  2293 layer_factory.hpp:77] Creating layer relu1
I0318 11:16:31.191095  2293 net.cpp:116] Creating Layer relu1
I0318 11:16:31.191099  2293 net.cpp:450] relu1 <- conv1
I0318 11:16:31.191104  2293 net.cpp:424] relu1 -> conv1_pos
I0318 11:16:31.191401  2293 net.cpp:166] Setting up relu1
I0318 11:16:31.191412  2293 net.cpp:173] Top shape: 300 36 13 13 (1825200)
I0318 11:16:31.191414  2293 net.cpp:181] Memory required for data: 18366000
I0318 11:16:31.191417  2293 layer_factory.hpp:77] Creating layer conv2
I0318 11:16:31.191428  2293 net.cpp:116] Creating Layer conv2
I0318 11:16:31.191431  2293 net.cpp:450] conv2 <- conv1_pos
I0318 11:16:31.191437  2293 net.cpp:424] conv2 -> conv2
I0318 11:16:31.193002  2293 net.cpp:166] Setting up conv2
I0318 11:16:31.193015  2293 net.cpp:173] Top shape: 300 128 6 6 (1382400)
I0318 11:16:31.193018  2293 net.cpp:181] Memory required for data: 23895600
I0318 11:16:31.193025  2293 layer_factory.hpp:77] Creating layer block_output
I0318 11:16:31.193032  2293 net.cpp:116] Creating Layer block_output
I0318 11:16:31.193035  2293 net.cpp:450] block_output <- conv2
I0318 11:16:31.193038  2293 net.cpp:424] block_output -> block_output
I0318 11:16:31.193066  2293 net.cpp:166] Setting up block_output
I0318 11:16:31.193075  2293 net.cpp:173] Top shape: 300 128 6 6 (1382400)
I0318 11:16:31.193078  2293 net.cpp:181] Memory required for data: 29425200
I0318 11:16:31.193079  2293 layer_factory.hpp:77] Creating layer block_output_prelu
I0318 11:16:31.193087  2293 net.cpp:116] Creating Layer block_output_prelu
I0318 11:16:31.193090  2293 net.cpp:450] block_output_prelu <- block_output
I0318 11:16:31.193095  2293 net.cpp:411] block_output_prelu -> block_output (in-place)
I0318 11:16:31.193532  2293 net.cpp:166] Setting up block_output_prelu
I0318 11:16:31.193557  2293 net.cpp:173] Top shape: 300 128 6 6 (1382400)
I0318 11:16:31.193559  2293 net.cpp:181] Memory required for data: 34954800
I0318 11:16:31.193567  2293 layer_factory.hpp:77] Creating layer fc_10
I0318 11:16:31.193574  2293 net.cpp:116] Creating Layer fc_10
I0318 11:16:31.193577  2293 net.cpp:450] fc_10 <- block_output
I0318 11:16:31.193581  2293 net.cpp:424] fc_10 -> fc_10
I0318 11:16:31.194715  2293 net.cpp:166] Setting up fc_10
I0318 11:16:31.194723  2293 net.cpp:173] Top shape: 300 10 (3000)
I0318 11:16:31.194725  2293 net.cpp:181] Memory required for data: 34966800
I0318 11:16:31.194730  2293 layer_factory.hpp:77] Creating layer loss
I0318 11:16:31.194737  2293 net.cpp:116] Creating Layer loss
I0318 11:16:31.194741  2293 net.cpp:450] loss <- fc_10
I0318 11:16:31.194743  2293 net.cpp:450] loss <- label
I0318 11:16:31.194747  2293 net.cpp:424] loss -> loss
I0318 11:16:31.194756  2293 layer_factory.hpp:77] Creating layer loss
…
I0318 11:16:31.195760  2293 net.cpp:338] The NetState phase (1) differed from the phase (0) specified by a rule in layer data_vision
I0318 11:16:31.195765  2293 net.cpp:338] The NetState phase (1) differed from the phase (0) specified by a rule in layer loss
I0318 11:16:31.195857  2293 net.cpp:74] Initializing net from parameters: 
name: "MNIST_NET"
state {
  phase: TEST
}
layer {
  name: "data"
  type: "ImageData"
  top: "data"
  top: "label"
  include {
    phase: TEST
  }
  image_data_param {
    source: "test.txt"
    batch_size: 100
    crop_size: 27
    shuffle: true
    is_color: false
  }
}
layer {
  name: "data_scaling"
  type: "Power"
  bottom: "data"
  top: "data"
  power_param {
    power: 1
    scale: 0.0078125
    shift: -1
  }
}
layer {
  name: "conv1"
  type: "Convolution"
  bottom: "data"
  top: "conv1"
  param {
    lr_mult: 1
    decay_mult: 1
  }
  param {
    lr_mult: 2
    decay_mult: 0
  }
  convolution_param {
    num_output: 36
    kernel_size: 3
    stride: 2
    weight_filler {
      type: "xavier"
    }
  }
}
layer {
  name: "relu1"
  type: "ReLU"
  bottom: "conv1"
  top: "conv1_pos"
}
layer {
  name: "conv2"
  type: "Convolution"
  bottom: "conv1_pos"
  top: "conv2"
  param {
    name: "conv2_w"
    lr_mult: 1
    decay_mult: 1
  }
  param {
    name: "conv2_b"
    lr_mult: 2
    decay_mult: 0
  }
  convolution_param {
    num_output: 128
    kernel_size: 3
    stride: 2
    weight_filler {
      type: "xavier"
    }
  }
}
layer {
  name: "block_output"
  type: "Concat"
  bottom: "conv2"
  top: "block_output"
}
layer {
  name: "block_output_prelu"
  type: "PReLU"
  bottom: "block_output"
  top: "block_output"
  prelu_param {
    filler {
      type: "constant"
      value: 0.01
    }
  }
}
layer {
  name: "fc_10"
  type: "InnerProduct"
  bottom: "block_output"
  top: "fc_10"
  param {
    lr_mult: 5
    decay_mult: 1
  }
  param {
    lr_mult: 10
    decay_mult: 0
  }
  inner_product_param {
    num_output: 10
    weight_filler {
      type: "gaussian"
      std: 0.01
    }
    bias_filler {
      type: "constant"
      value: 0
    }
  }
}
layer {
  name: "accuracy"
  type: "Accuracy"
  bottom: "fc_10"
  bottom: "label"
  top: "accuracy"
  include {
    phase: TEST
  }
}
I0318 11:16:31.195906  2293 layer_factory.hpp:77] Creating layer data
I0318 11:16:31.195917  2293 net.cpp:116] Creating Layer data
I0318 11:16:31.195922  2293 net.cpp:424] data -> data
I0318 11:16:31.195929  2293 net.cpp:424] data -> label
I0318 11:16:31.195935  2293 image_data_layer.cpp:38] Opening file test.txt
I0318 11:16:31.198236  2293 image_data_layer.cpp:53] Shuffling data
I0318 11:16:31.198810  2293 image_data_layer.cpp:58] A total of 10000 images.
I0318 11:16:31.198935  2293 image_data_layer.cpp:85] output data size: 100,1,28,28
I0318 11:16:31.199780  2293 net.cpp:166] Setting up data
I0318 11:16:31.199792  2293 net.cpp:173] Top shape: 100 1 28 28 (78400)
I0318 11:16:31.199796  2293 net.cpp:173] Top shape: 100 (100)
I0318 11:16:31.199798  2293 net.cpp:181] Memory required for data: 314000
I0318 11:16:31.199801  2293 layer_factory.hpp:77] Creating layer data_scaling
I0318 11:16:31.199807  2293 net.cpp:116] Creating Layer data_scaling
I0318 11:16:31.199810  2293 net.cpp:450] data_scaling <- data
I0318 11:16:31.199815  2293 net.cpp:411] data_scaling -> data (in-place)
I0318 11:16:31.199820  2293 net.cpp:166] Setting up data_scaling
I0318 11:16:31.199823  2293 net.cpp:173] Top shape: 100 1 28 28 (78400)
I0318 11:16:31.199826  2293 net.cpp:181] Memory required for data: 627600
I0318 11:16:31.199827  2293 layer_factory.hpp:77] Creating layer conv1
I0318 11:16:31.199834  2293 net.cpp:116] Creating Layer conv1
I0318 11:16:31.199836  2293 net.cpp:450] conv1 <- data
I0318 11:16:31.199839  2293 net.cpp:424] conv1 -> conv1
I0318 11:16:31.201061  2293 net.cpp:166] Setting up conv1
I0318 11:16:31.201074  2293 net.cpp:173] Top shape: 100 36 13 13 (608400)
I0318 11:16:31.201076  2293 net.cpp:181] Memory required for data: 3061200
I0318 11:16:31.201084  2293 layer_factory.hpp:77] Creating layer relu1
I0318 11:16:31.201089  2293 net.cpp:116] Creating Layer relu1
I0318 11:16:31.201092  2293 net.cpp:450] relu1 <- conv1
I0318 11:16:31.201097  2293 net.cpp:424] relu1 -> conv1_pos
I0318 11:16:31.201395  2293 net.cpp:166] Setting up relu1
I0318 11:16:31.201406  2293 net.cpp:173] Top shape: 100 36 13 13 (608400)
I0318 11:16:31.201408  2293 net.cpp:181] Memory required for data: 5494800
I0318 11:16:31.201411  2293 layer_factory.hpp:77] Creating layer conv2
I0318 11:16:31.201421  2293 net.cpp:116] Creating Layer conv2
I0318 11:16:31.201423  2293 net.cpp:450] conv2 <- conv1_pos
I0318 11:16:31.201429  2293 net.cpp:424] conv2 -> conv2
I0318 11:16:31.202502  2293 net.cpp:166] Setting up conv2
I0318 11:16:31.202515  2293 net.cpp:173] Top shape: 100 128 6 6 (460800)
I0318 11:16:31.202517  2293 net.cpp:181] Memory required for data: 7338000
I0318 11:16:31.202525  2293 layer_factory.hpp:77] Creating layer block_output
I0318 11:16:31.202530  2293 net.cpp:116] Creating Layer block_output
I0318 11:16:31.202533  2293 net.cpp:450] block_output <- conv2
I0318 11:16:31.202538  2293 net.cpp:424] block_output -> block_output
I0318 11:16:31.202565  2293 net.cpp:166] Setting up block_output
I0318 11:16:31.202570  2293 net.cpp:173] Top shape: 100 128 6 6 (460800)
I0318 11:16:31.202572  2293 net.cpp:181] Memory required for data: 9181200
I0318 11:16:31.202574  2293 layer_factory.hpp:77] Creating layer block_output_prelu
I0318 11:16:31.202579  2293 net.cpp:116] Creating Layer block_output_prelu
I0318 11:16:31.202591  2293 net.cpp:450] block_output_prelu <- block_output
I0318 11:16:31.202596  2293 net.cpp:411] block_output_prelu -> block_output (in-place)
I0318 11:16:31.202671  2293 net.cpp:166] Setting up block_output_prelu
I0318 11:16:31.202674  2293 net.cpp:173] Top shape: 100 128 6 6 (460800)
I0318 11:16:31.202677  2293 net.cpp:181] Memory required for data: 11024400
I0318 11:16:31.202682  2293 layer_factory.hpp:77] Creating layer fc_10
I0318 11:16:31.202687  2293 net.cpp:116] Creating Layer fc_10
I0318 11:16:31.202690  2293 net.cpp:450] fc_10 <- block_output
I0318 11:16:31.202694  2293 net.cpp:424] fc_10 -> fc_10
I0318 11:16:31.203840  2293 net.cpp:166] Setting up fc_10
I0318 11:16:31.203848  2293 net.cpp:173] Top shape: 100 10 (1000)
I0318 11:16:31.203851  2293 net.cpp:181] Memory required for data: 11028400
I0318 11:16:31.203855  2293 layer_factory.hpp:77] Creating layer accuracy
I0318 11:16:31.203863  2293 net.cpp:116] Creating Layer accuracy
I0318 11:16:31.203866  2293 net.cpp:450] accuracy <- fc_10
I0318 11:16:31.203869  2293 net.cpp:450] accuracy <- label
I0318 11:16:31.203873  2293 net.cpp:424] accuracy -> accuracy
…
