…
I0318 13:04:00.872346  2706 net.cpp:338] The NetState phase (0) differed from the phase (1) specified by a rule in layer data
I0318 13:04:00.872364  2706 net.cpp:338] The NetState phase (0) differed from the phase (1) specified by a rule in layer accuracy
I0318 13:04:00.872478  2706 net.cpp:74] Initializing net from parameters: 
name: "MNIST_NET"
state {
  phase: TRAIN
  level: 0
  stage: ""
}
layer {
  name: "data"
  type: "ImageData"
  top: "data"
  top: "label"
  include {
    phase: TRAIN
  }
  image_data_param {
    source: "train.txt"
    batch_size: 300
    crop_size: 27
    shuffle: true
    is_color: false
  }
}
layer {
  name: "data_scaling"
  type: "Power"
  bottom: "data"
  top: "data"
  power_param {
    power: 1
    scale: 0.0078125
    shift: -1
  }
}
layer {
  name: "data_drop"
  type: "Dropout"
  bottom: "data"
  top: "data"
  include {
    phase: TRAIN
  }
  dropout_param {
    dropout_ratio: 0.01
  }
}
layer {
  name: "data_vision"
  type: "VisionTransformation"
  bottom: "data"
  top: "data"
  include {
    phase: TRAIN
  }
  vision_transformation_param {
    noise_mean: 0
    noise_std: 0
    noise_std_small: 0
    rotate_min_angle: -20
    rotate_max_angle: 20
    rotate_fill_value: 0
    per_pixel_multiplier_mean: 1
    per_pixel_multiplier_std: 0
    rescale_probability: 0.25
    constant_multiplier_mean: 1
    constant_multiplier_std: 0
    scale_mean: 1
    scale_std: 0.1
    constant_multiplier_color_mean: 0
    constant_multiplier_color_std: 0
    value_cap_min: 0
    value_cap_max: 0
    passthrough_probability: 0.5
  }
}
layer {
  name: "conv1"
  type: "Convolution"
  bottom: "data"
  top: "conv1"
  param {
    lr_mult: 1
    decay_mult: 1
  }
  param {
    lr_mult: 2
    decay_mult: 0
  }
  convolution_param {
    num_output: 36
    kernel_size: 3
    stride: 2
    weight_filler {
      type: "xavier"
    }
  }
}
layer {
  name: "relu1"
  type: "ReLU"
  bottom: "conv1"
  top: "conv1_pos"
}
layer {
  name: "conv2"
  type: "Convolution"
  bottom: "conv1_pos"
  top: "conv2"
  param {
    name: "conv2_w"
    lr_mult: 1
    decay_mult: 1
  }
  param {
    name: "conv2_b"
    lr_mult: 2
    decay_mult: 0
  }
  convolution_param {
    num_output: 128
    kernel_size: 3
    stride: 2
    weight_filler {
      type: "xavier"
    }
  }
}
layer {
  name: "block_output"
  type: "Concat"
  bottom: "conv2"
  top: "block_output"
}
layer {
  name: "block_output_prelu"
  type: "PReLU"
  bottom: "block_output"
  top: "block_output"
  prelu_param {
    filler {
      type: "constant"
      value: 0.01
    }
  }
}
layer {
  name: "fc_10"
  type: "InnerProduct"
  bottom: "block_output"
  top: "fc_10"
  param {
    lr_mult: 5
    decay_mult: 1
  }
  param {
    lr_mult: 10
    decay_mult: 0
  }
  inner_product_param {
    num_output: 10
    weight_filler {
      type: "gaussian"
      std: 0.01
    }
    bias_filler {
      type: "constant"
      value: 0
    }
  }
}
layer {
  name: "loss"
  type: "SoftmaxWithLoss"
  bottom: "fc_10"
  bottom: "label"
  top: "loss"
  include {
    phase: TRAIN
  }
}
I0318 13:04:00.872539  2706 layer_factory.hpp:77] Creating layer data
I0318 13:04:00.872565  2706 net.cpp:116] Creating Layer data
I0318 13:04:00.872570  2706 net.cpp:424] data -> data
I0318 13:04:00.872586  2706 net.cpp:424] data -> label
I0318 13:04:00.872601  2706 image_data_layer.cpp:38] Opening file train.txt
I0318 13:04:00.884901  2706 image_data_layer.cpp:53] Shuffling data
I0318 13:04:00.889181  2706 image_data_layer.cpp:58] A total of 60000 images.
I0318 13:04:00.899260  2706 image_data_layer.cpp:85] output data size: 300,1,28,28
I0318 13:04:00.901697  2706 net.cpp:166] Setting up data
I0318 13:04:00.901715  2706 net.cpp:173] Top shape: 300 1 28 28 (235200)
I0318 13:04:00.901718  2706 net.cpp:173] Top shape: 300 (300)
I0318 13:04:00.901721  2706 net.cpp:181] Memory required for data: 942000
I0318 13:04:00.901727  2706 layer_factory.hpp:77] Creating layer data_scaling
I0318 13:04:00.901762  2706 net.cpp:116] Creating Layer data_scaling
I0318 13:04:00.901768  2706 net.cpp:450] data_scaling <- data
I0318 13:04:00.901778  2706 net.cpp:411] data_scaling -> data (in-place)
I0318 13:04:00.901788  2706 net.cpp:166] Setting up data_scaling
I0318 13:04:00.901792  2706 net.cpp:173] Top shape: 300 1 28 28 (235200)
I0318 13:04:00.901793  2706 net.cpp:181] Memory required for data: 1882800
I0318 13:04:00.901795  2706 layer_factory.hpp:77] Creating layer data_drop
I0318 13:04:00.901803  2706 net.cpp:116] Creating Layer data_drop
I0318 13:04:00.901804  2706 net.cpp:450] data_drop <- data
I0318 13:04:00.901808  2706 net.cpp:411] data_drop -> data (in-place)
I0318 13:04:00.901880  2706 net.cpp:166] Setting up data_drop
I0318 13:04:00.901885  2706 net.cpp:173] Top shape: 300 1 28 28 (235200)
I0318 13:04:00.901886  2706 net.cpp:181] Memory required for data: 2823600
I0318 13:04:00.901888  2706 layer_factory.hpp:77] Creating layer data_vision
I0318 13:04:00.901896  2706 net.cpp:116] Creating Layer data_vision
I0318 13:04:00.901899  2706 net.cpp:450] data_vision <- data
I0318 13:04:00.901902  2706 net.cpp:411] data_vision -> data (in-place)
I0318 13:04:00.901909  2706 net.cpp:166] Setting up data_vision
I0318 13:04:00.901913  2706 net.cpp:173] Top shape: 300 1 28 28 (235200)
I0318 13:04:00.901916  2706 net.cpp:181] Memory required for data: 3764400
I0318 13:04:00.901917  2706 layer_factory.hpp:77] Creating layer conv1
I0318 13:04:00.901931  2706 net.cpp:116] Creating Layer conv1
I0318 13:04:00.901933  2706 net.cpp:450] conv1 <- data
I0318 13:04:00.901937  2706 net.cpp:424] conv1 -> conv1
I0318 13:04:01.072181  2706 net.cpp:166] Setting up conv1
I0318 13:04:01.072209  2706 net.cpp:173] Top shape: 300 36 13 13 (1825200)
I0318 13:04:01.072212  2706 net.cpp:181] Memory required for data: 11065200
I0318 13:04:01.072227  2706 layer_factory.hpp:77] Creating layer relu1
I0318 13:04:01.072237  2706 net.cpp:116] Creating Layer relu1
I0318 13:04:01.072242  2706 net.cpp:450] relu1 <- conv1
I0318 13:04:01.072247  2706 net.cpp:424] relu1 -> conv1_pos
I0318 13:04:01.072536  2706 net.cpp:166] Setting up relu1
I0318 13:04:01.072549  2706 net.cpp:173] Top shape: 300 36 13 13 (1825200)
I0318 13:04:01.072552  2706 net.cpp:181] Memory required for data: 18366000
I0318 13:04:01.072556  2706 layer_factory.hpp:77] Creating layer conv2
I0318 13:04:01.072566  2706 net.cpp:116] Creating Layer conv2
I0318 13:04:01.072568  2706 net.cpp:450] conv2 <- conv1_pos
I0318 13:04:01.072573  2706 net.cpp:424] conv2 -> conv2
I0318 13:04:01.074095  2706 net.cpp:166] Setting up conv2
I0318 13:04:01.074107  2706 net.cpp:173] Top shape: 300 128 6 6 (1382400)
I0318 13:04:01.074110  2706 net.cpp:181] Memory required for data: 23895600
I0318 13:04:01.074116  2706 layer_factory.hpp:77] Creating layer block_output
I0318 13:04:01.074123  2706 net.cpp:116] Creating Layer block_output
I0318 13:04:01.074126  2706 net.cpp:450] block_output <- conv2
I0318 13:04:01.074129  2706 net.cpp:424] block_output -> block_output
I0318 13:04:01.074160  2706 net.cpp:166] Setting up block_output
I0318 13:04:01.074165  2706 net.cpp:173] Top shape: 300 128 6 6 (1382400)
I0318 13:04:01.074167  2706 net.cpp:181] Memory required for data: 29425200
I0318 13:04:01.074169  2706 layer_factory.hpp:77] Creating layer block_output_prelu
I0318 13:04:01.074177  2706 net.cpp:116] Creating Layer block_output_prelu
I0318 13:04:01.074179  2706 net.cpp:450] block_output_prelu <- block_output
I0318 13:04:01.074184  2706 net.cpp:411] block_output_prelu -> block_output (in-place)
I0318 13:04:01.074625  2706 net.cpp:166] Setting up block_output_prelu
I0318 13:04:01.074651  2706 net.cpp:173] Top shape: 300 128 6 6 (1382400)
I0318 13:04:01.074653  2706 net.cpp:181] Memory required for data: 34954800
I0318 13:04:01.074661  2706 layer_factory.hpp:77] Creating layer fc_10
I0318 13:04:01.074668  2706 net.cpp:116] Creating Layer fc_10
I0318 13:04:01.074671  2706 net.cpp:450] fc_10 <- block_output
I0318 13:04:01.074676  2706 net.cpp:424] fc_10 -> fc_10
I0318 13:04:01.075809  2706 net.cpp:166] Setting up fc_10
I0318 13:04:01.075817  2706 net.cpp:173] Top shape: 300 10 (3000)
I0318 13:04:01.075819  2706 net.cpp:181] Memory required for data: 34966800
I0318 13:04:01.075824  2706 layer_factory.hpp:77] Creating layer loss
I0318 13:04:01.075829  2706 net.cpp:116] Creating Layer loss
I0318 13:04:01.075832  2706 net.cpp:450] loss <- fc_10
I0318 13:04:01.075835  2706 net.cpp:450] loss <- label
I0318 13:04:01.075839  2706 net.cpp:424] loss -> loss
I0318 13:04:01.075848  2706 layer_factory.hpp:77] Creating layer loss
…
I0318 13:04:01.076861  2706 net.cpp:338] The NetState phase (1) differed from the phase (0) specified by a rule in layer data_vision
I0318 13:04:01.076867  2706 net.cpp:338] The NetState phase (1) differed from the phase (0) specified by a rule in layer loss
I0318 13:04:01.076961  2706 net.cpp:74] Initializing net from parameters: 
name: "MNIST_NET"
state {
  phase: TEST
}
layer {
  name: "data"
  type: "ImageData"
  top: "data"
  top: "label"
  include {
    phase: TEST
  }
  image_data_param {
    source: "test.txt"
    batch_size: 100
    crop_size: 27
    shuffle: true
    is_color: false
  }
}
layer {
  name: "data_scaling"
  type: "Power"
  bottom: "data"
  top: "data"
  power_param {
    power: 1
    scale: 0.0078125
    shift: -1
  }
}
layer {
  name: "conv1"
  type: "Convolution"
  bottom: "data"
  top: "conv1"
  param {
    lr_mult: 1
    decay_mult: 1
  }
  param {
    lr_mult: 2
    decay_mult: 0
  }
  convolution_param {
    num_output: 36
    kernel_size: 3
    stride: 2
    weight_filler {
      type: "xavier"
    }
  }
}
layer {
  name: "relu1"
  type: "ReLU"
  bottom: "conv1"
  top: "conv1_pos"
}
layer {
  name: "conv2"
  type: "Convolution"
  bottom: "conv1_pos"
  top: "conv2"
  param {
    name: "conv2_w"
    lr_mult: 1
    decay_mult: 1
  }
  param {
    name: "conv2_b"
    lr_mult: 2
    decay_mult: 0
  }
  convolution_param {
    num_output: 128
    kernel_size: 3
    stride: 2
    weight_filler {
      type: "xavier"
    }
  }
}
layer {
  name: "block_output"
  type: "Concat"
  bottom: "conv2"
  top: "block_output"
}
layer {
  name: "block_output_prelu"
  type: "PReLU"
  bottom: "block_output"
  top: "block_output"
  prelu_param {
    filler {
      type: "constant"
      value: 0.01
    }
  }
}
layer {
  name: "fc_10"
  type: "InnerProduct"
  bottom: "block_output"
  top: "fc_10"
  param {
    lr_mult: 5
    decay_mult: 1
  }
  param {
    lr_mult: 10
    decay_mult: 0
  }
  inner_product_param {
    num_output: 10
    weight_filler {
      type: "gaussian"
      std: 0.01
    }
    bias_filler {
      type: "constant"
      value: 0
    }
  }
}
layer {
  name: "accuracy"
  type: "Accuracy"
  bottom: "fc_10"
  bottom: "label"
  top: "accuracy"
  include {
    phase: TEST
  }
}
I0318 13:04:01.077013  2706 layer_factory.hpp:77] Creating layer data
I0318 13:04:01.077024  2706 net.cpp:116] Creating Layer data
I0318 13:04:01.077029  2706 net.cpp:424] data -> data
I0318 13:04:01.077036  2706 net.cpp:424] data -> label
I0318 13:04:01.077042  2706 image_data_layer.cpp:38] Opening file test.txt
I0318 13:04:01.079180  2706 image_data_layer.cpp:53] Shuffling data
I0318 13:04:01.079756  2706 image_data_layer.cpp:58] A total of 10000 images.
I0318 13:04:01.079885  2706 image_data_layer.cpp:85] output data size: 100,1,28,28
I0318 13:04:01.080727  2706 net.cpp:166] Setting up data
I0318 13:04:01.080739  2706 net.cpp:173] Top shape: 100 1 28 28 (78400)
I0318 13:04:01.080742  2706 net.cpp:173] Top shape: 100 (100)
I0318 13:04:01.080744  2706 net.cpp:181] Memory required for data: 314000
I0318 13:04:01.080747  2706 layer_factory.hpp:77] Creating layer data_scaling
I0318 13:04:01.080754  2706 net.cpp:116] Creating Layer data_scaling
I0318 13:04:01.080757  2706 net.cpp:450] data_scaling <- data
I0318 13:04:01.080761  2706 net.cpp:411] data_scaling -> data (in-place)
I0318 13:04:01.080766  2706 net.cpp:166] Setting up data_scaling
I0318 13:04:01.080770  2706 net.cpp:173] Top shape: 100 1 28 28 (78400)
I0318 13:04:01.080772  2706 net.cpp:181] Memory required for data: 627600
I0318 13:04:01.080775  2706 layer_factory.hpp:77] Creating layer conv1
I0318 13:04:01.080780  2706 net.cpp:116] Creating Layer conv1
I0318 13:04:01.080783  2706 net.cpp:450] conv1 <- data
I0318 13:04:01.080786  2706 net.cpp:424] conv1 -> conv1
I0318 13:04:01.081992  2706 net.cpp:166] Setting up conv1
I0318 13:04:01.082005  2706 net.cpp:173] Top shape: 100 36 13 13 (608400)
I0318 13:04:01.082006  2706 net.cpp:181] Memory required for data: 3061200
I0318 13:04:01.082015  2706 layer_factory.hpp:77] Creating layer relu1
I0318 13:04:01.082020  2706 net.cpp:116] Creating Layer relu1
I0318 13:04:01.082025  2706 net.cpp:450] relu1 <- conv1
I0318 13:04:01.082028  2706 net.cpp:424] relu1 -> conv1_pos
I0318 13:04:01.082417  2706 net.cpp:166] Setting up relu1
I0318 13:04:01.082427  2706 net.cpp:173] Top shape: 100 36 13 13 (608400)
I0318 13:04:01.082430  2706 net.cpp:181] Memory required for data: 5494800
I0318 13:04:01.082433  2706 layer_factory.hpp:77] Creating layer conv2
I0318 13:04:01.082446  2706 net.cpp:116] Creating Layer conv2
I0318 13:04:01.082450  2706 net.cpp:450] conv2 <- conv1_pos
I0318 13:04:01.082456  2706 net.cpp:424] conv2 -> conv2
I0318 13:04:01.083513  2706 net.cpp:166] Setting up conv2
I0318 13:04:01.083524  2706 net.cpp:173] Top shape: 100 128 6 6 (460800)
I0318 13:04:01.083528  2706 net.cpp:181] Memory required for data: 7338000
I0318 13:04:01.083534  2706 layer_factory.hpp:77] Creating layer block_output
I0318 13:04:01.083540  2706 net.cpp:116] Creating Layer block_output
I0318 13:04:01.083544  2706 net.cpp:450] block_output <- conv2
I0318 13:04:01.083547  2706 net.cpp:424] block_output -> block_output
I0318 13:04:01.083575  2706 net.cpp:166] Setting up block_output
I0318 13:04:01.083580  2706 net.cpp:173] Top shape: 100 128 6 6 (460800)
I0318 13:04:01.083582  2706 net.cpp:181] Memory required for data: 9181200
I0318 13:04:01.083585  2706 layer_factory.hpp:77] Creating layer block_output_prelu
I0318 13:04:01.083590  2706 net.cpp:116] Creating Layer block_output_prelu
I0318 13:04:01.083602  2706 net.cpp:450] block_output_prelu <- block_output
I0318 13:04:01.083607  2706 net.cpp:411] block_output_prelu -> block_output (in-place)
I0318 13:04:01.083683  2706 net.cpp:166] Setting up block_output_prelu
I0318 13:04:01.083688  2706 net.cpp:173] Top shape: 100 128 6 6 (460800)
I0318 13:04:01.083689  2706 net.cpp:181] Memory required for data: 11024400
I0318 13:04:01.083694  2706 layer_factory.hpp:77] Creating layer fc_10
I0318 13:04:01.083700  2706 net.cpp:116] Creating Layer fc_10
I0318 13:04:01.083703  2706 net.cpp:450] fc_10 <- block_output
I0318 13:04:01.083709  2706 net.cpp:424] fc_10 -> fc_10
I0318 13:04:01.084838  2706 net.cpp:166] Setting up fc_10
I0318 13:04:01.084847  2706 net.cpp:173] Top shape: 100 10 (1000)
I0318 13:04:01.084849  2706 net.cpp:181] Memory required for data: 11028400
I0318 13:04:01.084853  2706 layer_factory.hpp:77] Creating layer accuracy
I0318 13:04:01.084859  2706 net.cpp:116] Creating Layer accuracy
I0318 13:04:01.084862  2706 net.cpp:450] accuracy <- fc_10
I0318 13:04:01.084867  2706 net.cpp:450] accuracy <- label
I0318 13:04:01.084869  2706 net.cpp:424] accuracy -> accuracy
…
