…
I0318 17:30:52.024556 18187 net.cpp:338] The NetState phase (0) differed from the phase (1) specified by a rule in layer data
I0318 17:30:52.024574 18187 net.cpp:338] The NetState phase (0) differed from the phase (1) specified by a rule in layer accuracy
I0318 17:30:52.024749 18187 net.cpp:74] Initializing net from parameters: 
name: "MNIST_NET"
state {
  phase: TRAIN
  level: 0
  stage: ""
}
layer {
  name: "data"
  type: "ImageData"
  top: "data"
  top: "label"
  include {
    phase: TRAIN
  }
  image_data_param {
    source: "train.txt"
    batch_size: 300
    crop_size: 27
    shuffle: true
    is_color: false
  }
}
layer {
  name: "data_scaling"
  type: "Power"
  bottom: "data"
  top: "data"
  power_param {
    power: 1
    scale: 0.0078125
    shift: -1
  }
}
layer {
  name: "data_drop"
  type: "Dropout"
  bottom: "data"
  top: "data"
  include {
    phase: TRAIN
  }
  dropout_param {
    dropout_ratio: 0.01
  }
}
layer {
  name: "data_vision"
  type: "VisionTransformation"
  bottom: "data"
  top: "data"
  include {
    phase: TRAIN
  }
  vision_transformation_param {
    noise_mean: 0
    noise_std: 0
    noise_std_small: 0
    rotate_min_angle: -20
    rotate_max_angle: 20
    rotate_fill_value: 0
    per_pixel_multiplier_mean: 1
    per_pixel_multiplier_std: 0
    rescale_probability: 0.25
    constant_multiplier_mean: 1
    constant_multiplier_std: 0
    scale_mean: 1
    scale_std: 0.1
    constant_multiplier_color_mean: 0
    constant_multiplier_color_std: 0
    value_cap_min: 0
    value_cap_max: 0
    passthrough_probability: 0.5
  }
}
layer {
  name: "conv1"
  type: "Convolution"
  bottom: "data"
  top: "conv1"
  param {
    lr_mult: 1
    decay_mult: 1
  }
  param {
    lr_mult: 2
    decay_mult: 0
  }
  convolution_param {
    num_output: 36
    kernel_size: 3
    stride: 1
    weight_filler {
      type: "xavier"
    }
  }
}
layer {
  name: "bn1"
  type: "BatchNorm"
  bottom: "conv1"
  top: "bn1"
}
layer {
  name: "conv1_inv"
  type: "Power"
  bottom: "bn1"
  top: "conv1_inv"
  power_param {
    power: 1
    scale: -1
    shift: 0
  }
}
layer {
  name: "conv1_inv_relu"
  type: "ReLU"
  bottom: "conv1_inv"
  top: "conv1_inv"
}
layer {
  name: "relu1"
  type: "ReLU"
  bottom: "bn1"
  top: "conv1_pos"
}
layer {
  name: "conv2"
  type: "Convolution"
  bottom: "conv1_pos"
  top: "conv2"
  param {
    name: "conv2_w"
    lr_mult: 1
    decay_mult: 1
  }
  param {
    name: "conv2_b"
    lr_mult: 2
    decay_mult: 0
  }
  convolution_param {
    num_output: 128
    kernel_size: 3
    stride: 2
    weight_filler {
      type: "xavier"
    }
  }
}
layer {
  name: "conv2_inv"
  type: "Convolution"
  bottom: "conv1_inv"
  top: "conv2_inv"
  param {
    name: "conv2_inv_w"
    lr_mult: 1
    decay_mult: 1
  }
  param {
    name: "conv2_inv_b"
    lr_mult: 2
    decay_mult: 0
  }
  convolution_param {
    num_output: 128
    kernel_size: 3
    stride: 2
    weight_filler {
      type: "xavier"
    }
  }
}
layer {
  name: "block1"
  type: "Concat"
  bottom: "conv2"
  bottom: "conv2_inv"
  top: "block1"
}
layer {
  name: "bn2"
  type: "BatchNorm"
  bottom: "block1"
  top: "bn2"
}
layer {
  name: "block1_inv"
  type: "Power"
  bottom: "bn2"
  top: "block1_inv"
  power_param {
    power: 1
    scale: -1
    shift: 0
  }
}
layer {
  name: "block1_inv_relu"
  type: "ReLU"
  bottom: "block1_inv"
  top: "block1_inv"
}
layer {
  name: "relu2"
  type: "ReLU"
  bottom: "bn2"
  top: "block1_pos"
}
layer {
  name: "conv3"
  type: "Convolution"
  bottom: "block1_pos"
  top: "conv3"
  param {
    lr_mult: 1
    decay_mult: 1
  }
  param {
    lr_mult: 2
    decay_mult: 0
  }
  convolution_param {
    num_output: 128
    kernel_size: 3
    stride: 2
    weight_filler {
      type: "xavier"
    }
  }
}
layer {
  name: "conv3_inv"
  type: "Convolution"
  bottom: "block1_inv"
  top: "conv3_inv"
  param {
    lr_mult: 1
    decay_mult: 1
  }
  param {
    lr_mult: 2
    decay_mult: 0
  }
  convolution_param {
    num_output: 128
    kernel_size: 3
    stride: 2
    weight_filler {
      type: "xavier"
    }
  }
}
layer {
  name: "block_output"
  type: "Concat"
  bottom: "conv3"
  bottom: "conv3_inv"
  top: "block_output"
}
layer {
  name: "block_output_relu"
  type: "ReLU"
  bottom: "block_output"
  top: "block_output"
}
layer {
  name: "drop_block"
  type: "Dropout"
  bottom: "block_output"
  top: "block_output"
  include {
    phase: TRAIN
  }
  dropout_param {
    dropout_ratio: 0.25
  }
}
layer {
  name: "fc_10"
  type: "InnerProduct"
  bottom: "block_output"
  top: "fc_10"
  param {
    lr_mult: 5
    decay_mult: 1
  }
  param {
    lr_mult: 10
    decay_mult: 0
  }
  inner_product_param {
    num_output: 10
    weight_filler {
      type: "gaussian"
      std: 0.01
    }
    bias_filler {
      type: "constant"
      value: 0
    }
  }
}
layer {
  name: "loss"
  type: "SoftmaxWithLoss"
  bottom: "fc_10"
  bottom: "label"
  top: "loss"
  include {
    phase: TRAIN
  }
}
I0318 17:30:52.024873 18187 layer_factory.hpp:77] Creating layer data
I0318 17:30:52.024904 18187 net.cpp:116] Creating Layer data
I0318 17:30:52.024909 18187 net.cpp:424] data -> data
I0318 17:30:52.024926 18187 net.cpp:424] data -> label
I0318 17:30:52.024937 18187 image_data_layer.cpp:38] Opening file train.txt
I0318 17:30:52.037251 18187 image_data_layer.cpp:53] Shuffling data
I0318 17:30:52.041375 18187 image_data_layer.cpp:58] A total of 60000 images.
I0318 17:30:52.051758 18187 image_data_layer.cpp:85] output data size: 300,1,28,28
I0318 17:30:52.054337 18187 net.cpp:166] Setting up data
I0318 17:30:52.054355 18187 net.cpp:173] Top shape: 300 1 28 28 (235200)
I0318 17:30:52.054359 18187 net.cpp:173] Top shape: 300 (300)
I0318 17:30:52.054361 18187 net.cpp:181] Memory required for data: 942000
I0318 17:30:52.054368 18187 layer_factory.hpp:77] Creating layer data_scaling
I0318 17:30:52.054379 18187 net.cpp:116] Creating Layer data_scaling
I0318 17:30:52.054383 18187 net.cpp:450] data_scaling <- data
I0318 17:30:52.054394 18187 net.cpp:411] data_scaling -> data (in-place)
I0318 17:30:52.054404 18187 net.cpp:166] Setting up data_scaling
I0318 17:30:52.054406 18187 net.cpp:173] Top shape: 300 1 28 28 (235200)
I0318 17:30:52.054409 18187 net.cpp:181] Memory required for data: 1882800
I0318 17:30:52.054410 18187 layer_factory.hpp:77] Creating layer data_drop
I0318 17:30:52.054417 18187 net.cpp:116] Creating Layer data_drop
I0318 17:30:52.054419 18187 net.cpp:450] data_drop <- data
I0318 17:30:52.054422 18187 net.cpp:411] data_drop -> data (in-place)
I0318 17:30:52.054467 18187 net.cpp:166] Setting up data_drop
I0318 17:30:52.054472 18187 net.cpp:173] Top shape: 300 1 28 28 (235200)
I0318 17:30:52.054474 18187 net.cpp:181] Memory required for data: 2823600
I0318 17:30:52.054476 18187 layer_factory.hpp:77] Creating layer data_vision
I0318 17:30:52.054483 18187 net.cpp:116] Creating Layer data_vision
I0318 17:30:52.054486 18187 net.cpp:450] data_vision <- data
I0318 17:30:52.054488 18187 net.cpp:411] data_vision -> data (in-place)
I0318 17:30:52.054496 18187 net.cpp:166] Setting up data_vision
I0318 17:30:52.054498 18187 net.cpp:173] Top shape: 300 1 28 28 (235200)
I0318 17:30:52.054500 18187 net.cpp:181] Memory required for data: 3764400
I0318 17:30:52.054502 18187 layer_factory.hpp:77] Creating layer conv1
I0318 17:30:52.054515 18187 net.cpp:116] Creating Layer conv1
I0318 17:30:52.054532 18187 net.cpp:450] conv1 <- data
I0318 17:30:52.054538 18187 net.cpp:424] conv1 -> conv1
I0318 17:30:52.225119 18187 net.cpp:166] Setting up conv1
I0318 17:30:52.225149 18187 net.cpp:173] Top shape: 300 36 26 26 (7300800)
I0318 17:30:52.225152 18187 net.cpp:181] Memory required for data: 32967600
I0318 17:30:52.225167 18187 layer_factory.hpp:77] Creating layer bn1
I0318 17:30:52.225178 18187 net.cpp:116] Creating Layer bn1
I0318 17:30:52.225181 18187 net.cpp:450] bn1 <- conv1
I0318 17:30:52.225186 18187 net.cpp:424] bn1 -> bn1
I0318 17:30:52.225350 18187 net.cpp:166] Setting up bn1
I0318 17:30:52.225358 18187 net.cpp:173] Top shape: 300 36 26 26 (7300800)
I0318 17:30:52.225360 18187 net.cpp:181] Memory required for data: 62170800
I0318 17:30:52.225369 18187 layer_factory.hpp:77] Creating layer bn1_bn1_0_split
I0318 17:30:52.225375 18187 net.cpp:116] Creating Layer bn1_bn1_0_split
I0318 17:30:52.225378 18187 net.cpp:450] bn1_bn1_0_split <- bn1
I0318 17:30:52.225380 18187 net.cpp:424] bn1_bn1_0_split -> bn1_bn1_0_split_0
I0318 17:30:52.225386 18187 net.cpp:424] bn1_bn1_0_split -> bn1_bn1_0_split_1
I0318 17:30:52.225414 18187 net.cpp:166] Setting up bn1_bn1_0_split
I0318 17:30:52.225420 18187 net.cpp:173] Top shape: 300 36 26 26 (7300800)
I0318 17:30:52.225424 18187 net.cpp:173] Top shape: 300 36 26 26 (7300800)
I0318 17:30:52.225425 18187 net.cpp:181] Memory required for data: 120577200
I0318 17:30:52.225427 18187 layer_factory.hpp:77] Creating layer conv1_inv
I0318 17:30:52.225433 18187 net.cpp:116] Creating Layer conv1_inv
I0318 17:30:52.225436 18187 net.cpp:450] conv1_inv <- bn1_bn1_0_split_0
I0318 17:30:52.225440 18187 net.cpp:424] conv1_inv -> conv1_inv
I0318 17:30:52.225455 18187 net.cpp:166] Setting up conv1_inv
I0318 17:30:52.225459 18187 net.cpp:173] Top shape: 300 36 26 26 (7300800)
I0318 17:30:52.225461 18187 net.cpp:181] Memory required for data: 149780400
I0318 17:30:52.225463 18187 layer_factory.hpp:77] Creating layer conv1_inv_relu
I0318 17:30:52.225469 18187 net.cpp:116] Creating Layer conv1_inv_relu
I0318 17:30:52.225471 18187 net.cpp:450] conv1_inv_relu <- conv1_inv
I0318 17:30:52.225474 18187 net.cpp:411] conv1_inv_relu -> conv1_inv (in-place)
I0318 17:30:52.225755 18187 net.cpp:166] Setting up conv1_inv_relu
I0318 17:30:52.225766 18187 net.cpp:173] Top shape: 300 36 26 26 (7300800)
I0318 17:30:52.225769 18187 net.cpp:181] Memory required for data: 178983600
I0318 17:30:52.225771 18187 layer_factory.hpp:77] Creating layer relu1
I0318 17:30:52.225776 18187 net.cpp:116] Creating Layer relu1
I0318 17:30:52.225780 18187 net.cpp:450] relu1 <- bn1_bn1_0_split_1
I0318 17:30:52.225783 18187 net.cpp:424] relu1 -> conv1_pos
I0318 17:30:52.225929 18187 net.cpp:166] Setting up relu1
I0318 17:30:52.225937 18187 net.cpp:173] Top shape: 300 36 26 26 (7300800)
I0318 17:30:52.225939 18187 net.cpp:181] Memory required for data: 208186800
I0318 17:30:52.225942 18187 layer_factory.hpp:77] Creating layer conv2
I0318 17:30:52.225951 18187 net.cpp:116] Creating Layer conv2
I0318 17:30:52.225953 18187 net.cpp:450] conv2 <- conv1_pos
I0318 17:30:52.225957 18187 net.cpp:424] conv2 -> conv2
I0318 17:30:52.227362 18187 net.cpp:166] Setting up conv2
I0318 17:30:52.227377 18187 net.cpp:173] Top shape: 300 128 12 12 (5529600)
I0318 17:30:52.227380 18187 net.cpp:181] Memory required for data: 230305200
I0318 17:30:52.227385 18187 layer_factory.hpp:77] Creating layer conv2_inv
I0318 17:30:52.227394 18187 net.cpp:116] Creating Layer conv2_inv
I0318 17:30:52.227396 18187 net.cpp:450] conv2_inv <- conv1_inv
I0318 17:30:52.227401 18187 net.cpp:424] conv2_inv -> conv2_inv
I0318 17:30:52.228411 18187 net.cpp:166] Setting up conv2_inv
I0318 17:30:52.228425 18187 net.cpp:173] Top shape: 300 128 12 12 (5529600)
I0318 17:30:52.228427 18187 net.cpp:181] Memory required for data: 252423600
I0318 17:30:52.228435 18187 layer_factory.hpp:77] Creating layer block1
I0318 17:30:52.228440 18187 net.cpp:116] Creating Layer block1
I0318 17:30:52.228442 18187 net.cpp:450] block1 <- conv2
I0318 17:30:52.228446 18187 net.cpp:450] block1 <- conv2_inv
I0318 17:30:52.228464 18187 net.cpp:424] block1 -> block1
I0318 17:30:52.228489 18187 net.cpp:166] Setting up block1
I0318 17:30:52.228497 18187 net.cpp:173] Top shape: 300 256 12 12 (11059200)
I0318 17:30:52.228498 18187 net.cpp:181] Memory required for data: 296660400
I0318 17:30:52.228502 18187 layer_factory.hpp:77] Creating layer bn2
I0318 17:30:52.228505 18187 net.cpp:116] Creating Layer bn2
I0318 17:30:52.228508 18187 net.cpp:450] bn2 <- block1
I0318 17:30:52.228512 18187 net.cpp:424] bn2 -> bn2
I0318 17:30:52.228655 18187 net.cpp:166] Setting up bn2
I0318 17:30:52.228662 18187 net.cpp:173] Top shape: 300 256 12 12 (11059200)
I0318 17:30:52.228665 18187 net.cpp:181] Memory required for data: 340897200
I0318 17:30:52.228672 18187 layer_factory.hpp:77] Creating layer bn2_bn2_0_split
I0318 17:30:52.228677 18187 net.cpp:116] Creating Layer bn2_bn2_0_split
I0318 17:30:52.228678 18187 net.cpp:450] bn2_bn2_0_split <- bn2
I0318 17:30:52.228682 18187 net.cpp:424] bn2_bn2_0_split -> bn2_bn2_0_split_0
I0318 17:30:52.228685 18187 net.cpp:424] bn2_bn2_0_split -> bn2_bn2_0_split_1
I0318 17:30:52.228713 18187 net.cpp:166] Setting up bn2_bn2_0_split
I0318 17:30:52.228720 18187 net.cpp:173] Top shape: 300 256 12 12 (11059200)
I0318 17:30:52.228724 18187 net.cpp:173] Top shape: 300 256 12 12 (11059200)
I0318 17:30:52.228725 18187 net.cpp:181] Memory required for data: 429370800
I0318 17:30:52.228727 18187 layer_factory.hpp:77] Creating layer block1_inv
I0318 17:30:52.228732 18187 net.cpp:116] Creating Layer block1_inv
I0318 17:30:52.228734 18187 net.cpp:450] block1_inv <- bn2_bn2_0_split_0
I0318 17:30:52.228737 18187 net.cpp:424] block1_inv -> block1_inv
I0318 17:30:52.228754 18187 net.cpp:166] Setting up block1_inv
I0318 17:30:52.228757 18187 net.cpp:173] Top shape: 300 256 12 12 (11059200)
I0318 17:30:52.228760 18187 net.cpp:181] Memory required for data: 473607600
I0318 17:30:52.228761 18187 layer_factory.hpp:77] Creating layer block1_inv_relu
I0318 17:30:52.228766 18187 net.cpp:116] Creating Layer block1_inv_relu
I0318 17:30:52.228770 18187 net.cpp:450] block1_inv_relu <- block1_inv
I0318 17:30:52.228772 18187 net.cpp:411] block1_inv_relu -> block1_inv (in-place)
I0318 17:30:52.229045 18187 net.cpp:166] Setting up block1_inv_relu
I0318 17:30:52.229056 18187 net.cpp:173] Top shape: 300 256 12 12 (11059200)
I0318 17:30:52.229059 18187 net.cpp:181] Memory required for data: 517844400
I0318 17:30:52.229061 18187 layer_factory.hpp:77] Creating layer relu2
I0318 17:30:52.229066 18187 net.cpp:116] Creating Layer relu2
I0318 17:30:52.229069 18187 net.cpp:450] relu2 <- bn2_bn2_0_split_1
I0318 17:30:52.229074 18187 net.cpp:424] relu2 -> block1_pos
I0318 17:30:52.229216 18187 net.cpp:166] Setting up relu2
I0318 17:30:52.229225 18187 net.cpp:173] Top shape: 300 256 12 12 (11059200)
I0318 17:30:52.229228 18187 net.cpp:181] Memory required for data: 562081200
I0318 17:30:52.229230 18187 layer_factory.hpp:77] Creating layer conv3
I0318 17:30:52.229238 18187 net.cpp:116] Creating Layer conv3
I0318 17:30:52.229240 18187 net.cpp:450] conv3 <- block1_pos
I0318 17:30:52.229245 18187 net.cpp:424] conv3 -> conv3
I0318 17:30:52.231775 18187 net.cpp:166] Setting up conv3
I0318 17:30:52.231788 18187 net.cpp:173] Top shape: 300 128 5 5 (960000)
I0318 17:30:52.231791 18187 net.cpp:181] Memory required for data: 565921200
I0318 17:30:52.231796 18187 layer_factory.hpp:77] Creating layer conv3_inv
I0318 17:30:52.231804 18187 net.cpp:116] Creating Layer conv3_inv
I0318 17:30:52.231807 18187 net.cpp:450] conv3_inv <- block1_inv
I0318 17:30:52.231812 18187 net.cpp:424] conv3_inv -> conv3_inv
I0318 17:30:52.234220 18187 net.cpp:166] Setting up conv3_inv
I0318 17:30:52.234233 18187 net.cpp:173] Top shape: 300 128 5 5 (960000)
I0318 17:30:52.234236 18187 net.cpp:181] Memory required for data: 569761200
I0318 17:30:52.234241 18187 layer_factory.hpp:77] Creating layer block_output
I0318 17:30:52.234247 18187 net.cpp:116] Creating Layer block_output
I0318 17:30:52.234251 18187 net.cpp:450] block_output <- conv3
I0318 17:30:52.234253 18187 net.cpp:450] block_output <- conv3_inv
I0318 17:30:52.234268 18187 net.cpp:424] block_output -> block_output
I0318 17:30:52.234293 18187 net.cpp:166] Setting up block_output
I0318 17:30:52.234302 18187 net.cpp:173] Top shape: 300 256 5 5 (1920000)
I0318 17:30:52.234305 18187 net.cpp:181] Memory required for data: 577441200
I0318 17:30:52.234308 18187 layer_factory.hpp:77] Creating layer block_output_relu
I0318 17:30:52.234311 18187 net.cpp:116] Creating Layer block_output_relu
I0318 17:30:52.234314 18187 net.cpp:450] block_output_relu <- block_output
I0318 17:30:52.234318 18187 net.cpp:411] block_output_relu -> block_output (in-place)
I0318 17:30:52.234453 18187 net.cpp:166] Setting up block_output_relu
I0318 17:30:52.234462 18187 net.cpp:173] Top shape: 300 256 5 5 (1920000)
I0318 17:30:52.234465 18187 net.cpp:181] Memory required for data: 585121200
I0318 17:30:52.234467 18187 layer_factory.hpp:77] Creating layer drop_block
I0318 17:30:52.234474 18187 net.cpp:116] Creating Layer drop_block
I0318 17:30:52.234477 18187 net.cpp:450] drop_block <- block_output
I0318 17:30:52.234480 18187 net.cpp:411] drop_block -> block_output (in-place)
I0318 17:30:52.234503 18187 net.cpp:166] Setting up drop_block
I0318 17:30:52.234508 18187 net.cpp:173] Top shape: 300 256 5 5 (1920000)
I0318 17:30:52.234509 18187 net.cpp:181] Memory required for data: 592801200
I0318 17:30:52.234513 18187 layer_factory.hpp:77] Creating layer fc_10
I0318 17:30:52.234519 18187 net.cpp:116] Creating Layer fc_10
I0318 17:30:52.234521 18187 net.cpp:450] fc_10 <- block_output
I0318 17:30:52.234524 18187 net.cpp:424] fc_10 -> fc_10
I0318 17:30:52.236045 18187 net.cpp:166] Setting up fc_10
I0318 17:30:52.236054 18187 net.cpp:173] Top shape: 300 10 (3000)
I0318 17:30:52.236057 18187 net.cpp:181] Memory required for data: 592813200
I0318 17:30:52.236064 18187 layer_factory.hpp:77] Creating layer loss
I0318 17:30:52.236069 18187 net.cpp:116] Creating Layer loss
I0318 17:30:52.236073 18187 net.cpp:450] loss <- fc_10
I0318 17:30:52.236075 18187 net.cpp:450] loss <- label
I0318 17:30:52.236079 18187 net.cpp:424] loss -> loss
I0318 17:30:52.236088 18187 layer_factory.hpp:77] Creating layer loss
…
I0318 17:30:52.237445 18187 net.cpp:338] The NetState phase (1) differed from the phase (0) specified by a rule in layer drop_block
I0318 17:30:52.237449 18187 net.cpp:338] The NetState phase (1) differed from the phase (0) specified by a rule in layer loss
I0318 17:30:52.237591 18187 net.cpp:74] Initializing net from parameters: 
name: "MNIST_NET"
state {
  phase: TEST
}
layer {
  name: "data"
  type: "ImageData"
  top: "data"
  top: "label"
  include {
    phase: TEST
  }
  image_data_param {
    source: "test.txt"
    batch_size: 100
    crop_size: 27
    shuffle: true
    is_color: false
  }
}
layer {
  name: "data_scaling"
  type: "Power"
  bottom: "data"
  top: "data"
  power_param {
    power: 1
    scale: 0.0078125
    shift: -1
  }
}
layer {
  name: "conv1"
  type: "Convolution"
  bottom: "data"
  top: "conv1"
  param {
    lr_mult: 1
    decay_mult: 1
  }
  param {
    lr_mult: 2
    decay_mult: 0
  }
  convolution_param {
    num_output: 36
    kernel_size: 3
    stride: 1
    weight_filler {
      type: "xavier"
    }
  }
}
layer {
  name: "bn1"
  type: "BatchNorm"
  bottom: "conv1"
  top: "bn1"
}
layer {
  name: "conv1_inv"
  type: "Power"
  bottom: "bn1"
  top: "conv1_inv"
  power_param {
    power: 1
    scale: -1
    shift: 0
  }
}
layer {
  name: "conv1_inv_relu"
  type: "ReLU"
  bottom: "conv1_inv"
  top: "conv1_inv"
}
layer {
  name: "relu1"
  type: "ReLU"
  bottom: "bn1"
  top: "conv1_pos"
}
layer {
  name: "conv2"
  type: "Convolution"
  bottom: "conv1_pos"
  top: "conv2"
  param {
    name: "conv2_w"
    lr_mult: 1
    decay_mult: 1
  }
  param {
    name: "conv2_b"
    lr_mult: 2
    decay_mult: 0
  }
  convolution_param {
    num_output: 128
    kernel_size: 3
    stride: 2
    weight_filler {
      type: "xavier"
    }
  }
}
layer {
  name: "conv2_inv"
  type: "Convolution"
  bottom: "conv1_inv"
  top: "conv2_inv"
  param {
    name: "conv2_inv_w"
    lr_mult: 1
    decay_mult: 1
  }
  param {
    name: "conv2_inv_b"
    lr_mult: 2
    decay_mult: 0
  }
  convolution_param {
    num_output: 128
    kernel_size: 3
    stride: 2
    weight_filler {
      type: "xavier"
    }
  }
}
layer {
  name: "block1"
  type: "Concat"
  bottom: "conv2"
  bottom: "conv2_inv"
  top: "block1"
}
layer {
  name: "bn2"
  type: "BatchNorm"
  bottom: "block1"
  top: "bn2"
}
layer {
  name: "block1_inv"
  type: "Power"
  bottom: "bn2"
  top: "block1_inv"
  power_param {
    power: 1
    scale: -1
    shift: 0
  }
}
layer {
  name: "block1_inv_relu"
  type: "ReLU"
  bottom: "block1_inv"
  top: "block1_inv"
}
layer {
  name: "relu2"
  type: "ReLU"
  bottom: "bn2"
  top: "block1_pos"
}
layer {
  name: "conv3"
  type: "Convolution"
  bottom: "block1_pos"
  top: "conv3"
  param {
    lr_mult: 1
    decay_mult: 1
  }
  param {
    lr_mult: 2
    decay_mult: 0
  }
  convolution_param {
    num_output: 128
    kernel_size: 3
    stride: 2
    weight_filler {
      type: "xavier"
    }
  }
}
layer {
  name: "conv3_inv"
  type: "Convolution"
  bottom: "block1_inv"
  top: "conv3_inv"
  param {
    lr_mult: 1
    decay_mult: 1
  }
  param {
    lr_mult: 2
    decay_mult: 0
  }
  convolution_param {
    num_output: 128
    kernel_size: 3
    stride: 2
    weight_filler {
      type: "xavier"
    }
  }
}
layer {
  name: "block_output"
  type: "Concat"
  bottom: "conv3"
  bottom: "conv3_inv"
  top: "block_output"
}
layer {
  name: "block_output_relu"
  type: "ReLU"
  bottom: "block_output"
  top: "block_output"
}
layer {
  name: "fc_10"
  type: "InnerProduct"
  bottom: "block_output"
  top: "fc_10"
  param {
    lr_mult: 5
    decay_mult: 1
  }
  param {
    lr_mult: 10
    decay_mult: 0
  }
  inner_product_param {
    num_output: 10
    weight_filler {
      type: "gaussian"
      std: 0.01
    }
    bias_filler {
      type: "constant"
      value: 0
    }
  }
}
layer {
  name: "accuracy"
  type: "Accuracy"
  bottom: "fc_10"
  bottom: "label"
  top: "accuracy"
  include {
    phase: TEST
  }
}
I0318 17:30:52.237673 18187 layer_factory.hpp:77] Creating layer data
I0318 17:30:52.237684 18187 net.cpp:116] Creating Layer data
I0318 17:30:52.237687 18187 net.cpp:424] data -> data
I0318 17:30:52.237694 18187 net.cpp:424] data -> label
I0318 17:30:52.237699 18187 image_data_layer.cpp:38] Opening file test.txt
I0318 17:30:52.239806 18187 image_data_layer.cpp:53] Shuffling data
I0318 17:30:52.240381 18187 image_data_layer.cpp:58] A total of 10000 images.
I0318 17:30:52.240512 18187 image_data_layer.cpp:85] output data size: 100,1,28,28
I0318 17:30:52.241382 18187 net.cpp:166] Setting up data
I0318 17:30:52.241394 18187 net.cpp:173] Top shape: 100 1 28 28 (78400)
I0318 17:30:52.241399 18187 net.cpp:173] Top shape: 100 (100)
I0318 17:30:52.241400 18187 net.cpp:181] Memory required for data: 314000
I0318 17:30:52.241403 18187 layer_factory.hpp:77] Creating layer data_scaling
I0318 17:30:52.241410 18187 net.cpp:116] Creating Layer data_scaling
I0318 17:30:52.241411 18187 net.cpp:450] data_scaling <- data
I0318 17:30:52.241415 18187 net.cpp:411] data_scaling -> data (in-place)
I0318 17:30:52.241421 18187 net.cpp:166] Setting up data_scaling
I0318 17:30:52.241425 18187 net.cpp:173] Top shape: 100 1 28 28 (78400)
I0318 17:30:52.241426 18187 net.cpp:181] Memory required for data: 627600
I0318 17:30:52.241428 18187 layer_factory.hpp:77] Creating layer conv1
I0318 17:30:52.241435 18187 net.cpp:116] Creating Layer conv1
I0318 17:30:52.241436 18187 net.cpp:450] conv1 <- data
I0318 17:30:52.241441 18187 net.cpp:424] conv1 -> conv1
I0318 17:30:52.242684 18187 net.cpp:166] Setting up conv1
I0318 17:30:52.242697 18187 net.cpp:173] Top shape: 100 36 26 26 (2433600)
I0318 17:30:52.242700 18187 net.cpp:181] Memory required for data: 10362000
I0318 17:30:52.242708 18187 layer_factory.hpp:77] Creating layer bn1
I0318 17:30:52.242715 18187 net.cpp:116] Creating Layer bn1
I0318 17:30:52.242717 18187 net.cpp:450] bn1 <- conv1
I0318 17:30:52.242722 18187 net.cpp:424] bn1 -> bn1
I0318 17:30:52.242923 18187 net.cpp:166] Setting up bn1
I0318 17:30:52.242930 18187 net.cpp:173] Top shape: 100 36 26 26 (2433600)
I0318 17:30:52.242933 18187 net.cpp:181] Memory required for data: 20096400
I0318 17:30:52.242941 18187 layer_factory.hpp:77] Creating layer bn1_bn1_0_split
I0318 17:30:52.242946 18187 net.cpp:116] Creating Layer bn1_bn1_0_split
I0318 17:30:52.242949 18187 net.cpp:450] bn1_bn1_0_split <- bn1
I0318 17:30:52.242959 18187 net.cpp:424] bn1_bn1_0_split -> bn1_bn1_0_split_0
I0318 17:30:52.242966 18187 net.cpp:424] bn1_bn1_0_split -> bn1_bn1_0_split_1
I0318 17:30:52.243017 18187 net.cpp:166] Setting up bn1_bn1_0_split
I0318 17:30:52.243022 18187 net.cpp:173] Top shape: 100 36 26 26 (2433600)
I0318 17:30:52.243026 18187 net.cpp:173] Top shape: 100 36 26 26 (2433600)
I0318 17:30:52.243028 18187 net.cpp:181] Memory required for data: 39565200
I0318 17:30:52.243031 18187 layer_factory.hpp:77] Creating layer conv1_inv
I0318 17:30:52.243036 18187 net.cpp:116] Creating Layer conv1_inv
I0318 17:30:52.243048 18187 net.cpp:450] conv1_inv <- bn1_bn1_0_split_0
I0318 17:30:52.243052 18187 net.cpp:424] conv1_inv -> conv1_inv
I0318 17:30:52.243077 18187 net.cpp:166] Setting up conv1_inv
I0318 17:30:52.243082 18187 net.cpp:173] Top shape: 100 36 26 26 (2433600)
I0318 17:30:52.243083 18187 net.cpp:181] Memory required for data: 49299600
I0318 17:30:52.243085 18187 layer_factory.hpp:77] Creating layer conv1_inv_relu
I0318 17:30:52.243089 18187 net.cpp:116] Creating Layer conv1_inv_relu
I0318 17:30:52.243091 18187 net.cpp:450] conv1_inv_relu <- conv1_inv
I0318 17:30:52.243095 18187 net.cpp:411] conv1_inv_relu -> conv1_inv (in-place)
I0318 17:30:52.243340 18187 net.cpp:166] Setting up conv1_inv_relu
I0318 17:30:52.243350 18187 net.cpp:173] Top shape: 100 36 26 26 (2433600)
I0318 17:30:52.243352 18187 net.cpp:181] Memory required for data: 59034000
I0318 17:30:52.243355 18187 layer_factory.hpp:77] Creating layer relu1
I0318 17:30:52.243360 18187 net.cpp:116] Creating Layer relu1
I0318 17:30:52.243363 18187 net.cpp:450] relu1 <- bn1_bn1_0_split_1
I0318 17:30:52.243366 18187 net.cpp:424] relu1 -> conv1_pos
I0318 17:30:52.243680 18187 net.cpp:166] Setting up relu1
I0318 17:30:52.243690 18187 net.cpp:173] Top shape: 100 36 26 26 (2433600)
I0318 17:30:52.243693 18187 net.cpp:181] Memory required for data: 68768400
I0318 17:30:52.243695 18187 layer_factory.hpp:77] Creating layer conv2
I0318 17:30:52.243706 18187 net.cpp:116] Creating Layer conv2
I0318 17:30:52.243710 18187 net.cpp:450] conv2 <- conv1_pos
I0318 17:30:52.243715 18187 net.cpp:424] conv2 -> conv2
I0318 17:30:52.244860 18187 net.cpp:166] Setting up conv2
I0318 17:30:52.244874 18187 net.cpp:173] Top shape: 100 128 12 12 (1843200)
I0318 17:30:52.244877 18187 net.cpp:181] Memory required for data: 76141200
I0318 17:30:52.244882 18187 layer_factory.hpp:77] Creating layer conv2_inv
I0318 17:30:52.244900 18187 net.cpp:116] Creating Layer conv2_inv
I0318 17:30:52.244904 18187 net.cpp:450] conv2_inv <- conv1_inv
I0318 17:30:52.244910 18187 net.cpp:424] conv2_inv -> conv2_inv
I0318 17:30:52.246047 18187 net.cpp:166] Setting up conv2_inv
I0318 17:30:52.246058 18187 net.cpp:173] Top shape: 100 128 12 12 (1843200)
I0318 17:30:52.246062 18187 net.cpp:181] Memory required for data: 83514000
I0318 17:30:52.246068 18187 layer_factory.hpp:77] Creating layer block1
I0318 17:30:52.246076 18187 net.cpp:116] Creating Layer block1
I0318 17:30:52.246079 18187 net.cpp:450] block1 <- conv2
I0318 17:30:52.246083 18187 net.cpp:450] block1 <- conv2_inv
I0318 17:30:52.246085 18187 net.cpp:424] block1 -> block1
I0318 17:30:52.246119 18187 net.cpp:166] Setting up block1
I0318 17:30:52.246126 18187 net.cpp:173] Top shape: 100 256 12 12 (3686400)
I0318 17:30:52.246129 18187 net.cpp:181] Memory required for data: 98259600
I0318 17:30:52.246130 18187 layer_factory.hpp:77] Creating layer bn2
I0318 17:30:52.246135 18187 net.cpp:116] Creating Layer bn2
I0318 17:30:52.246139 18187 net.cpp:450] bn2 <- block1
I0318 17:30:52.246141 18187 net.cpp:424] bn2 -> bn2
I0318 17:30:52.246312 18187 net.cpp:166] Setting up bn2
I0318 17:30:52.246320 18187 net.cpp:173] Top shape: 100 256 12 12 (3686400)
I0318 17:30:52.246322 18187 net.cpp:181] Memory required for data: 113005200
I0318 17:30:52.246328 18187 layer_factory.hpp:77] Creating layer bn2_bn2_0_split
I0318 17:30:52.246332 18187 net.cpp:116] Creating Layer bn2_bn2_0_split
I0318 17:30:52.246335 18187 net.cpp:450] bn2_bn2_0_split <- bn2
I0318 17:30:52.246338 18187 net.cpp:424] bn2_bn2_0_split -> bn2_bn2_0_split_0
I0318 17:30:52.246343 18187 net.cpp:424] bn2_bn2_0_split -> bn2_bn2_0_split_1
I0318 17:30:52.246373 18187 net.cpp:166] Setting up bn2_bn2_0_split
I0318 17:30:52.246381 18187 net.cpp:173] Top shape: 100 256 12 12 (3686400)
I0318 17:30:52.246383 18187 net.cpp:173] Top shape: 100 256 12 12 (3686400)
I0318 17:30:52.246386 18187 net.cpp:181] Memory required for data: 142496400
I0318 17:30:52.246387 18187 layer_factory.hpp:77] Creating layer block1_inv
I0318 17:30:52.246393 18187 net.cpp:116] Creating Layer block1_inv
I0318 17:30:52.246409 18187 net.cpp:450] block1_inv <- bn2_bn2_0_split_0
I0318 17:30:52.246412 18187 net.cpp:424] block1_inv -> block1_inv
I0318 17:30:52.246434 18187 net.cpp:166] Setting up block1_inv
I0318 17:30:52.246438 18187 net.cpp:173] Top shape: 100 256 12 12 (3686400)
I0318 17:30:52.246441 18187 net.cpp:181] Memory required for data: 157242000
I0318 17:30:52.246443 18187 layer_factory.hpp:77] Creating layer block1_inv_relu
I0318 17:30:52.246446 18187 net.cpp:116] Creating Layer block1_inv_relu
I0318 17:30:52.246449 18187 net.cpp:450] block1_inv_relu <- block1_inv
I0318 17:30:52.246454 18187 net.cpp:411] block1_inv_relu -> block1_inv (in-place)
I0318 17:30:52.246757 18187 net.cpp:166] Setting up block1_inv_relu
I0318 17:30:52.246767 18187 net.cpp:173] Top shape: 100 256 12 12 (3686400)
I0318 17:30:52.246768 18187 net.cpp:181] Memory required for data: 171987600
I0318 17:30:52.246773 18187 layer_factory.hpp:77] Creating layer relu2
I0318 17:30:52.246776 18187 net.cpp:116] Creating Layer relu2
I0318 17:30:52.246779 18187 net.cpp:450] relu2 <- bn2_bn2_0_split_1
I0318 17:30:52.246784 18187 net.cpp:424] relu2 -> block1_pos
I0318 17:30:52.246980 18187 net.cpp:166] Setting up relu2
I0318 17:30:52.246991 18187 net.cpp:173] Top shape: 100 256 12 12 (3686400)
I0318 17:30:52.246994 18187 net.cpp:181] Memory required for data: 186733200
I0318 17:30:52.246997 18187 layer_factory.hpp:77] Creating layer conv3
I0318 17:30:52.247006 18187 net.cpp:116] Creating Layer conv3
I0318 17:30:52.247009 18187 net.cpp:450] conv3 <- block1_pos
I0318 17:30:52.247015 18187 net.cpp:424] conv3 -> conv3
I0318 17:30:52.249634 18187 net.cpp:166] Setting up conv3
I0318 17:30:52.249647 18187 net.cpp:173] Top shape: 100 128 5 5 (320000)
I0318 17:30:52.249650 18187 net.cpp:181] Memory required for data: 188013200
I0318 17:30:52.249655 18187 layer_factory.hpp:77] Creating layer conv3_inv
I0318 17:30:52.249665 18187 net.cpp:116] Creating Layer conv3_inv
I0318 17:30:52.249668 18187 net.cpp:450] conv3_inv <- block1_inv
I0318 17:30:52.249673 18187 net.cpp:424] conv3_inv -> conv3_inv
I0318 17:30:52.252256 18187 net.cpp:166] Setting up conv3_inv
I0318 17:30:52.252269 18187 net.cpp:173] Top shape: 100 128 5 5 (320000)
I0318 17:30:52.252270 18187 net.cpp:181] Memory required for data: 189293200
I0318 17:30:52.252275 18187 layer_factory.hpp:77] Creating layer block_output
I0318 17:30:52.252282 18187 net.cpp:116] Creating Layer block_output
I0318 17:30:52.252285 18187 net.cpp:450] block_output <- conv3
I0318 17:30:52.252290 18187 net.cpp:450] block_output <- conv3_inv
I0318 17:30:52.252295 18187 net.cpp:424] block_output -> block_output
I0318 17:30:52.252323 18187 net.cpp:166] Setting up block_output
I0318 17:30:52.252328 18187 net.cpp:173] Top shape: 100 256 5 5 (640000)
I0318 17:30:52.252331 18187 net.cpp:181] Memory required for data: 191853200
I0318 17:30:52.252333 18187 layer_factory.hpp:77] Creating layer block_output_relu
I0318 17:30:52.252337 18187 net.cpp:116] Creating Layer block_output_relu
I0318 17:30:52.252339 18187 net.cpp:450] block_output_relu <- block_output
I0318 17:30:52.252343 18187 net.cpp:411] block_output_relu -> block_output (in-place)
I0318 17:30:52.252496 18187 net.cpp:166] Setting up block_output_relu
I0318 17:30:52.252506 18187 net.cpp:173] Top shape: 100 256 5 5 (640000)
I0318 17:30:52.252507 18187 net.cpp:181] Memory required for data: 194413200
I0318 17:30:52.252511 18187 layer_factory.hpp:77] Creating layer fc_10
I0318 17:30:52.252518 18187 net.cpp:116] Creating Layer fc_10
I0318 17:30:52.252521 18187 net.cpp:450] fc_10 <- block_output
I0318 17:30:52.252526 18187 net.cpp:424] fc_10 -> fc_10
I0318 17:30:52.254444 18187 net.cpp:166] Setting up fc_10
I0318 17:30:52.254454 18187 net.cpp:173] Top shape: 100 10 (1000)
I0318 17:30:52.254457 18187 net.cpp:181] Memory required for data: 194417200
I0318 17:30:52.254464 18187 layer_factory.hpp:77] Creating layer accuracy
I0318 17:30:52.254479 18187 net.cpp:116] Creating Layer accuracy
I0318 17:30:52.254483 18187 net.cpp:450] accuracy <- fc_10
I0318 17:30:52.254487 18187 net.cpp:450] accuracy <- label
I0318 17:30:52.254499 18187 net.cpp:424] accuracy -> accuracy
…
