…
I0318 15:50:33.488853  3209 net.cpp:338] The NetState phase (0) differed from the phase (1) specified by a rule in layer data
I0318 15:50:33.488869  3209 net.cpp:338] The NetState phase (0) differed from the phase (1) specified by a rule in layer accuracy
I0318 15:50:33.489040  3209 net.cpp:74] Initializing net from parameters: 
name: "MNIST_NET"
state {
  phase: TRAIN
  level: 0
  stage: ""
}
layer {
  name: "data"
  type: "ImageData"
  top: "data"
  top: "label"
  include {
    phase: TRAIN
  }
  image_data_param {
    source: "train.txt"
    batch_size: 300
    crop_size: 27
    shuffle: true
    is_color: false
  }
}
layer {
  name: "data_scaling"
  type: "Power"
  bottom: "data"
  top: "data"
  power_param {
    power: 1
    scale: 0.0078125
    shift: -1
  }
}
layer {
  name: "data_drop"
  type: "Dropout"
  bottom: "data"
  top: "data"
  include {
    phase: TRAIN
  }
  dropout_param {
    dropout_ratio: 0.01
  }
}
layer {
  name: "data_vision"
  type: "VisionTransformation"
  bottom: "data"
  top: "data"
  include {
    phase: TRAIN
  }
  vision_transformation_param {
    noise_mean: 0
    noise_std: 0
    noise_std_small: 0
    rotate_min_angle: -20
    rotate_max_angle: 20
    rotate_fill_value: 0
    per_pixel_multiplier_mean: 1
    per_pixel_multiplier_std: 0
    rescale_probability: 0.25
    constant_multiplier_mean: 1
    constant_multiplier_std: 0
    scale_mean: 1
    scale_std: 0.1
    constant_multiplier_color_mean: 0
    constant_multiplier_color_std: 0
    value_cap_min: 0
    value_cap_max: 0
    passthrough_probability: 0.5
  }
}
layer {
  name: "conv1"
  type: "Convolution"
  bottom: "data"
  top: "conv1"
  param {
    lr_mult: 1
    decay_mult: 1
  }
  param {
    lr_mult: 2
    decay_mult: 0
  }
  convolution_param {
    num_output: 36
    kernel_size: 3
    stride: 1
    weight_filler {
      type: "xavier"
    }
  }
}
layer {
  name: "bn1"
  type: "BatchNorm"
  bottom: "conv1"
  top: "bn1"
}
layer {
  name: "conv1_inv"
  type: "Power"
  bottom: "bn1"
  top: "conv1_inv"
  power_param {
    power: 1
    scale: -1
    shift: 0
  }
}
layer {
  name: "conv1_inv_relu"
  type: "ReLU"
  bottom: "conv1_inv"
  top: "conv1_inv"
}
layer {
  name: "relu1"
  type: "ReLU"
  bottom: "bn1"
  top: "conv1_pos"
}
layer {
  name: "conv2"
  type: "Convolution"
  bottom: "conv1_pos"
  top: "conv2"
  param {
    name: "conv2_w"
    lr_mult: 1
    decay_mult: 1
  }
  param {
    name: "conv2_b"
    lr_mult: 2
    decay_mult: 0
  }
  convolution_param {
    num_output: 128
    kernel_size: 3
    stride: 2
    weight_filler {
      type: "xavier"
    }
  }
}
layer {
  name: "conv2_inv"
  type: "Convolution"
  bottom: "conv1_inv"
  top: "conv2_inv"
  param {
    name: "conv2_inv_w"
    lr_mult: 1
    decay_mult: 1
  }
  param {
    name: "conv2_inv_b"
    lr_mult: 2
    decay_mult: 0
  }
  convolution_param {
    num_output: 128
    kernel_size: 3
    stride: 2
    weight_filler {
      type: "xavier"
    }
  }
}
layer {
  name: "block1"
  type: "Concat"
  bottom: "conv2"
  bottom: "conv2_inv"
  top: "block1"
}
layer {
  name: "bn2"
  type: "BatchNorm"
  bottom: "block1"
  top: "bn2"
}
layer {
  name: "block1_inv"
  type: "Power"
  bottom: "bn2"
  top: "block1_inv"
  power_param {
    power: 1
    scale: -1
    shift: 0
  }
}
layer {
  name: "block1_inv_relu"
  type: "ReLU"
  bottom: "block1_inv"
  top: "block1_inv"
}
layer {
  name: "relu2"
  type: "ReLU"
  bottom: "bn2"
  top: "block1_pos"
}
layer {
  name: "conv3"
  type: "Convolution"
  bottom: "block1_pos"
  top: "conv3"
  param {
    lr_mult: 1
    decay_mult: 1
  }
  param {
    lr_mult: 2
    decay_mult: 0
  }
  convolution_param {
    num_output: 128
    kernel_size: 3
    stride: 2
    weight_filler {
      type: "xavier"
    }
  }
}
layer {
  name: "conv3_inv"
  type: "Convolution"
  bottom: "block1_inv"
  top: "conv3_inv"
  param {
    lr_mult: 1
    decay_mult: 1
  }
  param {
    lr_mult: 2
    decay_mult: 0
  }
  convolution_param {
    num_output: 128
    kernel_size: 3
    stride: 2
    weight_filler {
      type: "xavier"
    }
  }
}
layer {
  name: "block_output"
  type: "Concat"
  bottom: "conv3"
  bottom: "conv3_inv"
  top: "block_output"
}
layer {
  name: "block_output_relu"
  type: "ReLU"
  bottom: "block_output"
  top: "block_output"
}
layer {
  name: "fc_10"
  type: "InnerProduct"
  bottom: "block_output"
  top: "fc_10"
  param {
    lr_mult: 5
    decay_mult: 1
  }
  param {
    lr_mult: 10
    decay_mult: 0
  }
  inner_product_param {
    num_output: 10
    weight_filler {
      type: "gaussian"
      std: 0.01
    }
    bias_filler {
      type: "constant"
      value: 0
    }
  }
}
layer {
  name: "loss"
  type: "SoftmaxWithLoss"
  bottom: "fc_10"
  bottom: "label"
  top: "loss"
  include {
    phase: TRAIN
  }
}
I0318 15:50:33.489167  3209 layer_factory.hpp:77] Creating layer data
I0318 15:50:33.489202  3209 net.cpp:116] Creating Layer data
I0318 15:50:33.489207  3209 net.cpp:424] data -> data
I0318 15:50:33.489224  3209 net.cpp:424] data -> label
I0318 15:50:33.489235  3209 image_data_layer.cpp:38] Opening file train.txt
I0318 15:50:33.501576  3209 image_data_layer.cpp:53] Shuffling data
I0318 15:50:33.505761  3209 image_data_layer.cpp:58] A total of 60000 images.
I0318 15:50:33.515841  3209 image_data_layer.cpp:85] output data size: 300,1,28,28
I0318 15:50:33.518461  3209 net.cpp:166] Setting up data
I0318 15:50:33.518479  3209 net.cpp:173] Top shape: 300 1 28 28 (235200)
I0318 15:50:33.518483  3209 net.cpp:173] Top shape: 300 (300)
I0318 15:50:33.518486  3209 net.cpp:181] Memory required for data: 942000
I0318 15:50:33.518491  3209 layer_factory.hpp:77] Creating layer data_scaling
I0318 15:50:33.518503  3209 net.cpp:116] Creating Layer data_scaling
I0318 15:50:33.518507  3209 net.cpp:450] data_scaling <- data
I0318 15:50:33.518517  3209 net.cpp:411] data_scaling -> data (in-place)
I0318 15:50:33.518527  3209 net.cpp:166] Setting up data_scaling
I0318 15:50:33.518530  3209 net.cpp:173] Top shape: 300 1 28 28 (235200)
I0318 15:50:33.518532  3209 net.cpp:181] Memory required for data: 1882800
I0318 15:50:33.518534  3209 layer_factory.hpp:77] Creating layer data_drop
I0318 15:50:33.518542  3209 net.cpp:116] Creating Layer data_drop
I0318 15:50:33.518544  3209 net.cpp:450] data_drop <- data
I0318 15:50:33.518549  3209 net.cpp:411] data_drop -> data (in-place)
I0318 15:50:33.518580  3209 net.cpp:166] Setting up data_drop
I0318 15:50:33.518584  3209 net.cpp:173] Top shape: 300 1 28 28 (235200)
I0318 15:50:33.518586  3209 net.cpp:181] Memory required for data: 2823600
I0318 15:50:33.518589  3209 layer_factory.hpp:77] Creating layer data_vision
I0318 15:50:33.518594  3209 net.cpp:116] Creating Layer data_vision
I0318 15:50:33.518597  3209 net.cpp:450] data_vision <- data
I0318 15:50:33.518601  3209 net.cpp:411] data_vision -> data (in-place)
I0318 15:50:33.518609  3209 net.cpp:166] Setting up data_vision
I0318 15:50:33.518611  3209 net.cpp:173] Top shape: 300 1 28 28 (235200)
I0318 15:50:33.518613  3209 net.cpp:181] Memory required for data: 3764400
I0318 15:50:33.518616  3209 layer_factory.hpp:77] Creating layer conv1
I0318 15:50:33.518630  3209 net.cpp:116] Creating Layer conv1
I0318 15:50:33.518632  3209 net.cpp:450] conv1 <- data
I0318 15:50:33.518636  3209 net.cpp:424] conv1 -> conv1
I0318 15:50:33.686035  3209 net.cpp:166] Setting up conv1
I0318 15:50:33.686081  3209 net.cpp:173] Top shape: 300 36 26 26 (7300800)
I0318 15:50:33.686084  3209 net.cpp:181] Memory required for data: 32967600
I0318 15:50:33.686100  3209 layer_factory.hpp:77] Creating layer bn1
I0318 15:50:33.686110  3209 net.cpp:116] Creating Layer bn1
I0318 15:50:33.686113  3209 net.cpp:450] bn1 <- conv1
I0318 15:50:33.686118  3209 net.cpp:424] bn1 -> bn1
I0318 15:50:33.686276  3209 net.cpp:166] Setting up bn1
I0318 15:50:33.686285  3209 net.cpp:173] Top shape: 300 36 26 26 (7300800)
I0318 15:50:33.686288  3209 net.cpp:181] Memory required for data: 62170800
I0318 15:50:33.686297  3209 layer_factory.hpp:77] Creating layer bn1_bn1_0_split
I0318 15:50:33.686302  3209 net.cpp:116] Creating Layer bn1_bn1_0_split
I0318 15:50:33.686305  3209 net.cpp:450] bn1_bn1_0_split <- bn1
I0318 15:50:33.686309  3209 net.cpp:424] bn1_bn1_0_split -> bn1_bn1_0_split_0
I0318 15:50:33.686314  3209 net.cpp:424] bn1_bn1_0_split -> bn1_bn1_0_split_1
I0318 15:50:33.686342  3209 net.cpp:166] Setting up bn1_bn1_0_split
I0318 15:50:33.686347  3209 net.cpp:173] Top shape: 300 36 26 26 (7300800)
I0318 15:50:33.686349  3209 net.cpp:173] Top shape: 300 36 26 26 (7300800)
I0318 15:50:33.686352  3209 net.cpp:181] Memory required for data: 120577200
I0318 15:50:33.686354  3209 layer_factory.hpp:77] Creating layer conv1_inv
I0318 15:50:33.686359  3209 net.cpp:116] Creating Layer conv1_inv
I0318 15:50:33.686362  3209 net.cpp:450] conv1_inv <- bn1_bn1_0_split_0
I0318 15:50:33.686365  3209 net.cpp:424] conv1_inv -> conv1_inv
I0318 15:50:33.686380  3209 net.cpp:166] Setting up conv1_inv
I0318 15:50:33.686385  3209 net.cpp:173] Top shape: 300 36 26 26 (7300800)
I0318 15:50:33.686388  3209 net.cpp:181] Memory required for data: 149780400
I0318 15:50:33.686389  3209 layer_factory.hpp:77] Creating layer conv1_inv_relu
I0318 15:50:33.686394  3209 net.cpp:116] Creating Layer conv1_inv_relu
I0318 15:50:33.686398  3209 net.cpp:450] conv1_inv_relu <- conv1_inv
I0318 15:50:33.686400  3209 net.cpp:411] conv1_inv_relu -> conv1_inv (in-place)
I0318 15:50:33.686676  3209 net.cpp:166] Setting up conv1_inv_relu
I0318 15:50:33.686687  3209 net.cpp:173] Top shape: 300 36 26 26 (7300800)
I0318 15:50:33.686691  3209 net.cpp:181] Memory required for data: 178983600
I0318 15:50:33.686693  3209 layer_factory.hpp:77] Creating layer relu1
I0318 15:50:33.686698  3209 net.cpp:116] Creating Layer relu1
I0318 15:50:33.686700  3209 net.cpp:450] relu1 <- bn1_bn1_0_split_1
I0318 15:50:33.686704  3209 net.cpp:424] relu1 -> conv1_pos
I0318 15:50:33.686846  3209 net.cpp:166] Setting up relu1
I0318 15:50:33.686854  3209 net.cpp:173] Top shape: 300 36 26 26 (7300800)
I0318 15:50:33.686856  3209 net.cpp:181] Memory required for data: 208186800
I0318 15:50:33.686859  3209 layer_factory.hpp:77] Creating layer conv2
I0318 15:50:33.686869  3209 net.cpp:116] Creating Layer conv2
I0318 15:50:33.686872  3209 net.cpp:450] conv2 <- conv1_pos
I0318 15:50:33.686877  3209 net.cpp:424] conv2 -> conv2
I0318 15:50:33.688258  3209 net.cpp:166] Setting up conv2
I0318 15:50:33.688272  3209 net.cpp:173] Top shape: 300 128 12 12 (5529600)
I0318 15:50:33.688274  3209 net.cpp:181] Memory required for data: 230305200
I0318 15:50:33.688280  3209 layer_factory.hpp:77] Creating layer conv2_inv
I0318 15:50:33.688288  3209 net.cpp:116] Creating Layer conv2_inv
I0318 15:50:33.688292  3209 net.cpp:450] conv2_inv <- conv1_inv
I0318 15:50:33.688297  3209 net.cpp:424] conv2_inv -> conv2_inv
I0318 15:50:33.689285  3209 net.cpp:166] Setting up conv2_inv
I0318 15:50:33.689296  3209 net.cpp:173] Top shape: 300 128 12 12 (5529600)
I0318 15:50:33.689299  3209 net.cpp:181] Memory required for data: 252423600
I0318 15:50:33.689306  3209 layer_factory.hpp:77] Creating layer block1
I0318 15:50:33.689312  3209 net.cpp:116] Creating Layer block1
I0318 15:50:33.689314  3209 net.cpp:450] block1 <- conv2
I0318 15:50:33.689318  3209 net.cpp:450] block1 <- conv2_inv
I0318 15:50:33.689321  3209 net.cpp:424] block1 -> block1
I0318 15:50:33.689344  3209 net.cpp:166] Setting up block1
I0318 15:50:33.689348  3209 net.cpp:173] Top shape: 300 256 12 12 (11059200)
I0318 15:50:33.689362  3209 net.cpp:181] Memory required for data: 296660400
I0318 15:50:33.689364  3209 layer_factory.hpp:77] Creating layer bn2
I0318 15:50:33.689369  3209 net.cpp:116] Creating Layer bn2
I0318 15:50:33.689371  3209 net.cpp:450] bn2 <- block1
I0318 15:50:33.689375  3209 net.cpp:424] bn2 -> bn2
I0318 15:50:33.689523  3209 net.cpp:166] Setting up bn2
I0318 15:50:33.689532  3209 net.cpp:173] Top shape: 300 256 12 12 (11059200)
I0318 15:50:33.689534  3209 net.cpp:181] Memory required for data: 340897200
I0318 15:50:33.689540  3209 layer_factory.hpp:77] Creating layer bn2_bn2_0_split
I0318 15:50:33.689544  3209 net.cpp:116] Creating Layer bn2_bn2_0_split
I0318 15:50:33.689548  3209 net.cpp:450] bn2_bn2_0_split <- bn2
I0318 15:50:33.689550  3209 net.cpp:424] bn2_bn2_0_split -> bn2_bn2_0_split_0
I0318 15:50:33.689555  3209 net.cpp:424] bn2_bn2_0_split -> bn2_bn2_0_split_1
I0318 15:50:33.689581  3209 net.cpp:166] Setting up bn2_bn2_0_split
I0318 15:50:33.689585  3209 net.cpp:173] Top shape: 300 256 12 12 (11059200)
I0318 15:50:33.689589  3209 net.cpp:173] Top shape: 300 256 12 12 (11059200)
I0318 15:50:33.689590  3209 net.cpp:181] Memory required for data: 429370800
I0318 15:50:33.689592  3209 layer_factory.hpp:77] Creating layer block1_inv
I0318 15:50:33.689597  3209 net.cpp:116] Creating Layer block1_inv
I0318 15:50:33.689600  3209 net.cpp:450] block1_inv <- bn2_bn2_0_split_0
I0318 15:50:33.689604  3209 net.cpp:424] block1_inv -> block1_inv
I0318 15:50:33.689618  3209 net.cpp:166] Setting up block1_inv
I0318 15:50:33.689622  3209 net.cpp:173] Top shape: 300 256 12 12 (11059200)
I0318 15:50:33.689625  3209 net.cpp:181] Memory required for data: 473607600
I0318 15:50:33.689626  3209 layer_factory.hpp:77] Creating layer block1_inv_relu
I0318 15:50:33.689632  3209 net.cpp:116] Creating Layer block1_inv_relu
I0318 15:50:33.689635  3209 net.cpp:450] block1_inv_relu <- block1_inv
I0318 15:50:33.689637  3209 net.cpp:411] block1_inv_relu -> block1_inv (in-place)
I0318 15:50:33.689901  3209 net.cpp:166] Setting up block1_inv_relu
I0318 15:50:33.689913  3209 net.cpp:173] Top shape: 300 256 12 12 (11059200)
I0318 15:50:33.689915  3209 net.cpp:181] Memory required for data: 517844400
I0318 15:50:33.689918  3209 layer_factory.hpp:77] Creating layer relu2
I0318 15:50:33.689923  3209 net.cpp:116] Creating Layer relu2
I0318 15:50:33.689925  3209 net.cpp:450] relu2 <- bn2_bn2_0_split_1
I0318 15:50:33.689929  3209 net.cpp:424] relu2 -> block1_pos
I0318 15:50:33.690068  3209 net.cpp:166] Setting up relu2
I0318 15:50:33.690078  3209 net.cpp:173] Top shape: 300 256 12 12 (11059200)
I0318 15:50:33.690080  3209 net.cpp:181] Memory required for data: 562081200
I0318 15:50:33.690083  3209 layer_factory.hpp:77] Creating layer conv3
I0318 15:50:33.690090  3209 net.cpp:116] Creating Layer conv3
I0318 15:50:33.690093  3209 net.cpp:450] conv3 <- block1_pos
I0318 15:50:33.690098  3209 net.cpp:424] conv3 -> conv3
I0318 15:50:33.692607  3209 net.cpp:166] Setting up conv3
I0318 15:50:33.692620  3209 net.cpp:173] Top shape: 300 128 5 5 (960000)
I0318 15:50:33.692623  3209 net.cpp:181] Memory required for data: 565921200
I0318 15:50:33.692629  3209 layer_factory.hpp:77] Creating layer conv3_inv
I0318 15:50:33.692637  3209 net.cpp:116] Creating Layer conv3_inv
I0318 15:50:33.692641  3209 net.cpp:450] conv3_inv <- block1_inv
I0318 15:50:33.692644  3209 net.cpp:424] conv3_inv -> conv3_inv
I0318 15:50:33.695070  3209 net.cpp:166] Setting up conv3_inv
I0318 15:50:33.695083  3209 net.cpp:173] Top shape: 300 128 5 5 (960000)
I0318 15:50:33.695086  3209 net.cpp:181] Memory required for data: 569761200
I0318 15:50:33.695091  3209 layer_factory.hpp:77] Creating layer block_output
I0318 15:50:33.695096  3209 net.cpp:116] Creating Layer block_output
I0318 15:50:33.695098  3209 net.cpp:450] block_output <- conv3
I0318 15:50:33.695102  3209 net.cpp:450] block_output <- conv3_inv
I0318 15:50:33.695106  3209 net.cpp:424] block_output -> block_output
I0318 15:50:33.695132  3209 net.cpp:166] Setting up block_output
I0318 15:50:33.695147  3209 net.cpp:173] Top shape: 300 256 5 5 (1920000)
I0318 15:50:33.695149  3209 net.cpp:181] Memory required for data: 577441200
I0318 15:50:33.695152  3209 layer_factory.hpp:77] Creating layer block_output_relu
I0318 15:50:33.695158  3209 net.cpp:116] Creating Layer block_output_relu
I0318 15:50:33.695159  3209 net.cpp:450] block_output_relu <- block_output
I0318 15:50:33.695163  3209 net.cpp:411] block_output_relu -> block_output (in-place)
I0318 15:50:33.695307  3209 net.cpp:166] Setting up block_output_relu
I0318 15:50:33.695324  3209 net.cpp:173] Top shape: 300 256 5 5 (1920000)
I0318 15:50:33.695327  3209 net.cpp:181] Memory required for data: 585121200
I0318 15:50:33.695329  3209 layer_factory.hpp:77] Creating layer fc_10
I0318 15:50:33.695336  3209 net.cpp:116] Creating Layer fc_10
I0318 15:50:33.695339  3209 net.cpp:450] fc_10 <- block_output
I0318 15:50:33.695343  3209 net.cpp:424] fc_10 -> fc_10
I0318 15:50:33.696866  3209 net.cpp:166] Setting up fc_10
I0318 15:50:33.696873  3209 net.cpp:173] Top shape: 300 10 (3000)
I0318 15:50:33.696876  3209 net.cpp:181] Memory required for data: 585133200
I0318 15:50:33.696883  3209 layer_factory.hpp:77] Creating layer loss
I0318 15:50:33.696889  3209 net.cpp:116] Creating Layer loss
I0318 15:50:33.696892  3209 net.cpp:450] loss <- fc_10
I0318 15:50:33.696895  3209 net.cpp:450] loss <- label
I0318 15:50:33.696900  3209 net.cpp:424] loss -> loss
I0318 15:50:33.696908  3209 layer_factory.hpp:77] Creating layer loss
…
I0318 15:50:33.698231  3209 net.cpp:338] The NetState phase (1) differed from the phase (0) specified by a rule in layer data_vision
I0318 15:50:33.698240  3209 net.cpp:338] The NetState phase (1) differed from the phase (0) specified by a rule in layer loss
I0318 15:50:33.698382  3209 net.cpp:74] Initializing net from parameters: 
name: "MNIST_NET"
state {
  phase: TEST
}
layer {
  name: "data"
  type: "ImageData"
  top: "data"
  top: "label"
  include {
    phase: TEST
  }
  image_data_param {
    source: "test.txt"
    batch_size: 100
    crop_size: 27
    shuffle: true
    is_color: false
  }
}
layer {
  name: "data_scaling"
  type: "Power"
  bottom: "data"
  top: "data"
  power_param {
    power: 1
    scale: 0.0078125
    shift: -1
  }
}
layer {
  name: "conv1"
  type: "Convolution"
  bottom: "data"
  top: "conv1"
  param {
    lr_mult: 1
    decay_mult: 1
  }
  param {
    lr_mult: 2
    decay_mult: 0
  }
  convolution_param {
    num_output: 36
    kernel_size: 3
    stride: 1
    weight_filler {
      type: "xavier"
    }
  }
}
layer {
  name: "bn1"
  type: "BatchNorm"
  bottom: "conv1"
  top: "bn1"
}
layer {
  name: "conv1_inv"
  type: "Power"
  bottom: "bn1"
  top: "conv1_inv"
  power_param {
    power: 1
    scale: -1
    shift: 0
  }
}
layer {
  name: "conv1_inv_relu"
  type: "ReLU"
  bottom: "conv1_inv"
  top: "conv1_inv"
}
layer {
  name: "relu1"
  type: "ReLU"
  bottom: "bn1"
  top: "conv1_pos"
}
layer {
  name: "conv2"
  type: "Convolution"
  bottom: "conv1_pos"
  top: "conv2"
  param {
    name: "conv2_w"
    lr_mult: 1
    decay_mult: 1
  }
  param {
    name: "conv2_b"
    lr_mult: 2
    decay_mult: 0
  }
  convolution_param {
    num_output: 128
    kernel_size: 3
    stride: 2
    weight_filler {
      type: "xavier"
    }
  }
}
layer {
  name: "conv2_inv"
  type: "Convolution"
  bottom: "conv1_inv"
  top: "conv2_inv"
  param {
    name: "conv2_inv_w"
    lr_mult: 1
    decay_mult: 1
  }
  param {
    name: "conv2_inv_b"
    lr_mult: 2
    decay_mult: 0
  }
  convolution_param {
    num_output: 128
    kernel_size: 3
    stride: 2
    weight_filler {
      type: "xavier"
    }
  }
}
layer {
  name: "block1"
  type: "Concat"
  bottom: "conv2"
  bottom: "conv2_inv"
  top: "block1"
}
layer {
  name: "bn2"
  type: "BatchNorm"
  bottom: "block1"
  top: "bn2"
}
layer {
  name: "block1_inv"
  type: "Power"
  bottom: "bn2"
  top: "block1_inv"
  power_param {
    power: 1
    scale: -1
    shift: 0
  }
}
layer {
  name: "block1_inv_relu"
  type: "ReLU"
  bottom: "block1_inv"
  top: "block1_inv"
}
layer {
  name: "relu2"
  type: "ReLU"
  bottom: "bn2"
  top: "block1_pos"
}
layer {
  name: "conv3"
  type: "Convolution"
  bottom: "block1_pos"
  top: "conv3"
  param {
    lr_mult: 1
    decay_mult: 1
  }
  param {
    lr_mult: 2
    decay_mult: 0
  }
  convolution_param {
    num_output: 128
    kernel_size: 3
    stride: 2
    weight_filler {
      type: "xavier"
    }
  }
}
layer {
  name: "conv3_inv"
  type: "Convolution"
  bottom: "block1_inv"
  top: "conv3_inv"
  param {
    lr_mult: 1
    decay_mult: 1
  }
  param {
    lr_mult: 2
    decay_mult: 0
  }
  convolution_param {
    num_output: 128
    kernel_size: 3
    stride: 2
    weight_filler {
      type: "xavier"
    }
  }
}
layer {
  name: "block_output"
  type: "Concat"
  bottom: "conv3"
  bottom: "conv3_inv"
  top: "block_output"
}
layer {
  name: "block_output_relu"
  type: "ReLU"
  bottom: "block_output"
  top: "block_output"
}
layer {
  name: "fc_10"
  type: "InnerProduct"
  bottom: "block_output"
  top: "fc_10"
  param {
    lr_mult: 5
    decay_mult: 1
  }
  param {
    lr_mult: 10
    decay_mult: 0
  }
  inner_product_param {
    num_output: 10
    weight_filler {
      type: "gaussian"
      std: 0.01
    }
    bias_filler {
      type: "constant"
      value: 0
    }
  }
}
layer {
  name: "accuracy"
  type: "Accuracy"
  bottom: "fc_10"
  bottom: "label"
  top: "accuracy"
  include {
    phase: TEST
  }
}
I0318 15:50:33.698475  3209 layer_factory.hpp:77] Creating layer data
I0318 15:50:33.698487  3209 net.cpp:116] Creating Layer data
I0318 15:50:33.698492  3209 net.cpp:424] data -> data
I0318 15:50:33.698498  3209 net.cpp:424] data -> label
I0318 15:50:33.698503  3209 image_data_layer.cpp:38] Opening file test.txt
I0318 15:50:33.700644  3209 image_data_layer.cpp:53] Shuffling data
I0318 15:50:33.701220  3209 image_data_layer.cpp:58] A total of 10000 images.
I0318 15:50:33.701350  3209 image_data_layer.cpp:85] output data size: 100,1,28,28
I0318 15:50:33.702191  3209 net.cpp:166] Setting up data
I0318 15:50:33.702203  3209 net.cpp:173] Top shape: 100 1 28 28 (78400)
I0318 15:50:33.702206  3209 net.cpp:173] Top shape: 100 (100)
I0318 15:50:33.702208  3209 net.cpp:181] Memory required for data: 314000
I0318 15:50:33.702211  3209 layer_factory.hpp:77] Creating layer data_scaling
I0318 15:50:33.702217  3209 net.cpp:116] Creating Layer data_scaling
I0318 15:50:33.702219  3209 net.cpp:450] data_scaling <- data
I0318 15:50:33.702224  3209 net.cpp:411] data_scaling -> data (in-place)
I0318 15:50:33.702229  3209 net.cpp:166] Setting up data_scaling
I0318 15:50:33.702232  3209 net.cpp:173] Top shape: 100 1 28 28 (78400)
I0318 15:50:33.702234  3209 net.cpp:181] Memory required for data: 627600
I0318 15:50:33.702236  3209 layer_factory.hpp:77] Creating layer conv1
I0318 15:50:33.702244  3209 net.cpp:116] Creating Layer conv1
I0318 15:50:33.702245  3209 net.cpp:450] conv1 <- data
I0318 15:50:33.702250  3209 net.cpp:424] conv1 -> conv1
I0318 15:50:33.703503  3209 net.cpp:166] Setting up conv1
I0318 15:50:33.703516  3209 net.cpp:173] Top shape: 100 36 26 26 (2433600)
I0318 15:50:33.703517  3209 net.cpp:181] Memory required for data: 10362000
I0318 15:50:33.703526  3209 layer_factory.hpp:77] Creating layer bn1
I0318 15:50:33.703532  3209 net.cpp:116] Creating Layer bn1
I0318 15:50:33.703534  3209 net.cpp:450] bn1 <- conv1
I0318 15:50:33.703542  3209 net.cpp:424] bn1 -> bn1
I0318 15:50:33.703869  3209 net.cpp:166] Setting up bn1
I0318 15:50:33.703878  3209 net.cpp:173] Top shape: 100 36 26 26 (2433600)
I0318 15:50:33.703881  3209 net.cpp:181] Memory required for data: 20096400
I0318 15:50:33.703891  3209 layer_factory.hpp:77] Creating layer bn1_bn1_0_split
I0318 15:50:33.703896  3209 net.cpp:116] Creating Layer bn1_bn1_0_split
I0318 15:50:33.703899  3209 net.cpp:450] bn1_bn1_0_split <- bn1
I0318 15:50:33.703903  3209 net.cpp:424] bn1_bn1_0_split -> bn1_bn1_0_split_0
I0318 15:50:33.703908  3209 net.cpp:424] bn1_bn1_0_split -> bn1_bn1_0_split_1
I0318 15:50:33.703953  3209 net.cpp:166] Setting up bn1_bn1_0_split
I0318 15:50:33.703958  3209 net.cpp:173] Top shape: 100 36 26 26 (2433600)
I0318 15:50:33.703960  3209 net.cpp:173] Top shape: 100 36 26 26 (2433600)
I0318 15:50:33.703963  3209 net.cpp:181] Memory required for data: 39565200
I0318 15:50:33.703965  3209 layer_factory.hpp:77] Creating layer conv1_inv
I0318 15:50:33.703969  3209 net.cpp:116] Creating Layer conv1_inv
I0318 15:50:33.703971  3209 net.cpp:450] conv1_inv <- bn1_bn1_0_split_0
I0318 15:50:33.703976  3209 net.cpp:424] conv1_inv -> conv1_inv
I0318 15:50:33.703997  3209 net.cpp:166] Setting up conv1_inv
I0318 15:50:33.704004  3209 net.cpp:173] Top shape: 100 36 26 26 (2433600)
I0318 15:50:33.704005  3209 net.cpp:181] Memory required for data: 49299600
I0318 15:50:33.704007  3209 layer_factory.hpp:77] Creating layer conv1_inv_relu
I0318 15:50:33.704011  3209 net.cpp:116] Creating Layer conv1_inv_relu
I0318 15:50:33.704013  3209 net.cpp:450] conv1_inv_relu <- conv1_inv
I0318 15:50:33.704016  3209 net.cpp:411] conv1_inv_relu -> conv1_inv (in-place)
I0318 15:50:33.704172  3209 net.cpp:166] Setting up conv1_inv_relu
I0318 15:50:33.704182  3209 net.cpp:173] Top shape: 100 36 26 26 (2433600)
I0318 15:50:33.704185  3209 net.cpp:181] Memory required for data: 59034000
I0318 15:50:33.704197  3209 layer_factory.hpp:77] Creating layer relu1
I0318 15:50:33.704201  3209 net.cpp:116] Creating Layer relu1
I0318 15:50:33.704205  3209 net.cpp:450] relu1 <- bn1_bn1_0_split_1
I0318 15:50:33.704210  3209 net.cpp:424] relu1 -> conv1_pos
I0318 15:50:33.704526  3209 net.cpp:166] Setting up relu1
I0318 15:50:33.704537  3209 net.cpp:173] Top shape: 100 36 26 26 (2433600)
I0318 15:50:33.704540  3209 net.cpp:181] Memory required for data: 68768400
I0318 15:50:33.704542  3209 layer_factory.hpp:77] Creating layer conv2
I0318 15:50:33.704552  3209 net.cpp:116] Creating Layer conv2
I0318 15:50:33.704555  3209 net.cpp:450] conv2 <- conv1_pos
I0318 15:50:33.704562  3209 net.cpp:424] conv2 -> conv2
I0318 15:50:33.705694  3209 net.cpp:166] Setting up conv2
I0318 15:50:33.705708  3209 net.cpp:173] Top shape: 100 128 12 12 (1843200)
I0318 15:50:33.705709  3209 net.cpp:181] Memory required for data: 76141200
I0318 15:50:33.705715  3209 layer_factory.hpp:77] Creating layer conv2_inv
I0318 15:50:33.705724  3209 net.cpp:116] Creating Layer conv2_inv
I0318 15:50:33.705727  3209 net.cpp:450] conv2_inv <- conv1_inv
I0318 15:50:33.705737  3209 net.cpp:424] conv2_inv -> conv2_inv
I0318 15:50:33.706868  3209 net.cpp:166] Setting up conv2_inv
I0318 15:50:33.706879  3209 net.cpp:173] Top shape: 100 128 12 12 (1843200)
I0318 15:50:33.706882  3209 net.cpp:181] Memory required for data: 83514000
I0318 15:50:33.706889  3209 layer_factory.hpp:77] Creating layer block1
I0318 15:50:33.706895  3209 net.cpp:116] Creating Layer block1
I0318 15:50:33.706899  3209 net.cpp:450] block1 <- conv2
I0318 15:50:33.706902  3209 net.cpp:450] block1 <- conv2_inv
I0318 15:50:33.706907  3209 net.cpp:424] block1 -> block1
I0318 15:50:33.706935  3209 net.cpp:166] Setting up block1
I0318 15:50:33.706940  3209 net.cpp:173] Top shape: 100 256 12 12 (3686400)
I0318 15:50:33.706943  3209 net.cpp:181] Memory required for data: 98259600
I0318 15:50:33.706944  3209 layer_factory.hpp:77] Creating layer bn2
I0318 15:50:33.706948  3209 net.cpp:116] Creating Layer bn2
I0318 15:50:33.706950  3209 net.cpp:450] bn2 <- block1
I0318 15:50:33.706961  3209 net.cpp:424] bn2 -> bn2
I0318 15:50:33.707129  3209 net.cpp:166] Setting up bn2
I0318 15:50:33.707137  3209 net.cpp:173] Top shape: 100 256 12 12 (3686400)
I0318 15:50:33.707139  3209 net.cpp:181] Memory required for data: 113005200
I0318 15:50:33.707146  3209 layer_factory.hpp:77] Creating layer bn2_bn2_0_split
I0318 15:50:33.707150  3209 net.cpp:116] Creating Layer bn2_bn2_0_split
I0318 15:50:33.707154  3209 net.cpp:450] bn2_bn2_0_split <- bn2
I0318 15:50:33.707157  3209 net.cpp:424] bn2_bn2_0_split -> bn2_bn2_0_split_0
I0318 15:50:33.707162  3209 net.cpp:424] bn2_bn2_0_split -> bn2_bn2_0_split_1
I0318 15:50:33.707192  3209 net.cpp:166] Setting up bn2_bn2_0_split
I0318 15:50:33.707196  3209 net.cpp:173] Top shape: 100 256 12 12 (3686400)
I0318 15:50:33.707200  3209 net.cpp:173] Top shape: 100 256 12 12 (3686400)
I0318 15:50:33.707201  3209 net.cpp:181] Memory required for data: 142496400
I0318 15:50:33.707204  3209 layer_factory.hpp:77] Creating layer block1_inv
I0318 15:50:33.707207  3209 net.cpp:116] Creating Layer block1_inv
I0318 15:50:33.707211  3209 net.cpp:450] block1_inv <- bn2_bn2_0_split_0
I0318 15:50:33.707214  3209 net.cpp:424] block1_inv -> block1_inv
I0318 15:50:33.707232  3209 net.cpp:166] Setting up block1_inv
I0318 15:50:33.707236  3209 net.cpp:173] Top shape: 100 256 12 12 (3686400)
I0318 15:50:33.707237  3209 net.cpp:181] Memory required for data: 157242000
I0318 15:50:33.707240  3209 layer_factory.hpp:77] Creating layer block1_inv_relu
I0318 15:50:33.707244  3209 net.cpp:116] Creating Layer block1_inv_relu
I0318 15:50:33.707247  3209 net.cpp:450] block1_inv_relu <- block1_inv
I0318 15:50:33.707250  3209 net.cpp:411] block1_inv_relu -> block1_inv (in-place)
I0318 15:50:33.707559  3209 net.cpp:166] Setting up block1_inv_relu
I0318 15:50:33.707571  3209 net.cpp:173] Top shape: 100 256 12 12 (3686400)
I0318 15:50:33.707576  3209 net.cpp:181] Memory required for data: 171987600
I0318 15:50:33.707578  3209 layer_factory.hpp:77] Creating layer relu2
I0318 15:50:33.707592  3209 net.cpp:116] Creating Layer relu2
I0318 15:50:33.707595  3209 net.cpp:450] relu2 <- bn2_bn2_0_split_1
I0318 15:50:33.707599  3209 net.cpp:424] relu2 -> block1_pos
I0318 15:50:33.707778  3209 net.cpp:166] Setting up relu2
I0318 15:50:33.707788  3209 net.cpp:173] Top shape: 100 256 12 12 (3686400)
I0318 15:50:33.707792  3209 net.cpp:181] Memory required for data: 186733200
I0318 15:50:33.707793  3209 layer_factory.hpp:77] Creating layer conv3
I0318 15:50:33.707803  3209 net.cpp:116] Creating Layer conv3
I0318 15:50:33.707808  3209 net.cpp:450] conv3 <- block1_pos
I0318 15:50:33.707813  3209 net.cpp:424] conv3 -> conv3
I0318 15:50:33.710371  3209 net.cpp:166] Setting up conv3
I0318 15:50:33.710383  3209 net.cpp:173] Top shape: 100 128 5 5 (320000)
I0318 15:50:33.710386  3209 net.cpp:181] Memory required for data: 188013200
I0318 15:50:33.710391  3209 layer_factory.hpp:77] Creating layer conv3_inv
I0318 15:50:33.710403  3209 net.cpp:116] Creating Layer conv3_inv
I0318 15:50:33.710407  3209 net.cpp:450] conv3_inv <- block1_inv
I0318 15:50:33.710412  3209 net.cpp:424] conv3_inv -> conv3_inv
I0318 15:50:33.712980  3209 net.cpp:166] Setting up conv3_inv
I0318 15:50:33.712993  3209 net.cpp:173] Top shape: 100 128 5 5 (320000)
I0318 15:50:33.712996  3209 net.cpp:181] Memory required for data: 189293200
I0318 15:50:33.713001  3209 layer_factory.hpp:77] Creating layer block_output
I0318 15:50:33.713006  3209 net.cpp:116] Creating Layer block_output
I0318 15:50:33.713009  3209 net.cpp:450] block_output <- conv3
I0318 15:50:33.713012  3209 net.cpp:450] block_output <- conv3_inv
I0318 15:50:33.713017  3209 net.cpp:424] block_output -> block_output
I0318 15:50:33.713044  3209 net.cpp:166] Setting up block_output
I0318 15:50:33.713052  3209 net.cpp:173] Top shape: 100 256 5 5 (640000)
I0318 15:50:33.713053  3209 net.cpp:181] Memory required for data: 191853200
I0318 15:50:33.713055  3209 layer_factory.hpp:77] Creating layer block_output_relu
I0318 15:50:33.713058  3209 net.cpp:116] Creating Layer block_output_relu
I0318 15:50:33.713062  3209 net.cpp:450] block_output_relu <- block_output
I0318 15:50:33.713064  3209 net.cpp:411] block_output_relu -> block_output (in-place)
I0318 15:50:33.713230  3209 net.cpp:166] Setting up block_output_relu
I0318 15:50:33.713239  3209 net.cpp:173] Top shape: 100 256 5 5 (640000)
I0318 15:50:33.713243  3209 net.cpp:181] Memory required for data: 194413200
I0318 15:50:33.713244  3209 layer_factory.hpp:77] Creating layer fc_10
I0318 15:50:33.713251  3209 net.cpp:116] Creating Layer fc_10
I0318 15:50:33.713254  3209 net.cpp:450] fc_10 <- block_output
I0318 15:50:33.713259  3209 net.cpp:424] fc_10 -> fc_10
I0318 15:50:33.715163  3209 net.cpp:166] Setting up fc_10
I0318 15:50:33.715176  3209 net.cpp:173] Top shape: 100 10 (1000)
I0318 15:50:33.715179  3209 net.cpp:181] Memory required for data: 194417200
I0318 15:50:33.715188  3209 layer_factory.hpp:77] Creating layer accuracy
I0318 15:50:33.715193  3209 net.cpp:116] Creating Layer accuracy
I0318 15:50:33.715195  3209 net.cpp:450] accuracy <- fc_10
I0318 15:50:33.715198  3209 net.cpp:450] accuracy <- label
I0318 15:50:33.715204  3209 net.cpp:424] accuracy -> accuracy
…
